volume/trained_deepsdfs/sdfnet_model.pt (torch, 28531 bytes, 4 tensors)

frequency f4 [3, 256]
000000 1c 3e 33 c0 1a b9 13 c1 c6 37 ea 40 3f 2f 44 c0
       -2.8006659 -9.232691 7.3193083 -3.0653837
000010 66 4c a6 c0 b6 c9 2e bf e3 72 98 40 fe c9 1b c0
       -5.196826 -0.68276536 4.7640243 -2.4342036
000020 61 6c 17 c1 2e 7c 70 c0 b9 9d b7 c0 25 e3 6e c0
       -9.46396 -3.7575793 -5.7380033 -3.7326138
000030 35 0b 05 c1 2a 36 18 bd 5e 3f e1 40 34 7e 85 40
       -8.315236 -0.03716103 7.0389853 4.1716557
000040 e1 4e 0e c1 a0 fa 8e 40 8d d7 54 c0 2a 8d d7 bf
       -8.894258 4.468094 -3.3256562 -1.6839955
000050 c6 9d 57 c0 24 7c 8e bf 30 a7 cf bf 8c bc b6 c0
       -3.3690047 -1.1131635 -1.6222897 -5.710516
000060 55 40 06 3f 8a e5 64 40 28 48 f4 c0 c5 28 99 c1
       0.5244191 3.57651 -7.633808 -19.144907
000070 e6 ea 8a 40 1c e6 20 3f 82 15 dc c0 04 23 96 40
       4.341174 0.6285112 -6.8776255 4.6917744
000080 40 86 5a 40 74 b5 38 bf 3b 53 16 3f f7 64 47 40
       3.414444 -0.72151875 0.5872075 3.1155374
000090 2d f6 e0 40 ee 41 95 41 7b 8a ef c0 c8 82 99 3f
       7.0300508 18.657192 -7.4856544 1.1993036
0000a0 ce c1 61 c0 48 d9 1e 41 57 91 60 41 15 76 47 3e
       -3.527454 9.928047 14.035483 0.19478638
0000b0 2f 33 ff bf 1c d5 b4 40 9a 99 a6 40 61 2e 8a c0
       -1.9937495 5.6510143 5.20625 -4.3181615
0000c0 86 89 f6 c0 00 d6 5e 40 50 c4 13 c1 8e 62 18 c0
       -7.7042875 3.4818115 -9.235428 -2.3810153
0000d0 02 63 6c 40 0c 6f 0a c1 72 87 ee bf fb eb da bf
       3.693543 -8.652111 -1.8635085 -1.7103266
0000e0 96 0c 76 41 1b 19 eb c0 6f 41 f6 c0 be 32 62 c1
       15.378073 -7.3468146 -7.6954875 -14.137388
0000f0 31 3f 3c 41 e4 17 e3 bf e8 38 97 bf c6 02 2f 40
       11.765428 -1.7741666 -1.1814241 2.7345443
000100 a0 c2 13 40 5c b9 93 c0 bc 77 8c c0 0e 1c b4 40
       2.308754 -4.616377 -4.389616 5.6284246
000110 8c 7f 7b be 48 00 98 c0 b5 5c 22 40 35 0b 64 41
       -0.24560374 -4.7500343 2.5369084 14.252736
000120 e2 06 b5 40 e8 35 93 c0 1e 2d e5 c0 1d 3b ce 40
       5.65709 -4.6003304 -7.1617575 6.444716
000130 44 39 b0 c0 0a c6 9f c0 cc cc a0 3f 63 f4 a5 c0
       -5.5069904 -4.9929247 1.2562499 -5.1860824
000140 07 32 44 c0 0e 7e 87 40 c6 f0 68 c0 1c a3 9b 3f
       -3.0655534 4.2341375 -3.6396956 1.2159152
000150 5e 15 2c 40 4c ae 02 41 37 6f 75 c0 54 7a 43 bf
       2.6888041 8.167553 -3.834913 -0.7635853
000160 0a 5f a4 40 10 64 aa 40 2c ca 94 c0 84 83 c9 bf
       5.1366014 5.3247147 -4.649679 -1.574326
000170 20 f7 19 c1 d3 23 48 41 22 a2 90 40 4a b1 f0 3f
       -9.622833 12.508746 4.5197916 1.8804104
000180 85 21 0b 3f 08 07 33 40 b0 47 4e c0 f0 7b c7 40
       0.5434802 2.7973042 -3.2231255 6.233879
000190 2a 9f a3 3f 65 2c 9e 40 88 cd c1 c0 c0 af ef c0
       1.2782948 4.9429193 -6.0563393 -7.490204
0001a0 43 a4 38 3f e2 8b 93 c0 52 36 ab 40 b8 2e 55 40
       0.72125643 -4.6108255 5.350381 3.3309765
0001b0 80 66 a7 40 2c af 10 c1 a9 b7 56 40 2d 6b 2c c1
       5.231262 -9.042767 3.3549597 -10.776166
0001c0 91 b8 c0 3f 84 a0 f2 40 3b 9f 01 41 94 7f 5c 3f
       1.5056325 7.582094 8.101375 0.8613217
0001d0 f2 99 c9 3f 3c 32 fe bd c5 b4 18 41 f8 82 19 bf
       1.5750105 -0.12411925 9.544133 -0.5996547
0001e0 6e 39 0d 41 01 cf ef bf e8 bf 20 41 f1 05 d9 40
       8.826521 -1.8735048 10.046852 6.7819753
0001f0 ec 33 00 c1 90 d9 06 40 6c dd e7 c0 da c1 99 c0
       -8.012676 2.107029 -7.245779 -4.8049135
000200 4f 46 4a 41 de 24 36 bf dc 36 c0 c0 1d 33 2c 40
       12.642165 -0.71150005 -6.0066967 2.6906197
000210 9c fe b8 c0 fa b4 f8 c0 5e f6 35 41 5a 71 67 41
       -5.7810802 -7.772092 11.372648 14.465174
000220 54 81 d1 40 05 0d 94 40 3e 36 c0 3f 6e 2e 20 c1
       6.547037 4.6265893 1.5016553 -10.011335
000230 4b e3 b4 bf ff 8d b7 40 e0 dd 89 c1 f2 c3 3b 41
       -1.4131864 5.7360835 -17.233337 11.735338
000240 66 5c 26 41 43 ca ed c0 4f 24 6a c0 ac 1a 34 c1
       10.397558 -7.43094 -3.658466 -11.256512
000250 9d 82 82 3f cb eb e6 c0 6b 70 8b bf 18 80 d5 bf
       1.019611 -7.2162833 -1.0893682 -1.6679716
000260 5a 6e 06 41 be 6a 96 40 27 fa 21 c0 08 ef 85 bf
       8.401941 4.70053 -2.530893 -1.0463572
000270 cb 12 8b c0 14 78 31 41 78 f8 d3 c0 df 42 a5 c0
       -4.346044 11.091816 -6.6240807 -5.164413
000280 14 32 78 40 ae cb 65 40 08 56 93 c0 57 10 c0 40
       3.8780565 3.5905566 -4.604252 6.0019946
000290 d2 a6 4a 41 94 4b 16 41 d8 02 aa bf 4a c7 03 c0
       12.665728 9.393452 -1.3282118 -2.0590386
0002a0 f1 d0 bd 40 da 8a 0c c1 10 90 a9 c0 f7 c0 85 c0
       5.9317555 -8.783899 -5.2988358 -4.1798053
0002b0 64 e1 c7 bd 9d 6e b3 40 40 a6 95 40 17 99 e1 40
       -0.09759787 5.6072526 4.676544 7.0499377
0002c0 14 21 3a 41 b1 fe ad c0 31 17 07 c1 48 ef 43 40
       11.633076 -5.4373403 -8.443162 3.0614796
0002d0 18 a6 cd c0 b6 9b 93 c0 6f 6b af c0 78 2b e1 3f
       -6.426525 -4.6127577 -5.4818645 1.7591391
0002e0 94 1a d6 c0 b3 1b fc 40 65 f9 26 40 d6 b4 0d c1
       -6.6907444 7.8783813 2.6089718 -8.856649
0002f0 08 ae 2b c1 3b c6 4a bf 05 f8 84 40 1c 31 ec c0
       -10.729988 -0.79208726 4.155276 -7.380995
000300 5b 81 80 41 66 97 13 40 64 4c ae c0 38 96 a3 c0
       16.063162 2.3061156 -5.446825 -5.1120872
000310 24 81 be c0 7f 92 45 c0 1e 1b a6 bf 46 e5 19 40
       -5.953264 -3.0870664 -1.2977026 2.4046187
000320 e8 a1 45 40 fd ad d4 bf 92 78 cd c0 77 84 91 c0
       3.088007 -1.6615597 -6.420968 -4.54742
000330 6c f0 99 40 6e 10 ec c0 ce b0 b4 bf c3 4b 00 c0
       4.8105984 -7.3770056 -1.4116457 -2.0046241
000340 81 3f 8d c0 1a 10 18 41 95 67 3b 41 1e c9 77 40
       -4.414002 9.503931 11.712789 3.8716502
000350 f2 59 7c c0 03 ae e5 40 44 41 e2 40 17 74 0a c1
       -3.9429898 7.1774917 7.070467 -8.653342
000360 c4 bd bd 3f 41 e7 b7 c0 60 1a 85 40 83 50 09 40
       1.4823537 -5.746979 4.1594696 2.145539
000370 5b 95 f8 3f ad 96 11 41 b7 f2 42 40 20 e7 ee 40
       1.942058 9.099286 3.0460641 7.4657135
000380 66 6d fe 3f 9e 66 30 bf bc cb 0b 40 4c 1d e4 40
       1.9877136 -0.6890658 2.18431 7.1285763
000390 be 61 b3 bf e3 e9 0f c1 c4 f3 40 bf 9b a6 43 c0
       -1.4014204 -8.994601 -0.75371957 -3.0570438
0003a0 21 11 e2 40 ed 12 81 bd ac 98 06 41 f0 b1 da 3f
       7.064591 -0.06302438 8.412273 1.7085552
0003b0 7c 5e b5 3f 9a 92 21 41 34 87 e4 40 a8 ca 11 c0
       1.4169459 10.098291 7.1415043 -2.2779942
0003c0 25 52 22 40 ea f5 48 41 5a 72 ac c0 c3 15 af c0
       2.5362637 12.560038 -5.388959 -5.4714065
0003d0 24 d0 e7 bf 9a 66 3e 41 8e 50 58 be 5a 43 cb 3f
       -1.8110394 11.900049 -0.21124479 1.5879929
0003e0 9d 5a 59 c1 37 4b f7 3f f6 f2 09 41 7e ba 65 40
       -13.584622 1.9319829 8.621817 3.5895076
0003f0 1a 33 24 c1 5d de 70 c0 51 ab fc 3f 46 1e ad bf
       -10.262476 -3.763572 1.9739782 -1.3524864

weight f4 [8, 514]
000000 da 98 78 3c aa ef 2d 3e 24 b7 d5 bd cc b2 3a bc
       0.015173161 0.16985956 -0.10435322 -0.011395168
000010 32 42 87 bd a8 b1 c7 bc dc 42 a4 bb ce 5f 28 bc
       -0.06604423 -0.024376705 -0.005012853 -0.010276748
000020 81 d7 b7 3d 2d c8 f2 bc f6 d8 d1 3d fc 75 0d 3d
       0.08976651 -0.029636467 0.1024646 0.034536347
000030 4b 24 c7 bd d0 ac a7 be b9 63 20 3c d4 26 5b 3d
       -0.09723719 -0.32749033 0.009789401 0.053503826
000040 f3 4e 19 3c a0 be 56 3d c6 31 fc 3c af 1c 6f 3b
       0.009357202 0.052427888 0.030785453 0.0036485603
000050 ca af 36 3d 7a 02 07 be 9a d5 90 3d 72 a7 a8 3d
       0.04460124 -0.13184538 0.07071991 0.08235063
000060 97 61 fc 3d f2 b5 24 be 0a 6e 22 3c 4b 26 8a 3c
       0.12323301 -0.16085032 0.009913931 0.016863963
000070 79 f0 69 bd ea f1 bb 3d 5f c6 00 3e 9c 31 14 bd
       -0.0571141 0.09177001 0.12575673 -0.036180124
000080 34 c8 28 bd bf 11 bf bb f4 ee 03 3d 12 1c ea bc
       -0.041206554 -0.005830973 0.032210305 -0.028577838
000090 ee e4 8d 3c 14 fa 0c 3d 5f f4 63 3d 0d 5c 0d 3c
       0.017321076 0.03441818 0.055652972 0.008627904
0000a0 e2 fb 75 bd 44 10 5c bb bb 8d da 3d c9 41 08 3d
       -0.060054667 -0.003357903 0.10671564 0.033265863
0000b0 e8 79 a6 bc a7 6b ce bb 6a 30 ad 3d c7 44 ce 3d
       -0.020321801 -0.0062994543 0.084565 0.10071712
0000c0 da fc d1 bc 18 ad 48 3e 85 33 03 bd a6 97 d2 3d
       -0.025633264 0.1959728 -0.032031555 0.10282831
0000d0 11 86 d1 bd 6c c0 4e 3d 99 20 c3 3d fa 00 14 be
       -0.10230649 0.050476477 0.09527702 -0.14453498
0000e0 e1 24 86 bc 8f 96 ec bc 84 c7 37 3d e4 dd b8 bc
       -0.016375007 -0.028880386 0.044868007 -0.022566743
0000f0 b3 26 bc bd 8f 9f 79 3d b3 e7 38 3d 36 d0 72 bd
       -0.09187069 0.060943183 0.04514284 -0.059280597
000100 32 68 0c 3e 1d 9a 40 3d 44 28 9a bb c1 e4 62 3b
       0.13711622 0.047021974 -0.004704507 0.0034621211
000110 22 85 97 bd cb 55 4a bd 85 45 18 3d a7 fd b8 bc
       -0.0739844 -0.049398225 0.037175674 -0.022581888
000120 3b aa 46 bd 85 73 1d 3d 8c 17 02 be 2e 83 7e bd
       -0.04850219 0.038440246 -0.12704295 -0.06213682
000130 eb 1d 5a bd 74 e1 65 bc 79 3f 80 3d 16 e7 14 3d
       -0.05325119 -0.014030803 0.062621064 0.036353193
000140 2e 73 e3 bc 0e 44 14 3d 72 e0 51 3c 43 48 ba bc
       -0.027764883 0.036197715 0.01280986 -0.022739535
000150 de 02 46 bb 46 0b 50 bb 83 78 59 bd 78 4c 5f bd
       -0.0030214111 -0.0031745 -0.053093445 -0.054516286
000160 45 8e 4c bd 23 e0 ff bc 4f 8b 42 3c 91 d6 bf 3d
       -0.049940366 -0.031234806 0.011874034 0.09367097
000170 04 eb a3 bd 1f c4 10 3d 61 cc f3 bc 1f f6 c2 bc
       -0.0800381 0.035343286 -0.029760541 -0.023799
000180 f5 8f ee 3c 63 9d 19 bd 23 dd ec 3d ef cf a6 bd
       0.029121378 -0.03750361 0.11565616 -0.08145129
000190 28 48 4c be 0e 66 2e 3d 00 ca 2a 3c 41 ba 03 bd
       -0.199494 0.042577796 0.010424137 -0.032160047
0001a0 ab 70 18 bd 8a ff f7 3d 7c e8 8a 3c ee 1e a7 bd
       -0.037216824 0.12109287 0.01695656 -0.08160196
0001b0 85 f5 2f bd 27 f7 f7 bd 18 dc ce bd 3f 81 44 3d
       -0.042958755 -0.121076874 -0.10100573 0.04797482
0001c0 26 25 dd bc bd 2b 27 3d ae 54 3d bc 65 f0 a1 bc
       -0.026995253 0.040813196 -0.011555834 -0.01976795
0001d0 a2 90 d8 3b c6 c9 37 3b 22 60 ff 3d 9d a5 1a 3d
       0.0066090384 0.002804385 0.12469508 0.037755597
0001e0 ef 27 9e 3b 9e 3b 32 3d aa 9a e4 bb bf 0f 00 3d
       0.004826538 0.043513887 -0.006976445 0.031265017
0001f0 4c b1 dd 3c 13 32 6e bc 0a 56 95 bd 29 1a ad 3d
       0.02706208 -0.014538306 -0.07291801 0.08452255
000200 cd 3e 07 3d a4 f1 10 be 2f 84 43 3d 90 7b d8 3d
       0.033018876 -0.14154679 0.047733482 0.10570443
000210 bb d3 e4 3b 48 17 c8 3d 03 2e fc 3c e0 80 70 bd
       0.006983248 0.097700655 0.030783659 -0.058716655
000220 55 25 c0 3d 75 05 8f 3b 97 c2 a9 3d fc ee 9b bc
       0.093821205 0.004364664 0.08289068 -0.019034855
000230 4b b7 91 bd 48 a3 58 3d 18 50 14 3c d9 6d f1 bb
       -0.071150385 0.052890092 0.009052299 -0.007367831
000240 f5 5d cb bc d9 c3 6a bc ed 2f e7 bc 7e 3c 8e bb
       -0.024825076 -0.01432892 -0.028221095 -0.0043407073
000250 d5 d3 ab 3c 38 d8 99 3b d5 08 05 3d a2 be 53 bc
       0.020975033 0.0046949647 0.032479126 -0.012923868
000260 36 14 72 3b b9 3e 76 3d fa e8 df 3d 31 62 1e 3e
       0.0036938316 0.06011841 0.10933109 0.15467145
000270 d6 70 47 3c 59 f0 86 3d 30 a5 22 3c 77 a7 dc 3c
       0.012172898 0.065888114 0.009927079 0.026935322
000280 61 03 f4 bc ac 5b 31 bd 97 81 07 3c 30 2c b0 bc
       -0.029786767 -0.043300316 0.008270643 -0.021505445
000290 01 aa 2e bb 5e 74 0e be 1d f2 c5 bc fd 81 e3 bc
       -0.0026651623 -0.13911578 -0.0241633 -0.027771944
0002a0 17 24 51 bd 16 51 03 bc 0e 46 9d be 76 0b 11 3e
       -0.05105981 -0.008014938 -0.3071751 0.14164528
0002b0 e2 82 7a bc bc a3 08 bd 8f bb db bd 92 f0 80 3d
       -0.015289994 -0.033359274 -0.10729133 0.06295885
0002c0 22 d0 80 3c 1a 4f fd 3c 00 7f 0e bb 15 9a 88 3d
       0.015724245 0.030921508 -0.0021743178 0.06670014
0002d0 44 33 07 be 2a 26 04 bd 5b e2 3b 3d 18 7e 67 3d
       -0.1320315 -0.03226296 0.045870166 0.056516737
0002e0 cc 4e 8b bc 60 bd d0 ba 84 c2 2c bd 0d cb da bd
       -0.017005347 -0.0015925579 -0.042177692 -0.1068326
0002f0 f6 f5 25 bb 5c 2c ec 3d 6c 79 fd 3d dc e3 f3 3d
       -0.0025323606 0.115318984 0.12376675 0.11908695
000300 9f 46 c4 3c 2b ac 89 3d 4e 8f 04 bd 8d ed 71 bd
       0.023959456 0.067222916 -0.03236323 -0.059064437
000310 30 9c 9a bd 43 01 de 3d d0 91 c8 bd ab 6e 8b 3b
       -0.07549322 0.108400844 -0.097934365 0.004255136
000320 88 f3 f1 bc 83 67 f6 3d 80 2f 10 be b2 b9 b4 bc
       -0.02953507 0.12031462 -0.1408062 -0.022061203
000330 e3 52 0a bd 8f 93 bb bd 72 ab f4 3b 37 c7 dc bd
       -0.033770453 -0.09159004 0.007466727 -0.10780185
000340 50 b9 5f 3d 19 d0 05 be 3a 1d c7 bc a0 56 8b 3d
       0.054620087 -0.13067664 -0.024305928 0.06803632
000350 72 ed 62 bd a1 3e 29 3c a3 e6 28 3d d4 3e 02 be
       -0.055402227 0.010329873 0.041235577 -0.1271928
000360 e2 21 73 3c ca ee 19 bc fd 5b 26 3c 41 88 2f bd
       0.014839621 -0.009395311 0.010153768 -0.04285455
000370 2c b6 bb bc eb 88 ea bc 55 a4 92 bc 87 e3 5c bb
       -0.022914015 -0.02862974 -0.017900625 -0.0033704953
000380 1d 16 83 bc 91 d5 b8 bd ec 6c 93 3b 6d db 9e bb
       -0.016001755 -0.090251096 0.0044990685 -0.004847935
000390 4f 9c 61 be 2a d7 e8 3c bc d0 7d bd 3d 51 b3 bc
       -0.22032283 0.02842291 -0.061966643 -0.021889323
0003a0 ae eb 38 bd 42 5f 9c bd dd fa ca 3d b6 41 1a 3c
       -0.045146637 -0.076353565 0.099111296 0.009415081
0003b0 59 40 44 3d c2 fe b5 bc 88 68 3f 3d 9c e2 75 bd
       0.04791293 -0.022216205 0.04673055 -0.060030565
0003c0 1d e8 82 bd 0d a6 8c bc b0 83 f2 bb 16 f7 6d 3c
       -0.06391928 -0.017169023 -0.0074009523 0.014524242
0003d0 94 ac 69 3c ee f1 2b bd ea 72 3c bd 64 9e d8 3d
       0.014262337 -0.04197877 -0.046008028 0.105770856
0003e0 b7 04 79 bc 7e 0f c0 3d d9 d3 fd 3b 48 5f 18 be
       -0.015198878 0.09377955 0.0077462015 -0.14880097
0003f0 14 a8 0e bd cb 56 0b 3e a5 62 e3 3c 63 57 18 3d
       -0.03482826 0.13607328 0.027756998 0.037192713

bias f4 [8]
000000 2f 69 cb 3d 11 01 c4 bc 26 d1 f5 3d cd ab 0b 3d
       0.099321716 -0.02392629 0.120027825 0.03409939
000010 b5 d9 43 3d 60 f8 c1 3b e9 25 0e be 0b 8c 95 bd
       0.047815043 0.005919501 -0.13881649 -0.07302102

weight f4 [1, 8]
000000 f7 99 b1 3d 5b 2a ae be 81 f7 c7 3e 56 1c d5 be
       0.086719446 -0.3401669 0.39056018 -0.4162318
000010 a1 64 91 3e 2f ee e1 3e 18 06 06 bf 58 49 8b be
       0.28397086 0.44127032 -0.5235305 -0.27204394
