artifacts/experiment_20250726_193600/training_artifacts/run_20250726_193605/checkpoints/latest_checkpoint.pth (torch, 113819 bytes, 24 tensors)

input_layer.0.weight f4 [64, 7]
00000000: 5172 343b 8993 4b3d 1f79 9dbd b622 bbbc
00000010: 765e b63d 8a93 493e 8d77 943e 774a f1bd
00000020: e57c a63e f721 1fbc 2768 c33e a0e3 943e
00000030: dc10 36bc dcae 103e d1c8 fbbd bb37 03be
00000040: 2bb5 a73e 30af 28bd 00d0 37be ce92 66bd
00000050: fe18 503e 8e16 35be af44 983c b779 a53c
00000060: 6e0b a0be 4edd fb3d 3e9f 703e 5fb7 42be
00000070: 4152 353e e56b 533e f4cb 7bbe adb9 00be
00000080: af3e 7abe 4f6a 4a3e c42f 83be 90e1 a9bd
00000090: 6bed da3d f36c ab3d cef6 a13d 496d 0e3e
000000a0: 7dbd 1dbe 6b6c f73d e4e6 93bd b7cd bebe
000000b0: ea43 e6be 8936 61bc df46 863c a95b 2fbe
000000c0: bae0 7a3e 7ae9 7fbe 8961 44be 2a44 053e
000000d0: 5dd4 10be 36e4 0fbe 5c55 753e 4a40 c3bd
000000e0: adc6 79bc d28a ecbc ac6a e9bd 74db 413e
000000f0: 7fce 593e 0009 e23d 6fbf b8bd 84e8 693d
00000100: fcc2 5fbe 6c6c 43bd 3e00 303d ab6d 54be
00000110: 1150 933e 729c 883c bd68 4d3c 6147 303e
00000120: 1b38 32be b1ca e0be 34c8 f13d 66b0 733d
00000130: 6c3a 1a3e bc9f f03d 21e2 c33e b0df a8bd
00000140: 4ab7 ddbd b00a 9f3d 87b5 a0be 6a6f 7c3d
00000150: 4a3f 19be 6157 46be 1bdb a53c ea9b 193f
00000160: 5a42 0f3c 8520 cb3e ebed d8bb 5e2c 2b3d
00000170: 43ed 29bd 004d abbe d663 5fbd e570 b1be
00000180: 9688 67bd 5978 503d 2ba4 76be 7cc9 0cbe
00000190: 7ba7 9a3e 1691 02be b4f7 803c 05c9 f2bd
000001a0: a024 5abe 4ddd a23e f121 55be 21b6 5dbc
000001b0: 8d31 923c 1a1d 88be ee0f 163e 2612 413c
000001c0: 35a9 ac3e a204 2e3e a2e2 ce3d 762f 793e
000001d0: 843c b5be 1711 7cbe e3b9 eebd b71f 3a3e
000001e0: 0dd2 263e afd8 69be 6695 433e e2e8 973d
000001f0: efbf a1be 2db4 8fbc 66ba ae3d 1348 2abe
00000200: b7ec c0bd 312f 86be 395c 0bbe d5b6 5d3e
00000210: ac54 7a3d 2b00 cebd f162 04be 379d e73d
00000220: ffe3 f83d 846a 173e 69b4 7abd 3c06 c13d
00000230: 1500 bd3d 11ca d3bc 9bab 893d 8f43 41be
00000240: 9d8c 9bbe 6b70 54bd 5444 bebd 5037 6bbd
00000250: 3458 bbbe 044e f4bd 2176 483e 630d 13be
00000260: 33da 69be 1ff9 183e d595 a13e 59ed 81bd
00000270: c4f4 073d 5e24 473e 891f 3dbe eb18 60bd
00000280: 77a8 523d 4c09 06be 13eb a3bd b5d3 0bbe
00000290: 6164 0dbe 9ec7 c63e 189f 5cbe f98f 513e
000002a0: 64cc e8bc 099b d7be d6d8 2abe 8171 3c3e
000002b0: 02bc 40be 8abc 1e3d c554 29be 33ed c2bd
000002c0: 1fa6 29be eb14 30be 08a9 a4bd 3bab 2cbe
000002d0: eab7 bd3d 83f2 66be f3c1 173e 1779 563e
000002e0: 85b8 39be c290 83bb 1e25 593c ba06 40bd
000002f0: 4e28 17be 5ba2 15be 2d6b c9bd fb78 1bbe
00000300: f981 4abd 3f37 e7be ae96 e9bd be9d 393e
00000310: 8e7f 0abf 39ea 4ebe b614 673e 255a 42be
00000320: 95c4 9fbb 9fa6 f8bd c483 0b3c 54ce 223d
00000330: b850 573d 0839 2bbe 5952 a6bc 3e93 143e
00000340: aae3 793e 012e 973e b9b2 55be 5eb1 9ebc
00000350: 2080 e9be 87ff c4be 1090 213e 322e e8bd
00000360: 4f74 49bb c55d aebc 7562 9fb9 3fb6 ddbd
00000370: 2bb2 543e a306 603e f97f 3c3e babe 803e
00000380: bf54 dd3d 1aa2 f83d f301 a83d df8d 153e
00000390: 3a50 6a3e adf2 96bc 4b09 90bd 0e93 cb3a
000003a0: 23e1 023e 80c1 16be bdb5 143e 0782 4b3e
000003b0: c5fc 50be ea24 783e e942 303e 8bc9 73be
000003c0: 095a fc3c ef45 75be 4799 88be 9194 f43e
000003d0: 0b16 8a3d 135b 70be ec40 9abd 5c18 0e3e
000003e0: 3e3b 23be 1e25 b43e 4c82 4bbc 9b05 263e
000003f0: 7521 d0bd 98d7 09be 8fc0 583e 4bb9 55bd
0.0027533958 0.049701247 -0.07689118 -0.0228437 0.08904736 0.19685188 0.2899746 -0.11781781
0.32517162 -0.009712688 0.381654 0.29079914 -0.011112418 0.14129204 -0.12294162 -0.12814228
0.32755408 -0.041182697 -0.1795044 -0.056292348 0.20322034 -0.17684385 0.018587438 0.02019964
-0.3125872 0.1229807 0.23498246 -0.19015263 0.17707159 0.20646627 -0.2458952 -0.1257083
-0.24437974 0.19767116 -0.2562238 -0.08294976 0.10689815 0.0837039 0.079084024 0.13908876
-0.15404315 0.12081226 -0.07221773 -0.37266323 -0.4497369 -0.013745912 0.016391216 -0.1712481
0.24499789 -0.24991408 -0.19177832 0.13014284 -0.1414351 -0.140519 0.23958343 -0.095337465
-0.015245122 -0.028874788 -0.11397299 0.18931371 0.21270178 0.11036873 -0.09020888 0.05710651
-0.21851724 -0.04771082 0.04296898 -0.2074496 0.28772023 0.016676161 0.012537179 0.17214729
-0.17404215 -0.4390464 0.11805764 0.0594944 0.15061349 0.11749217 0.3825846 -0.0824579
-0.10825975 0.0776571 -0.31388494 0.06162969 -0.14965549 -0.1936927 0.02024608 0.6000353
0.008743847 0.39673248 -0.006620159 0.04179036 -0.041486036 -0.33457184 -0.05453857 -0.34656444
-0.056526743 0.050896022 -0.24086063 -0.13748735 0.30205902 -0.12750658 0.015743114 -0.11854748
-0.21303034 0.31809464 -0.20813729 -0.013532192 0.017845893 -0.26584703 0.14654514 0.011784112
0.33722845 0.16993955 0.101018205 0.24334511 -0.35397732 -0.24615894 -0.11656549 0.18176161
0.16291066 -0.22836564 0.1909996 0.07417466 -0.31591746 -0.01754197 0.085316464 -0.16629057
-0.0942015 -0.2620788 -0.13609399 0.21651776 0.061115906 -0.10058626 -0.12928368 0.11309283
0.12152862 0.14786726 -0.06120721 0.09425017 0.09228531 -0.025853189 0.06722184 -0.18873428
-0.30380717 -0.051865023 -0.09290376 -0.057425797 -0.3659073 -0.11928943 0.19576313 -0.14360575
-0.22837143 0.14938782 0.31559625 -0.063440986 0.03319241 0.19447467 -0.18469061 -0.054711264
0.05143019 -0.13089484 -0.08003821 -0.13654979 -0.13807823 0.3882417 -0.21545064 0.20465077
-0.028417774 -0.4211047 -0.16684279 0.18402673 -0.1882172 0.038754024 -0.16536243 -0.095178984
-0.16567276 -0.1719548 -0.08040053 -0.16862194 0.092635944 -0.22553448 0.1482008 0.2094463
-0.18136795 -0.004015059 0.013253478 -0.046881415 -0.14761469 -0.14612715 -0.09834895 -0.15182869
-0.049440358 -0.45159337 -0.11405693 0.1812658 -0.54100883 -0.20206536 0.22566494 -0.189797
-0.0048757293 -0.121411555 0.008515302 0.03974755 0.052567214 -0.16720974 -0.020302938 0.14509293
0.24403253 0.29527286 -0.20868959 -0.019371685 -0.45605564 -0.38476202 0.15777612 -0.11336936
-0.0030739491 -0.021284947 -0.000304002 -0.10825776 0.2077109 0.21877532 0.18408193 0.25145513
0.1080718 0.121402934 0.08203497 0.14604901 0.22882167 -0.018426264 -0.070330225 0.0015531497
0.12781195 -0.14722252 0.14522453 0.1987382 -0.20408924 0.24232832 0.17213024 -0.23807351
0.03080465 -0.23952459 -0.2667944 0.47769597 0.067424856 -0.23472242 -0.07531914 0.1387648
-0.15940568 0.35184568 -0.012421202 0.16213076 -0.101626314 -0.13461149 0.21167205 -0.052178662

input_layer.0.bias f4 [64]
00000000: dabe 27bd c566 2dbc 0029 a13b 3afa 193d
00000010: 5c6d b9bc a23a 37bd 6b9f 323d 11ab 62bb
00000020: 4b2e afbc 2f41 f4bb 5d1b c93c 4e32 bdbb
00000030: c62c a4bd 88be cfba e59a d23c 2d09 c0bc
00000040: f206 0e3c 8253 d8bc 32f5 753c 4479 de3c
00000050: 29f3 b43b e559 9e3c 4d0c bd3c a1d2 3cbb
00000060: fdae 8f3c 7d52 363d f5ff 023d 1cfd b23a
00000070: 52dd 0e3d 8805 893c 1348 963d 8c2d a5bc
00000080: 9a72 0b3c a97e b43c ce65 b83c 7e66 84bc
00000090: 9d86 23bd 35dd b13c 5e8f 9f3b e0d4 55bc
000000a0: 7131 c83c 15db a43c 10c1 333b 4e21 4b3d
000000b0: 06f4 483a 3bd2 8d3c b6a7 dd3b 1bb5 d23c
000000c0: 3436 0a3d 3ea0 81bc aead d93b 6428 24b9
000000d0: 2e9a 82bc 6743 95bc 53cb e5bb fb98 83bc
000000e0: 810b 1b3d c345 ba3c f071 e5bb 61ad 833b
000000f0: ede5 93bc d3d8 603d e6f7 56bc 2458 bd3c
-0.040953495 -0.010583584 0.0049182177 0.03759215 -0.022635154 -0.04473365 0.043609064 -0.0034586827
-0.021384379 -0.0074540596 0.02454918 -0.005773819 -0.08016352 -0.0015849629 0.025708625 -0.023441875
0.008668648 -0.026407007 0.015012072 0.027157433 0.005522151 0.019329974 0.023077155 -0.0028812068
0.017539496 0.04451226 0.03198238 0.0013655755 0.034879036 0.01672627 0.07337966 -0.02016332
0.00851121 0.022033053 0.022509482 -0.016162153 -0.0399233 0.021711925 0.0048693856 -0.013051242
0.024437638 0.020123998 0.0027428307 0.04959231 0.0007665757 0.01731216 0.0067643775 0.025721123
0.0337431 -0.01582348 0.0066430187 -0.00015655305 -0.01594266 -0.018220617 -0.0070127635 -0.016064158
0.037852768 0.022738343 -0.007002108 0.004018471 -0.018053973 0.05489428 -0.013120627 0.023113318

layer2.0.weight f4 [57, 64]
00000000: f9f6 6abd 5203 003e 951b 903d bb82 a7bd
00000010: aa85 4fbe a725 523d a66e ab3d 060c c93d
00000020: 95fe 39bd 14dd 5b3e aa31 fb3d 423c 7a3d
00000030: 5535 73be 89e7 d03d 3d3d 71be 77cd 18be
00000040: 24e0 9b3d 166a a03d 6169 cfbc 7f93 b3bc
00000050: 718b 43bc 5aa4 bbbc 280f 86bd 9afc 81bd
00000060: 1fad 893d adba c3bc 7f64 73bc 9246 a63d
00000070: c308 313e 05c6 2bbe d176 9dbd 590e 8b3d
00000080: f9ff 0bbe ce5b acbd c6ab 27bd af32 8c3e
00000090: 48b4 19bf e1a3 833d c1a1 20be 7bc5 67be
000000a0: 640d 2d3e 5492 923d 60d2 37be 7c0e 04be
000000b0: 4d1c 02be e384 abbe 2a5c abbd e078 25be
000000c0: 7f87 153e 1fa2 0ebd 0aaf 9bbc d4d2 1cbd
000000d0: 8c74 13be 6b86 c33d bde8 e0bc 2182 7b3d
000000e0: 0cf7 883d f13f a83d 68e5 a7bd eea4 d33c
000000f0: 70f6 dbbd e08a a43c cc37 f9bb 3b56 10bd
00000100: aadd 04be 4662 b1bd 19d0 5e3c c4c6 2c3e
00000110: 643c c33d 2074 9cbe 2acf d0bd a1ab d73b
00000120: b419 99be 1924 27bc 5413 3e3b 6ec3 2cbb
00000130: 52fe 263e ac33 033e 5620 5e3e 4bae 493e
00000140: dabe 8d3c 7c91 2f3e 28e5 07be 5ff0 f7bc
00000150: 5dac 983e bf9b 3d3e 1be2 073e 4259 003d
00000160: 3f4e d33c 6b87 2b3e f618 83be 2e15 203e
00000170: 788e 97be 159e dc3d da46 843d 1f7d ba3c
00000180: 8359 463c b510 873d c316 443e 840d d4bd
00000190: 19ab adbe c7af 2cbe 8d6c 8dbe e9f2 623e
000001a0: 6c65 e33d 5eb7 3e3e 7e81 453c cf39 20bd
000001b0: d24f f2bd 9dab 8f3c 465a 073d 65df d53d
000001c0: 668b 493e db3a 9d3d f22a 9bbe 858e 0bbe
000001d0: 3858 1cbe ca96 0c3e 579f 51bd ed20 16be
000001e0: e7a9 f73d 644c c7bb a398 4d3d fb03 e63b
000001f0: 8b13 c9bd 6254 cd3d a2e7 46bd 60f9 4cbd
00000200: fb09 95be 6cb4 a9be 470c 40be e1ca d2bd
00000210: 28bc 54be 20c7 3dbe 60ce 9b3e 5697 a8bd
00000220: d0e6 f1bb c30a 943d 3a0a 12be 2912 3d3c
00000230: 9d6e 03be 6908 44be dfe7 4abe 4b4e e03d
00000240: b567 b03d 491f 00bd 77a7 993d 4c06 39bd
00000250: 6783 d23c 181a 153e ec14 5b3d fd16 a7bc
00000260: d3b1 82bc 3672 8e3b ac80 7f3e 7eb9 4ebc
00000270: f704 aebd 3fb9 99be 671c 503e adcd b43d
00000280: 233b 403b c162 74be 6bab 3bbe d6d2 1b3e
00000290: 0734 47bd 2ba7 c6bd 63f9 d93c 1b9f d53c
000002a0: 7d98 70bc ba8f fe3d 5c96 913e adb1 26bd
000002b0: dee2 a5bd d07c 113d 22a6 083e 24a3 39bd
000002c0: 91a0 a43d 857d 02be 6f4e 0f3e 1b23 b8be
000002d0: 34d9 9d3d 68c9 a0bc 80a3 523c c2b0 8cbd
000002e0: 12c9 71bc d7ee 3cbe 135a eb3d 078a 013d
000002f0: 49b2 80bd 93c0 8d3e f632 1a3c 103f 0dbe
00000300: de2c 16be 3c9c 16bc 5942 58be 0180 443e
00000310: c7bf 4c3d 2688 5e3e 280f 2d3d 7830 173e
00000320: e218 49be 3dc1 98bb dba7 9ebd 7253 2a3c
00000330: 6ab5 5f3e 644d 0cbe 21d5 0b3e 6c00 523e
00000340: 80a5 693d 91d8 fcbb 7f54 3abd 3e07 85bd
00000350: 9278 0e3d f9a7 c4bc 720e 9abe ce2a 3c3e
00000360: f77b 4d3e 1d43 653a 335c 853e 0f7a 8c3c
00000370: cc5f debd 0f75 853e 8085 aabd c923 c6bc
00000380: a5a7 e6bd 4abe da3d f937 c93d c0bb f1bc
00000390: ade4 493e e6db e8bd a2a0 c2bb c6df c13d
000003a0: 986b f43d dd28 4abd d6c2 693e fa22 00be
000003b0: ca28 babd dd6c 7ebd c9de db3e f74f ecbd
000003c0: 31fd 52be c5b5 7d3c d692 81bd b966 09bd
000003d0: 0ed1 ddbd 5177 abbd 17a5 96bd 511b b8bc
000003e0: 1b0c 3a3e 1bdf a33d e903 babc adbd 0abe
000003f0: 932f 653c 32a7 963c d288 2ebd ec89 013e
-0.057364438 0.12501267 0.07036511 -0.08179232 -0.20265833 0.05130544 0.08370714 0.098167464
-0.045408804 0.21471053 0.12265332 0.061092623 -0.23750813 0.10200412 -0.23558517 -0.14922129
0.07611111 0.07832734 -0.025318803 -0.021920918 -0.011935101 -0.022905517 -0.065458596 -0.06347008
0.06722473 -0.023892725 -0.014855503 0.08118929 0.17288499 -0.16774757 -0.07688678 0.06789846
-0.13671865 -0.08415948 -0.0409353 0.2738242 -0.6004071 0.06427742 -0.15686704 -0.22633927
0.1689964 0.07156816 -0.17951345 -0.1289615 -0.12706108 -0.33499822 -0.08367188 -0.16159391
0.14602469 -0.03482258 -0.019004364 -0.038287 -0.14399928 0.095471226 -0.027454728 0.061403397
0.066877455 0.08215321 -0.08198053 0.02583548 -0.107403636 0.020085752 -0.0076055285 -0.035238486
-0.12975183 -0.08661322 0.013599419 0.16872698 0.09533003 -0.30557346 -0.101957634 0.006581739
-0.29902422 -0.010201477 0.002900322 -0.0026361602 0.16307953 0.1281268 0.21692023 0.19695394
0.01730292 0.17145342 -0.1327101 -0.030265985 0.29819003 0.18516444 0.13269846 0.031335123
0.025794147 0.16750877 -0.2560498 0.1563308 -0.29600883 0.10772339 0.06458826 0.02276474
0.012106302 0.065949835 0.19149308 -0.103541404 -0.339196 -0.16863929 -0.2762188 0.22162975
0.11103329 0.18624637 0.012054799 -0.03911763 -0.11831631 0.017537886 0.033045076 0.10443
0.19682083 0.076772414 -0.30306202 -0.13628586 -0.15268028 0.13729396 -0.05117735 -0.14660998
0.12092953 -0.0060821045 0.050194394 0.0070195175 -0.09818181 0.1002586 -0.048560746 -0.05004251
-0.29109177 -0.33145463 -0.18754683 -0.10292602 -0.20774901 -0.18532991 0.3043089 -0.0823199
-0.0073822513 0.07228615 -0.14261714 0.011539974 -0.12835164 -0.19143833 -0.19815014 0.10952433
0.086135305 -0.031279836 0.075026445 -0.04517202 0.025697423 0.14560735 0.05348675 -0.020396704
-0.015953934 0.004347111 0.24951428 -0.012617467 -0.08497041 -0.30024144 0.20323335 0.08828292
0.0029332123 -0.23865797 -0.1832711 0.15217146 -0.0486336 -0.096998535 0.026608175 0.026076844
-0.014684794 0.124297574 0.28435028 -0.04069679 -0.08099912 0.03551942 0.13344625 -0.0453216
0.08038438 -0.12743194 0.13994764 -0.35964283 0.07707444 -0.019627288 0.012856364 -0.068696514
-0.014757412 -0.18450485 0.1149179 0.031625774 -0.06284005 0.27685985 0.009411564 -0.13793588
-0.14665553 -0.009192523 -0.2111906 0.19189455 0.04998758 0.21731624 0.042250782 0.14764583
-0.19638398 -0.0046617077 -0.0774686 0.0103958715 0.21846548 -0.13701397 0.13655521 0.20507973
0.0570426 -0.0077162464 -0.045490738 -0.06495522 0.034782954 -0.024005877 -0.30089146 0.18375704
0.2006682 0.00087456574 0.26046905 0.017148046 -0.108581156 0.2606587 -0.08326244 -0.024186986
-0.112624444 0.10680826 0.09825129 -0.029508471 0.19716139 -0.11370067 -0.005939559 0.094665095
0.119345844 -0.049355377 0.2282823 -0.12513342 -0.09089811 -0.06211554 0.4294341 -0.115386896
-0.20604397 0.015485232 -0.06326835 -0.03354523 -0.1083089 -0.08372367 -0.07355707 -0.022473963
0.1816868 0.08001538 -0.022706943 -0.13548918 0.013988393 0.018390272 -0.04261095 0.1265027

layer2.0.bias f4 [57]
00000000: 25e4 e03c 214c 28bc 9573 503d 1cac 92bc
00000010: b015 153d 56ef dabb 50f5 a83c 39f8 c439
00000020: d56f d7bc 9ac3 90bc 62f5 b73c 9908 cbbc
00000030: 5fd9 cdbb 5e81 0bbd 5111 33bb 3103 093c
00000040: 58e0 733c faaa 5e3d 746a 633c ae34 f5bc
00000050: 6b5f 0bbc 22d9 f6ba d7ca 77bb 47da 85bc
00000060: 182a 9bbb 6d77 33bc 24e6 27ba 1147 e1bb
00000070: 944d 343c ac9d a13c 0000 0000 7878 34bb
00000080: c340 95bd ab32 cfba aad7 02bc 7e2c 22bc
00000090: bde1 1a3c ec0e 443b a2ec 9fbc 986d 133d
000000a0: 1479 6dba 26ea 913d 7297 a63d fb43 6d3d
000000b0: 6615 3dba 8160 a3bc b3ce 4ebb b664 ba3b
000000c0: b74e 46bc 086d 99bb 819c 313c d8a8 1bbc
000000d0: 7d50 08bc fbfa ccbc 579a 863d 71b7 33bc
000000e0: f598 85bd
0.027452538 -0.010272057 0.050891478 -0.017904334 0.036397636 -0.006681363 0.020624787 0.00037568973
-0.026298443 -0.017671395 0.022455875 -0.024784373 -0.006282016 -0.03405892 -0.0027323554 0.008362577
0.014885031 0.054362275 0.013880361 -0.029932346 -0.008506636 -0.0018833021 -0.003781011 -0.016339434
-0.0047352426 -0.010953766 -0.0006404838 -0.006874927 0.011004824 0.019728504 0.0 -0.0027537625
-0.07287743 -0.0015807947 -0.007985989 -0.009898303 0.009453234 0.002991612 -0.019522015 0.03599319
-0.00090588746 0.071247384 0.08134355 0.05792616 -0.00072129664 -0.019943478 -0.0031556308 0.005688275
-0.012103728 -0.004682187 0.010840536 -0.009500705 -0.008319971 -0.02502202 0.06572407 -0.010969029
-0.06523315

layer3.0.weight f4 [64, 64]
00000000: db67 933e 1771 84be dafa 11bd 0425 633c
00000010: 82fd 503e 8f38 75be 4e72 823d e2c9 7abe
00000020: 16a5 a2bd 66dd 23be 905e 1d3d 760d 28be
00000030: 9603 023e e0ca 7b3e 8792 5cbd a4ba 3d3e
00000040: 8a9b 17bd 8764 5f3e 86b5 453e ba93 4cbd
00000050: 538f b83d b5be 0ebe 101e 183e 57c5 21be
00000060: ba73 84be 995f 383d 756a ad3e 32a9 1f3e
00000070: b2f3 583d ec2c 05be 22c4 02be e573 203e
00000080: a1db eebd 7efc 063e 7f2c 12be a24a 4f3e
00000090: 9011 a1bd bb84 7a3d 38a8 fbbd 10e6 20be
000000a0: 092c a2bb 2c89 463e f64a 933d bfc2 14bc
000000b0: 52e9 c23c a50c 27bd 6927 953d 5fd1 183e
000000c0: f3f1 653d ccab 12bd 2484 b0bd df1d 6bbe
000000d0: e55f b9bd 2bf0 0f3e df98 d93d 92f5 103e
000000e0: 06c0 0dbd 530d 5c3e 902f 8a3e 53d8 9abc
000000f0: 1076 75bd b6ec 503e 7783 ce3c 9bbf 283b
00000100: f4fe 30be 983d bc3d 3830 e03d 7ade 85ba
00000110: e531 c63d eeab 793d 0f3e 993d 5cfd 9e3e
00000120: 8b1a 43be c311 e03d eb45 0c3b 3639 bebd
00000130: 4538 603e 22ba 3b3d 2bef c3bd 3db4 bcbd
00000140: 7d82 29be 1409 fdbd 0caa af3b 0d9f 953d
00000150: db4e 833d a08a ad3d 135e fb3d 7203 88bd
00000160: b507 f6bd 113c 8a3e fea8 b23d a378 92bc
00000170: ddd8 ac3d 9f98 883d a7f7 9f3d 3669 3a3e
00000180: f454 83bd 28a6 1b3e f05d 243e dd6f 843b
00000190: 2c55 8d3c 1e57 f43d cf59 92bd 2704 70bd
000001a0: 7cb3 6bbe 0b0d adbd 319e 953d fd90 233d
000001b0: 8561 a23d 163e f4bc 46e2 a7bd 7f45 1e3e
000001c0: 687b 16be 83e6 ddbd 218a 563e 5573 e6bd
000001d0: 9d11 62bd 36bf 0ebd fb79 93be e697 46bd
000001e0: 2029 c2bb 3d9b 57be d9ce 7a3d 0a77 8b3d
000001f0: 5cf7 de3d b8d1 08be 3168 6d3b 4eb0 afbd
00000200: 0388 0a3e cea9 d13d 87ce a6bd 8e79 363e
00000210: d8dc e5bc 8222 303c 0cef 9d3e 1ee6 923d
00000220: 3d83 26bd 71f3 5d3e f72f 90bd 25bc b33d
00000230: ba81 d93d 9232 a5bd eb8b b73d a020 8b3c
00000240: 90e2 133d a038 893d b66d b0bd 30c7 48be
00000250: 92c5 363e e7f7 263e f586 1dbd bc36 3a3d
00000260: 63e0 9bbd 172d 67bd 94af 653e 0ea1 bd3d
00000270: 9941 f03d 6d5f 463d 6f9c 7d3d 02e1 f63d
00000280: 7c95 613e 66cd 723c a7b9 3ebe 5a44 633d
00000290: 6b96 403d a47b f63c f765 743e 6c09 53bd
000002a0: cce2 a33d a883 6ebd dcfb 8b3c 9103 b2bd
000002b0: b4fe 353e 01c3 cf3d 71e2 013e f8a7 d43d
000002c0: 9276 4b3d 8cbf b93d 77d6 f1ba ae4a 27bc
000002d0: 47ab 293d 1b40 a6bb 73ae 45bc 16f9 383e
000002e0: 9cf2 8b3d 408a 57be 894b cabd d4c4 543e
000002f0: 4b40 ab3e fd06 de3d 28e7 0abe ce3f 19bb
00000300: 1945 033e 9bf9 84be 8ce9 e73d 6ddc 1ebe
00000310: c819 e4bd dbd4 3ebd 15ba 3a3e bc58 8e3d
00000320: 8329 25be 3b4e d43c 119f 97bc 0791 5abe
00000330: 53bf 6b3d b7a5 363d a71a 00be 910b 1bbe
00000340: 0ed5 f4bd cd8f 203e 1324 87bd 14f0 21be
00000350: 4552 7f3d 504e 213e 0399 9abd bf12 cabd
00000360: 6f15 823d 659d dfbd ca10 2dbe 554b 9c3d
00000370: 3abc 3a3e 4764 6e3e cfb2 8e3d 7998 a43c
00000380: e3c8 df3c 4ce5 f83d c458 16bd d27a b0bd
00000390: 949d 8ebc 8f92 6a3e 46e4 013e 5234 b4bc
000003a0: d295 28bd 606f e8bd 2c60 b6be 5f5e e33d
000003b0: bbd1 03be b581 8bbd 4773 083e 34d9 e33d
000003c0: 848d 513d 2be5 6bbd fd72 97bd 25c9 f5bc
000003d0: 6628 16be 10ab 8c3d 32d9 843d 47ad d9bd
000003e0: 80ce a23c 2ff9 c93d e61d afbd 97ee a3bd
000003f0: 351b 81be 22cf 1d3d e76b 4d3d 1757 e93d
0.28790173 -0.2586753 -0.03563962 0.013863806 0.20409206 -0.23947357 0.06369458 -0.24491075
-0.07941644 -0.16002426 0.03842026 -0.16411385 0.1269668 0.2458911 -0.053850677 0.18528229
-0.037013568 0.21815692 0.19307527 -0.04994557 0.09011712 -0.13939936 0.14855218 -0.15797935
-0.25869542 0.045013044 0.33870283 0.15591887 0.05296678 -0.13005418 -0.12770131 0.1566921
-0.11662985 0.13182256 -0.14274786 0.20243314 -0.07864678 0.061161738 -0.122879446 -0.15712762
-0.004949097 0.19388264 0.07192032 -0.009079634 0.023792896 -0.040783543 0.072829075 0.14923619
0.056138944 -0.03580837 -0.08618954 -0.22960614 -0.090514936 0.1405646 0.10624861 0.14156178
-0.034606956 0.21489458 0.26989412 -0.01890198 -0.059927046 0.20402798 0.025209172 0.0025748971
-0.17284757 0.091914356 0.10946697 -0.0010213398 0.096774854 0.06095498 0.0748254 0.31052673
-0.19053094 0.10940888 0.002140398 -0.09288256 0.21896465 0.045831807 -0.09567102 -0.09214065
-0.16553684 -0.12355247 0.0053608473 0.07305727 0.06411525 0.08473706 0.122738026 -0.06641282
-0.12013189 0.26998952 0.08723639 -0.01787979 0.08439801 0.06669735 0.07810908 0.18204197
-0.06412688 0.15200102 0.1605146 0.0040416555 0.017252527 0.11930679 -0.07146036 -0.05859771
-0.23017687 -0.084497534 0.07305563 0.039933193 0.079287566 -0.029814761 -0.08197455 0.15456198
-0.14695513 -0.10834982 0.2095113 -0.112524666 -0.05519258 -0.03485032 -0.28804 -0.048484705
-0.0059253126 -0.21055312 0.06123242 0.06809814 0.10887024 -0.13361251 0.0036225433 -0.08578549
0.13528447 0.10237466 -0.08144861 0.17819807 -0.028059408 0.010750415 0.3084644 0.071727976
-0.040652502 0.21674897 -0.070403986 0.0877612 0.106204465 -0.08066286 0.08962234 0.01698333
0.03610474 0.067002535 -0.08614676 -0.19607234 0.17848805 0.16305505 -0.038458783 0.045462355
-0.07611158 -0.056439485 0.22430259 0.09259234 0.11731262 0.04843085 0.061916765 0.120546356
0.2202968 0.014819479 -0.18625508 0.055485107 0.04701845 0.030088253 0.23867022 -0.051522657
0.080022424 -0.058231026 0.01708787 -0.086920865 0.17772943 0.10144616 0.12684037 0.103836
0.049673624 0.09069738 -0.0018450756 -0.010210676 0.04142311 -0.00507356 -0.012065518 0.18063769
0.068333834 -0.21048832 -0.098776884 0.20778209 0.3344749 0.10841177 -0.13564742 -0.0023383978
0.12819327 -0.25971684 0.113238424 -0.15513773 -0.1113773 -0.046589714 0.18235047 0.069505185
-0.16129117 0.02591621 -0.018508466 -0.21344386 0.057555508 0.04459163 -0.12510167 -0.15141131
-0.119546995 0.15679856 -0.065986775 -0.15814239 0.062334318 0.1575253 -0.07548716 -0.09866857
0.063517444 -0.109186925 -0.16900936 0.07631556 0.18235865 0.2328044 0.06967699 0.020092236
0.02731747 0.1215311 -0.036705747 -0.08617176 -0.017409123 0.2290747 0.12684736 -0.021997605
-0.041158505 -0.11349368 -0.35620248 0.11101984 -0.12872975 -0.06811849 0.13325225 0.111254126
0.05116035 -0.0575916 -0.07394979 -0.03000314 -0.14663848 0.06868565 0.06486739 -0.10628753
0.019873857 0.09861981 -0.085506245 -0.08004492 -0.2521607 0.038527615 0.05015173 0.11393564

layer3.0.bias f4 [64]
00000000: 6cb1 7bb9 9d6b c43b e1ac f2bb 1d1f 123c
00000010: 70db 9d3b f84b fa3a c680 8a3b 752e 72bc
00000020: 3a79 f53a def5 a13c 7fef a43b cb6e 873b
00000030: bb56 ef39 1f60 f6bc 2ae2 823b ba20 993b
00000040: 25c0 623c cc4f 34bc d5a5 f5bb 9415 94bb
00000050: 5232 94bc d225 d03b 20b7 293c 45e7 a93c
00000060: e4ed 20bc 89a5 d2bb 4d3e 9dbb 2afb 923b
00000070: 944a 17bc fd01 a13c f53a 2e3c 1115 403b
00000080: 6477 8f3c 181b 96bb 31e2 5c3b 9270 1ebb
00000090: 974c 203c d9c7 013c 274a 18bb 0c90 863a
000000a0: 83ba 96bb b498 0bbc 2fa1 a23c 4a3b a8b9
000000b0: caa7 043b 4b45 f6ba e546 c23b 0e5a 4137
000000c0: d46e 853c e0e9 e43b d13a 663c aba3 37ba
000000d0: 35d5 20bb 5455 3e3c 581a ca3a 370e b8bc
000000e0: 8640 8ebb 1c72 363c bc8c 3e3c 0620 953c
000000f0: 62fd 343a 2b17 65ba d45b 903b e400 143c
-0.0002400332 0.005994274 -0.0074058627 0.008918551 0.0048174188 0.0019096127 0.004226777 -0.014781584
0.0018728145 0.019770559 0.005033433 0.0041330806 0.00045650252 -0.030075131 0.003994246 0.0046730908
0.013839756 -0.011005353 -0.0074965754 -0.004519174 -0.0180904 0.006352165 0.010358602 0.02074016
-0.009822343 -0.0064284247 -0.0047986866 0.0044855075 -0.009234089 0.019654268 0.010634174 0.0029309432
0.017512985 -0.0045808665 0.0033704157 -0.0024175984 0.009783885 0.007921183 -0.0023237558 0.0010266318
-0.0045998706 -0.008520294 0.019852249 -0.0003208763 0.0020241612 -0.0018788961 0.0059288614 1.1524664e-05
0.016288199 0.006985888 0.014052109 -0.00070052844 -0.0024541144 0.0116170235 0.0015419228 -0.022467716
-0.004341188 0.011135604 0.011630233 0.018203747 0.0006904212 -0.0008739109 0.004405478 0.0090334155

output_layer.weight f4 [1, 64]
00000000: c038 b7be 8ada 03be 5636 893d ef79 c0be
00000010: 3435 f53d b6fa 8abe 85ae e0bd e229 1a3e
00000020: 2c55 b13d 8972 0bbe fa77 8f3e 441c e4bd
00000030: 7658 b0be 67a7 2e3e ef04 e2bd 6ab8 513d
00000040: c3b2 82be 6ae6 3abe 37e4 80be 0118 06be
00000050: 0bf7 e73e 699a 0abf 3545 c1be 78e3 f1bd
00000060: 165a 0f3d 4946 c13e 2111 313e 3274 84bd
00000070: 4602 093f a8a3 723d bd2a 28be a285 07be
00000080: 6eb9 c7bd ad31 23be 81a6 4ebe 6fd4 7fbd
00000090: 0a1b 483e b4c5 053e 7c9c ddbd 2aa8 77bd
000000a0: 61a6 fc3d 4952 7c3e f146 0b3e 1973 223e
000000b0: 805a 39be 3984 38be 6c01 7c3e 2cfa debd
000000c0: 83dd 5ebe 5ff7 d23d 65bc 913d 3aeb 273e
000000d0: dd2d 343e 0c4c 9abd 063c 74be 2409 df3e
000000e0: 2540 a43e e122 c0be 0075 ac3e aa04 a2bd
000000f0: 9bf4 0a3e 1d79 8dbe 08fb f33e 7219 c0be
-0.35785484 -0.12876335 0.06699817 -0.37593028 0.11973038 -0.27144402 -0.10970787 0.1505504
0.08658823 -0.1361791 0.28021222 -0.11138204 -0.3444249 0.17056046 -0.11036097 0.05120126
-0.2552701 -0.18251958 -0.25174114 -0.13095094 0.45305666 -0.5414186 -0.37748113 -0.11810964
0.034998022 0.37748936 0.1729169 -0.06467475 0.53519094 0.059238106 -0.16422553 -0.1323457
-0.09752165 -0.15936919 -0.20180704 -0.06245845 0.19541565 0.13063699 -0.10820863 -0.060463108
0.12336422 0.24640764 0.13601281 0.15864219 -0.1810093 -0.18019189 0.24609917 -0.1088756
-0.21764188 0.103010885 0.071160115 0.16398326 0.1759562 -0.07534036 -0.23851022 0.4356166
0.32080188 -0.3752661 0.33683014 -0.07911046 0.13569872 -0.27631465 0.4765246 -0.37519413

exp_avg f4 [64, 7]
00000000: 15b5 0a38 cd6b 5738 9822 b2b8 13b1 9236
00000010: d73b a138 7b39 d033 c1fb a6b8 ce9f 58b8
00000020: 051e 1c38 e554 3bb9 2ed5 78b9 6f74 a139
00000030: 82de 1f38 2615 0638 2b18 36b9 d23e d0b8
00000040: 127c a4b6 e7fc bab9 15b3 49b9 9963 a038
00000050: fb1e 0239 1981 5639 c162 d038 714d 5b38
00000060: ad35 ee39 4395 0e38 aa09 3f38 28ef ab38
00000070: 5674 75b7 0649 b738 8d2e 85b9 c434 64b9
00000080: bed3 0839 8d02 0b37 f11f 7eb9 ec19 40b8
00000090: 764f c735 7d3d 9cb8 f55e 1bb9 a855 8f38
000000a0: 209c 51b8 bbbe a138 5784 e2b8 377b 2fb7
000000b0: f2d5 11b9 fa0c a9b9 5784 b6b7 9592 a2b8
000000c0: 62e7 92b7 3aba 2d39 fedf aa37 6927 5339
000000d0: b3aa fe39 3ad7 1c3a 25b1 9cb7 4765 a438
000000e0: 3ad1 e5b8 b353 abb7 bf31 f1b8 0c7b a1b9
000000f0: 4d3d aa39 d1d8 8d38 786e 82b9 1542 04b9
00000100: bb7b 5bb8 0f6d 6bb8 a133 9cb9 1709 9eb9
00000110: 4080 1139 ffc3 5fb9 04f4 ea39 76e9 3938
00000120: 117a 163a 9911 af3a 4922 4a39 ed3f 9ab8
00000130: 20f4 3039 8d18 f736 c237 08b9 b444 ba39
00000140: b1a2 9139 1c5c 0839 3d84 cd37 c889 0139
00000150: 95b7 8db7 efa0 4cb7 92ff d236 0dc9 f8b7
00000160: 179d 0d38 dd7a 0635 f593 96b6 afd3 0cb9
00000170: 02a4 f938 6ed5 08ba f0ce 2cba 0002 27b9
00000180: 1733 0339 8fd2 c438 ca40 a738 db0f f337
00000190: ae33 4338 6d32 4e39 1815 e1b9 ecab d3b8
000001a0: 3d85 ce36 9665 98b8 3f11 a5b8 db2a ca38
000001b0: 2c38 a0b8 78ff 87b8 8430 81b7 bb48 3437
000001c0: fa6d 86b8 c59d 23b8 8a5d 8f36 8847 05b9
000001d0: 503b f4b8 b025 21b7 65fe f1b8 dd9e 8d36
000001e0: b8ec 3fb6 9ebd 6b37 d709 9f37 b2c6 1e39
000001f0: 8e10 f437 5c36 2b37 2dbf e7b8 c469 fbb7
00000200: 6c8c beb8 07fa 98b9 a69e 46b9 6b71 9037
00000210: 86b6 83b9 ad5c 9537 df98 1337 e95b 9736
00000220: 3b16 2638 edc1 3ab8 459e a1b6 3005 13b9
00000230: d4c6 4fb9 b129 beb8 7f62 88b8 5c56 ecb9
00000240: e331 c5b9 bfcc 85b8 399a 9cb9 4bd3 03b9
00000250: 645d 4eb8 77db 85b8 36c3 9eb9 f68d 4ab9
00000260: e289 bdb8 5970 6f39 9fa7 e8b8 6fd1 9ab8
00000270: a8a4 ca37 fea8 59b9 b669 92b9 3010 12b8
00000280: 0125 cb38 5cb4 9bb8 368f 6438 e2c0 87b9
00000290: 0295 b3b9 53ff 9d39 b2c5 2037 2ea5 c238
000002a0: c905 0339 a950 0238 a329 e738 79de af39
000002b0: 8a01 5939 5b11 71b7 6a3f ad39 63c7 3539
000002c0: 607d 0b38 79b4 3b39 fd2d fe39 4a4e 7839
000002d0: b8d9 1639 766a 663a 37d7 3339 2bc2 19b9
000002e0: 663b 2b3a 710e 5a3a 0c35 09b8 1642 e0b6
000002f0: ee8f 9f39 30e6 5db7 2f9b 78b7 fd77 9e37
00000300: c875 58b7 33a5 68b8 258d a836 4531 2a36
00000310: a9e8 e139 f7c7 0439 50f3 ac39 68c9 923a
00000320: a8d3 b239 2a70 7039 1a33 e538 4f6c e3b8
00000330: d81f a138 4c75 c2b9 55c0 01ba 6746 1239
00000340: 219d 6f38 4bce 5939 e4b4 b339 e5a8 1c39
00000350: 3a3b 0b39 0f67 503a e692 a238 991f afb5
00000360: b42b 6c3a 89d4 cfb7 d8d8 4838 d9cd 2cb9
00000370: 5da8 34b9 edd5 2838 9d9a 4938 a3cb 0439
00000380: a848 06b9 a777 d837 8572 8bb9 79b6 efb9
00000390: 9166 f939 a965 f538 768f 76b9 73df 64b7
000003a0: d03b c236 ab81 17b8 2382 64b8 f4cd 3839
000003b0: dd59 d938 228b 2639 6c9d 0eb9 c97b d2b8
000003c0: 85c9 6938 57bf 76b9 94e7 11b9 66e7 0c38
000003d0: 3b44 2d39 70a0 47b8 921b 78b8 44cd ae38
000003e0: d000 13b8 cc84 d037 c8a9 c9b6 41e4 b4b8
000003f0: 69b4 c6b8 adb0 43b8 9813 beb7 5b80 5bb9
3.307041e-05 5.136039e-05 -8.494145e-05 4.371753e-06 7.688224e-05 9.6962104e-08 -7.96239e-05 -5.1647243e-05
3.7221256e-05 -0.00017865335 -0.00023730539 0.00030795063 3.811578e-05 3.1967786e-05 -0.00017365876 -9.929914e-05
-4.9020246e-06 -0.00035665111 -0.00019235567 7.647946e-05 0.00012409307 0.00020456723 9.936607e-05 5.228579e-05
0.0004543489 3.399445e-05 4.554695e-05 8.198462e-05 -1.46302245e-05 8.739722e-05 -0.0002540242 -0.00021763431
0.00013048851 8.2856395e-06 -0.00024235227 -4.580051e-05 1.4849782e-06 -7.450113e-05 -0.00014817326 6.834726e-05
-4.9974886e-05 7.7126046e-05 -0.0001080117 -1.0459501e-05 -0.00013907978 -0.0003224386 -2.1757716e-05 -7.752065e-05
-1.7512302e-05 0.0001656794 2.0369884e-05 0.0002013721 0.00048573836 0.0005982999 -1.8679139e-05 7.838994e-05
-0.000109585424 -2.0423764e-05 -0.000115010414 -0.0003079999 0.000324706 6.763789e-05 -0.00024877838 -0.00012613118
-5.23289e-05 -5.6129935e-05 -0.00029793105 -0.0003014288 0.00013876054 -0.00021339951 0.00044813764 4.4324865e-05
0.0005740235 0.0013356685 0.00019276993 -7.355199e-05 0.00016875612 7.3640317e-06 -0.00012990742 0.00035527872
0.0002777777 0.00013004284 2.4499483e-05 0.00012353726 -1.6893997e-05 -1.2196818e-05 6.28824e-06 -2.9657525e-05
3.376332e-05 5.009768e-07 -4.487573e-06 -0.00013430299 0.00011903794 -0.0005219792 -0.00065921154 -0.00015927106
0.00012512166 9.385228e-05 7.9752484e-05 2.897524e-05 4.6539753e-05 0.00019664476 -0.0004293106 -0.00010093287
6.1547894e-06 -7.266847e-05 -7.8710254e-05 9.640093e-05 -7.639857e-05 -6.4848864e-05 -1.540059e-05 1.074577e-05
-6.410103e-05 -3.9009163e-05 4.2726215e-06 -0.00012710516 -0.000116458745 -9.605123e-06 -0.0001153916 4.2206216e-06
-2.8599006e-06 1.405124e-05 1.8958859e-05 0.00015142074 2.9094776e-05 1.0205051e-05 -0.000110505476 -2.9970783e-05
-9.0860616e-05 -0.00029177984 -0.00018941853 1.7218952e-05 -0.00025122258 1.780534e-05 8.797476e-06 4.5108504e-06
3.9598188e-05 -4.4526463e-05 -4.816599e-06 -0.00014020945 -0.00019815128 -9.0676716e-05 -6.503332e-05 -0.0004507777
-0.00037611937 -6.380071e-05 -0.00029869544 -0.00012571846 -4.9201204e-05 -6.382813e-05 -0.00030281552 -0.00019317106
-9.037905e-05 0.00022834669 -0.00011093844 -7.382302e-05 2.415695e-05 -0.00020757687 -0.0002792605 -3.482419e-05
9.686687e-05 -7.4245705e-05 5.449281e-05 -0.00025892915 -0.0003425256 0.00030135605 9.582773e-06 9.281408e-05
0.00012495289 3.1069536e-05 0.00011022694 0.00033544356 0.00020695306 -1.436876e-05 0.00033044379 0.00017335782
3.3256947e-05 0.00017900941 0.0004848092 0.00023680288 0.00014386221 0.00087896676 0.00017150944 -0.0001466355
0.00065319834 0.0008318192 -3.271275e-05 -6.6834136e-06 0.0003043408 -1.3226221e-05 -1.4818083e-05 1.8890942e-05
-1.2902026e-05 -5.5466964e-05 5.0232215e-06 2.5360653e-06 0.0004308869 0.00012662994 0.00032987678 0.001119894
0.00034108502 0.00022929968 0.00010929089 -0.000108443775 7.6830096e-05 -0.00037089956 -0.0004949619 0.00013949872
5.7128378e-05 0.00020771583 0.00034276315 0.00014940237 0.00013278137 0.0007949927 7.752124e-05 -1.3047712e-06
0.0009009198 -2.4775292e-05 4.7885667e-05 -0.00016479882 -0.00017228858 4.0253555e-05 4.806613e-05 0.00012664362
-0.00012806302 2.5804924e-05 -0.0002659747 -0.00045721585 0.000475694 0.00011701446 -0.00023513832 -1.3641885e-05
5.7886136e-06 -3.6121968e-05 -5.4480635e-05 0.00017624331 0.00010364105 0.00015882825 -0.0001360082 -0.00010036637
5.573921e-05 -0.00023531668 -0.00013914547 3.3594108e-05 0.00016523984 -4.7594716e-05 -5.9153484e-05 8.3352e-05
-3.5048288e-05 2.485737e-05 -6.010032e-06 -8.6255845e-05 -9.47498e-05 -4.6656165e-05 -2.2658889e-05 -0.00020933284

exp_avg_sq f4 [64, 7]
00000000: 41f4 8134 0eee 2835 2f4a f535 fd55 3a33
00000010: 585c bb35 ae32 9435 477e a335 c4c9 4036
00000020: 280d c033 df44 3a37 d2ff 1138 d81f 8238
00000030: 1336 6e33 31fd 0c37 73f4 2337 ebb1 8036
00000040: d63e 3234 76b8 1a38 36cc 3c37 6e8d 8335
00000050: b9b7 2537 f2c8 0737 4af2 ca35 7a82 b435
00000060: 478d 3738 cffc 0735 cf86 0f36 2eae 0735
00000070: 3c93 1d33 9b30 3336 87d2 b037 ecb0 6d37
00000080: 5c5a d436 2d4d c633 95ae b937 1abb e334
00000090: f97b f432 6be3 0636 b7ee bb36 c47e 1a36
000000a0: c56f 7835 bf81 cd36 d8e8 6a36 6008 4f32
000000b0: 3374 0237 cbe0 0f38 ab5c e835 a097 ba35
000000c0: f09d 9b33 7fa2 0237 d145 be34 7cf3 f736
000000d0: 2c31 7738 1e4c 4c38 e232 6433 286c 3735
000000e0: 64b2 e336 3b8b a735 af18 9435 a256 1a38
000000f0: 529d 8238 effc b635 65be 7a37 6011 b736
00000100: 26ab 5c35 8bc1 be35 d6b3 0438 9ee0 a137
00000110: 9c6a 3837 ed64 fe36 def6 9338 d85b ff35
00000120: bfde b338 bcde 153a 8a21 8b36 77e4 9835
00000130: d158 0836 5cc2 d831 0c9b ab36 27e6 1738
00000140: 4fe0 aa37 ea20 f636 e9a6 a933 8cf8 7636
00000150: efa9 b232 d351 3932 5822 4931 7e70 8a33
00000160: b813 b031 640d 4134 1b31 3831 3f6f e536
00000170: 9a7e df35 b0f1 6238 698b f138 127c 2f37
00000180: 4923 8a36 d983 6e37 01e1 8236 75a9 6435
00000190: 91a9 e034 04f9 a637 98ac 4a38 d1cf fe35
000001a0: b77b f735 fbbe c835 c2e7 1536 960f 9136
000001b0: 1d91 7e35 7187 aa36 0134 e532 4ff9 0a33
000001c0: 93eb 7d35 3a79 0234 3579 b934 bcf1 c136
000001d0: 0bad 4a37 6482 3033 a246 8836 9bc5 e230
000001e0: cb54 8c32 8ad6 d933 f39d 6733 a09e f136
000001f0: 7eb7 6733 6a0e 4835 c2c0 2636 1603 3b34
00000200: 6eb0 ee35 c1d5 9237 89d6 2937 0bf5 4e36
00000210: 502f d237 2b00 e034 7ed4 cb32 a03a c434
00000220: 4498 4e36 03d1 0a36 77b0 5532 bdc9 bb36
00000230: 0d48 f736 9ef1 0336 5cb3 6d34 fdd4 0f38
00000240: e027 e237 3a87 a035 be1b cd37 7e0b c036
00000250: 81e1 4835 7f8e 0136 c04a 1138 c343 6737
00000260: 4e3c 1c36 7f5f 8537 6c63 4036 4e07 2435
00000270: 4f6f a434 e20e 7737 14cd 1b38 82a0 9834
00000280: 2cbb 7c36 fd0f 3236 8f33 0d35 80c3 a037
00000290: 8237 3338 7a82 0238 326b 8033 7197 d836
000002a0: eda4 5536 2b44 1d34 e815 4a36 a1eb c937
000002b0: 9c66 c736 9468 2132 134b 9d37 9eba 0b37
000002c0: ce41 2335 8340 c536 49e1 7438 46d8 8a37
000002d0: 2583 0f37 7e7f df38 c38e 0b37 76ca 2d37
000002e0: 5bd6 2d39 fc3d 7739 710d 1d35 2f8c 5435
000002f0: e6e6 7e37 d1e6 fc32 be73 ba33 6f24 9a34
00000300: 3a7f 1133 8005 9a35 443f 0e33 e28b 9334
00000310: 94a7 7238 fb8e 5136 a65b 4e38 e242 df39
00000320: d95a 8b37 8473 e737 c3b0 8e36 d6ff db36
00000330: f23a 3935 d6aa 1a38 e591 c438 e5d9 7c37
00000340: 81e5 6334 ea4d 1438 4e58 1138 7e6f 1337
00000350: 5ac6 ca35 b41f 2d39 85c0 8335 7b17 9934
00000360: 1968 1339 7574 9334 5f9b 7034 b48e 8a36
00000370: 806b db36 83fb 8935 f62d 8035 62e1 ed36
00000380: 0b56 0d37 d946 8933 0af0 7c37 06fc a038
00000390: a945 0739 4d6d 0236 6fbd aa37 bb99 1834
000003a0: bd71 3134 3456 b334 1065 9d34 6efd fb36
000003b0: 2ec1 8636 6381 2e37 75f6 fe36 7aa6 7c36
000003c0: 6926 6735 c71f cd37 ab66 4636 beb1 2534
000003d0: 454d 7237 7207 d534 3f86 8635 7b42 3e36
000003e0: faf8 f032 5eea 1534 d231 3632 a214 8236
000003f0: 75bf 2f36 2738 0435 6cfc db34 0193 6c37
2.420584e-07 6.293129e-07 1.8275513e-06 4.3384706e-08 1.3959461e-06 1.1041609e-06 1.2181198e-06 2.8727673e-06
8.94309e-08 1.1102499e-05 3.4808945e-05 6.2048144e-05 5.5462873e-08 8.403601e-06 9.772472e-06 3.8354096e-06
1.6600401e-07 3.6888254e-05 1.125322e-05 9.801422e-07 9.877543e-06 8.093413e-06 1.5120688e-06 1.3449019e-06
4.3762175e-05 5.0659304e-07 2.138713e-06 5.0544884e-07 3.668832e-08 2.670137e-06 2.107887e-05 1.4167494e-05
6.3286116e-06 9.234132e-08 2.2135015e-05 4.241818e-07 2.8461715e-08 2.009993e-06 5.6008244e-06 2.3021576e-06
9.2549845e-07 6.1245805e-06 3.500425e-06 1.205089e-08 7.775659e-06 3.430321e-05 1.7312317e-06 1.3902209e-06
7.2464786e-08 7.786438e-06 3.5441056e-07 7.389519e-06 5.8935184e-05 4.870828e-05 5.3131664e-08 6.83302e-07
6.7858946e-06 1.2482991e-06 1.1034043e-06 3.6797144e-05 6.228186e-05 1.363367e-06 1.4945491e-05 5.4558477e-06
8.220544e-07 1.4212432e-06 3.1638738e-05 1.9297291e-05 1.0992077e-05 7.581539e-06 7.055489e-05 1.9025711e-06
8.576875e-05 0.0005717089 4.1464273e-06 1.1391375e-06 2.0317277e-06 6.3085235e-09 5.114247e-06 3.621555e-05
2.0370031e-05 7.335203e-06 7.9000365e-08 3.680153e-06 2.0799204e-08 1.0787022e-08 2.9268872e-09 6.446588e-08
5.124516e-09 1.7979397e-07 2.6803437e-09 6.8376826e-06 1.6651641e-06 5.4107688e-05 0.00011517743 1.04597e-05
4.116828e-06 1.4216604e-05 3.900496e-06 8.518321e-07 4.1846627e-07 1.9904699e-05 4.8321293e-05 1.8984957e-06
1.843894e-06 1.4956744e-06 2.233763e-06 4.323151e-06 9.483354e-07 5.0821623e-06 2.6682757e-08 3.2357374e-08
9.459265e-07 1.2151295e-07 3.4547125e-07 5.77999e-06 1.2080428e-05 4.1096783e-08 4.0613386e-06 1.6499827e-09
1.6336704e-08 1.01438744e-07 5.3927533e-08 7.200826e-06 5.3950764e-08 7.452678e-07 2.4848127e-06 1.7416855e-07
1.778373e-06 1.7504093e-05 1.0123135e-05 3.0839026e-06 2.5055982e-05 4.1723374e-07 2.372894e-08 3.65505e-07
3.0785022e-06 2.0685263e-06 1.2438355e-08 5.5965197e-06 7.3695614e-06 1.966116e-06 2.2137596e-07 3.4292218e-05
2.6959868e-05 1.1960285e-06 2.4450823e-05 5.7233838e-06 7.483396e-07 1.9305442e-06 3.464031e-05 1.378445e-05
2.3280913e-06 1.5899304e-05 2.86681e-06 6.110539e-07 3.0628368e-07 1.4725812e-05 3.7145874e-05 2.842899e-07
3.7659875e-06 2.6533373e-06 5.260162e-07 1.9164523e-05 4.272862e-05 3.111593e-05 5.979963e-08 6.4549317e-06
3.1835473e-06 1.4646564e-07 3.0113097e-06 2.407079e-05 5.9426075e-06 9.395212e-09 1.8750818e-05 8.328496e-06
6.081799e-07 5.8785677e-06 5.8383946e-05 1.6551592e-05 8.553999e-06 0.00010657216 8.318285e-06 1.0358743e-05
0.0001657842 0.00023578847 5.850662e-07 7.918015e-07 1.519334e-05 2.9441624e-08 8.682353e-08 2.8711244e-07
3.3876155e-08 1.1475495e-06 3.311949e-08 2.7482662e-07 5.7853365e-05 3.1226652e-06 4.919958e-05 0.00042583706
1.6612395e-05 2.7591137e-05 4.2525076e-06 6.556492e-06 6.900365e-07 3.6875565e-05 9.373183e-05 1.5071103e-05
2.1224515e-07 3.5358513e-05 3.4652934e-05 8.787842e-06 1.5107901e-06 0.00016510376 9.816291e-07 2.8515555e-07
0.00014057792 2.7465617e-07 2.2408265e-07 4.1293333e-06 6.5392233e-06 1.0280495e-06 9.55012e-07 7.0893884e-06
8.424288e-06 6.392447e-08 1.5076259e-05 7.6763376e-05 0.00012900554 1.943513e-06 2.0353791e-05 1.421203e-07
1.6525787e-07 3.340407e-07 2.9317061e-07 7.509886e-06 4.0160003e-06 1.0401333e-05 7.5984813e-06 3.7647828e-06
8.61101e-07 2.4452702e-05 2.956406e-06 1.5431485e-07 1.4442315e-05 3.967976e-07 1.0022849e-06 2.8350903e-06
2.8052899e-08 1.3961969e-07 1.0605122e-08 3.876704e-06 2.6188475e-06 4.9255544e-07 4.097559e-07 1.4100923e-05

exp_avg f4 [64]
00000000: 85f3 afb7 0236 e239 481b 343a a4a4 63ba
00000010: d365 c839 af05 9039 aba2 1d3a 23bc 6dba
00000020: a644 173a e275 143a a041 23bb 5557 fdb9
00000030: 1aa7 7338 dc84 9c3a 1847 c3b9 295e 2939
00000040: 59dc 8039 5e93 10b8 73f6 0f3a c214 9fb8
00000050: 124b 613a d1a0 163a 15c4 d339 4929 233a
00000060: df48 25ba fd1e 6eba 47a1 c5ba 21ea e737
00000070: 405b 0abb 7ce5 6b3a 275c c6ba b668 a139
00000080: 0add 5c3a 2803 d138 b048 f239 d46e a738
00000090: e8e7 d139 b158 b1b9 2b78 d83a ac79 663a
000000a0: d2f2 c539 5bd2 7ab9 1e6f f539 67ca 03bb
000000b0: d3a6 67b8 1258 8eba 4c06 f7b8 6402 563a
000000c0: a78b 1a3a 950f 553a be01 933a 3826 283a
000000d0: c036 233a 9daf 6f3a 4fd8 6838 cb4c 3a3a
000000e0: 7527 823a 8e18 293a bc2c b538 1a83 f839
000000f0: d376 7b3a 28bd 1eba 46f9 d73a 3380 123b
-2.0975023e-05 0.00043146318 0.00068705203 -0.0008683896 0.00038222838 0.00027470055 0.0006013314 -0.0009068867
0.0005770422 0.0005663318 -0.0024910942 -0.00048320988 5.809134e-05 0.0011941451 -0.00037246267 0.00016152173
0.00024578234 -3.446952e-05 0.0005491741 -7.585577e-05 0.0008594255 0.00057460094 0.0004039115 0.00062241085
-0.0006305109 -0.0009083597 -0.0015077972 2.764637e-05 -0.0021111518 0.00089987344 -0.0015133665 0.0003078633
0.00084252714 9.9664845e-05 0.00046211993 7.983824e-05 0.0004003637 -0.0003382615 0.0016515305 0.0008791934
0.00037755683 -0.00023920221 0.0004681283 -0.0020109655 -5.523006e-05 -0.0010859987 -0.00011779051 0.00081638084
0.00058954436 0.0008127627 0.0011215729 0.00064143864 0.0006226115 0.0009143295 5.5514563e-05 0.000710678
0.0009929972 0.00064504973 8.639085e-05 0.00047399924 0.00095925963 -0.0006055408 0.0016477488 0.0022354245

exp_avg_sq f4 [64]
00000000: 94d9 4a34 4a5c f838 7a03 1139 9ef6 2539
00000010: fba2 3538 2300 9f37 6424 f838 e94e 5939
00000020: e493 0b39 d08f ee38 ff0e 033b 7320 8038
00000030: feff 8434 f67e c939 84d0 9738 846a 9e36
00000040: d97e ad37 3764 2f34 99ce 8138 2fe5 3537
00000050: 1df4 0339 751c 0239 f879 6038 6cdf 1539
00000060: d386 b138 5fa0 5839 b136 493a 312f e433
00000070: a7b0 c43a b486 a539 5d76 1e3a 59dd b337
00000080: 4b90 8b39 7205 9935 44b1 c338 ca1f 5034
00000090: 5f09 5638 b903 ea37 2721 483a 5bb6 a139
000000a0: ca3c 5238 b938 7436 e516 8238 2d22 b63a
000000b0: 4182 6c34 a200 aa39 3098 8237 c609 8c39
000000c0: f438 0239 6f3b aa39 0a21 b939 0c0a a838
000000d0: a46a ae38 6b91 b539 e687 b135 d08e 5339
000000e0: 19e0 cd39 4461 1c39 2155 b136 4357 9338
000000f0: 4282 8639 ca00 0c39 abf3 5c3a cf35 bb3a
1.889187e-07 0.00011842752 0.00013829573 0.00015827498 4.330555e-05 1.895434e-05 0.0001183234 0.00020724129
0.00013311167 0.000113755115 0.0019997952 6.10956e-05 2.4773175e-07 0.000384323 7.23908e-05 4.721167e-06
2.0682275e-05 1.6334603e-07 6.189681e-05 1.0841802e-05 0.00012584073 0.00012408367 5.3519354e-05 0.00014292978
8.465131e-05 0.00020659108 0.0007675691 1.06256614e-07 0.001500626 0.00031571614 0.0006044859 2.1441536e-05
0.00026619653 1.1400973e-06 9.331343e-05 1.9383074e-07 5.1030303e-05 2.7896707e-05 0.00076343346 0.00030844178
5.0124516e-05 3.639185e-06 6.2031475e-05 0.0013895683 2.2026599e-07 0.00032425398 1.5568075e-05 0.00026710163
0.00012418983 0.00032469208 0.00035310566 8.0127356e-05 8.31683e-05 0.00034631355 1.3227079e-06 0.0002017573
0.00039267613 0.00014913554 5.2849214e-06 7.02576e-05 0.0002565552 0.00013351734 0.00084286433 0.0014283004

exp_avg f4 [57, 64]
00000000: d9f1 55b8 45b7 7bb6 d12f 12b9 fe5d 9bb8
00000010: 5251 65b7 071f b2b7 e83e 52b9 b5c4 ccb8
00000020: e4a4 36b4 09c6 3fb8 dff5 5db9 968d aeb8
00000030: 366c 86b5 5ac5 02b9 842e 37b8 e2ae fdb7
00000040: c3da e0b6 df1b 4bb8 6c73 ebb8 c9fd 25b8
00000050: 0690 b4b8 2251 b6b8 36a5 a1b5 08c4 2fb9
00000060: 71be 54b7 4a2c f3b7 c9bb 14b8 f271 41b9
00000070: 15ed 44b9 63e0 b4b8 d8ed 86b9 369a 31b7
00000080: 6af4 5db6 264b 94b8 3728 f5b8 5056 00b9
00000090: 1092 de36 2ba3 19b8 702c 44b7 ee73 00b9
000000a0: 0d09 17b9 7f40 73b7 2c45 51b8 832b b4b8
000000b0: b358 f5b7 afed 6fb6 f65e f335 a900 9eb8
000000c0: c9b5 88b8 5f57 8fb7 a795 f2b7 98a0 26b5
000000d0: 0875 3f32 2be8 7fb8 f9e0 efb7 0875 aeb8
000000e0: 92d4 86b8 0853 22b8 d7f3 a3b8 803f 7cb9
000000f0: 3072 85b7 15f6 f3b7 780a 2bb8 2c1f 7ab8
00000100: 69de 4438 d604 7437 7dba 5738 7370 c038
00000110: 534f 7738 03c5 7136 baf3 8538 9a20 9038
00000120: 4603 1937 a952 3c37 d79c f138 342d cd37
00000130: a768 88b5 10bb 5438 0b0a 5138 dc34 a037
00000140: 0df9 2037 0062 b736 2ff1 ab38 3e94 9035
00000150: 7fcf 7c38 04dd 0138 3af1 5235 a316 7d38
00000160: a1f6 0238 d0ec 6838 ccca c437 e0cc 9038
00000170: 8c3a 9638 7433 9738 45e3 1d39 b69e ee37
00000180: 6a0c 71b6 9210 c937 7898 bf38 2a7e 4138
00000190: a5d1 8638 dbc0 7537 3da3 3636 dfd7 5938
000001a0: f518 0f38 b303 0c38 fdae 6538 eeb5 0638
000001b0: 08d2 1f38 5612 8c37 49ac 5838 3c26 8d38
000001c0: 6395 4638 d38c e737 cdae 9138 61dd 8637
000001d0: 1039 ff37 23e0 8637 cc00 0137 9c95 b037
000001e0: 35b9 b238 6862 4738 fe4f 6037 3d96 af38
000001f0: a7eb 1638 5b00 2037 8d18 1738 553d 9738
00000200: 546e aeb7 302a 87b7 158a f5b7 7bd3 93b9
00000210: bb19 9db9 b359 83b5 35e1 48b9 29fe 8eb8
00000220: 2541 11b8 e94e 16b8 74f5 b2b9 872b 44b9
00000230: 0400 0000 7884 7bb9 8f0d 21b8 a8ac aeb7
00000240: 084a 2cb8 8570 f7b8 4011 36b9 57f1 0cb6
00000250: fa5b 14b9 be73 6bb8 bf3a e7b6 7e49 4ab9
00000260: 177a 40b8 6142 5bb9 639a 85b9 cfe0 13b9
00000270: 78f6 42b8 4332 b8b8 234a 1cba 678b b9b7
00000280: 7891 16b8 241a 7cb8 9a6c 06b9 7480 81b8
00000290: d242 cdb8 db9b 6db8 0400 0000 9279 15b9
000002a0: d127 f6b7 ac42 55b8 4018 20b9 eda3 2bb8
000002b0: a1a5 8bb8 81ae 14b9 0d18 72b9 fee2 51b8
000002c0: f18e 60b9 ee4f 42b8 d17a f1b9 6825 ccb8
000002d0: e38b 16b9 0fff 41b6 ea69 edb8 87f7 28b9
000002e0: d414 beb9 cc4b ddb8 6f00 bab8 99c5 1fb8
000002f0: 9517 42b9 03cf bfb6 f0f1 82b9 bca0 cbb9
00000300: 7219 8238 6b5b 6f37 70ce b0b6 a96e b1b7
00000310: ba12 a0b8 3a59 cab5 d48e 1c38 db35 3eb8
00000320: f863 3e37 64fc b5b7 36c5 7a38 8fc6 0c38
00000330: c9f6 3635 335c 1ab8 3327 47b8 d8e4 a3b7
00000340: 3aa3 a0b7 7335 5537 48e6 beb7 fb21 5637
00000350: aeea 7cb8 be8d 23b6 8c71 3435 f1e2 a038
00000360: d4b0 0eb8 71ab bcb8 f7f5 29b7 afa1 53b8
00000370: 0a5c e8b7 0e5d a538 bb5e 1438 9cda 5f38
00000380: 5e4e ad36 af54 0238 45a3 2ab8 4ee2 3b38
00000390: de38 41b8 eadc 0637 5981 0b36 1de2 fcb7
000003a0: 1eb4 65b6 dde4 e3b7 4d8f a2b8 24d7 52b7
000003b0: 0765 a5b7 c70b 2cb7 beeb 22b8 278f 8738
000003c0: 38c2 3536 7c37 3638 409f c9b7 1fb0 91b7
000003d0: 2b43 1bb8 3db5 a937 0d14 b8b5 8709 7437
000003e0: 7492 9fb7 4151 ebb7 d88d 2037 13b5 d8b7
000003f0: ea6b 64b8 bc72 9c37 10d6 6fb7 ac7a 41b8
-5.1008396e-05 -3.7508592e-06 -0.00013941458 -7.408483e-05 -1.36683975e-05 -2.1233702e-05 -0.00020050595 -9.7641176e-05
-1.7010058e-07 -4.5722383e-05 -0.00021167797 -8.323339e-05 -1.0015272e-06 -0.00012471285 -4.367392e-05 -3.0241386e-05
-6.7011874e-06 -4.842493e-05 -0.00011227172 -3.957542e-05 -8.609895e-05 -8.6935484e-05 -1.2043517e-06 -0.00016762328
-1.2680525e-05 -2.8988481e-05 -3.546084e-05 -0.00018448362 -0.00018780337 -8.624864e-05 -0.0002573568 -1.0585927e-05
-3.3073834e-06 -7.0711874e-05 -0.00011690001 -0.00012239185 6.6331195e-06 -3.6630005e-05 -1.1692857e-05 -0.00012250218
-0.00014403854 -1.4498945e-05 -4.9893904e-05 -8.5911735e-05 -2.924758e-05 -3.5752125e-06 1.8132548e-06 -7.53415e-05
-6.5188455e-05 -1.7087614e-05 -2.8918335e-05 -6.2073514e-07 1.1144273e-08 -6.101296e-05 -2.8595781e-05 -8.318765e-05
-6.429212e-05 -3.870114e-05 -7.8178644e-05 -0.00024056248 -1.5908008e-05 -2.9082448e-05 -4.0779327e-05 -5.9633676e-05
4.6937177e-05 1.4544659e-05 5.1433675e-05 9.176219e-05 5.8963265e-05 3.6026474e-06 6.387332e-05 6.8725276e-05
9.120273e-06 1.1224919e-05 0.00011520989 2.4458954e-05 -1.0163247e-06 5.0718954e-05 4.9838836e-05 1.90981e-05
9.59473e-06 5.4652337e-06 8.198839e-05 1.077198e-06 6.0274728e-05 3.0961834e-05 7.8582127e-07 6.0340983e-05
3.1224106e-05 5.553366e-05 2.3459455e-05 6.904616e-05 7.1634626e-05 7.209825e-05 0.00015057351 2.8445716e-05
-3.5919024e-06 2.3968783e-05 9.135989e-05 4.6132285e-05 6.428667e-05 1.4648041e-05 2.721513e-06 5.1937877e-05
3.41171e-05 3.3382046e-05 5.4760825e-05 3.2117525e-05 3.810416e-05 1.6697839e-05 5.1658866e-05 6.730526e-05
4.7346006e-05 2.7602922e-05 6.946698e-05 1.6077132e-05 3.042494e-05 1.6078417e-05 7.689185e-06 2.1050502e-05
8.522199e-05 4.7536945e-05 1.3370065e-05 8.372634e-05 3.5982255e-05 9.536826e-06 3.602407e-05 7.211665e-05
-2.0793792e-05 -1.61129e-05 -2.9270575e-05 -0.0002819559 -0.00029964544 -9.786366e-07 -0.00019157382 -6.818429e-05
-3.4631365e-05 -3.5836278e-05 -0.00034133682 -0.00018708232 6e-45 -0.00023986574 -3.839802e-05 -2.0822816e-05
-4.1076943e-05 -0.00011798836 -0.00017363299 -2.1002104e-06 -0.00014148644 -5.613616e-05 -6.8911754e-06 -0.00019291599
-4.5890072e-05 -0.00020910196 -0.00025482764 -0.0001410276 -4.6482746e-05 -8.783166e-05 -0.0005961975 -2.2118633e-05
-3.5898265e-05 -6.0105827e-05 -0.00012819693 -6.1751256e-05 -9.787608e-05 -5.6650355e-05 6e-45 -0.00014255036
-2.9344026e-05 -5.084525e-05 -0.00015267823 -4.0922245e-05 -6.658887e-05 -0.00014179388 -0.00023087878 -5.0040886e-05
-0.00021415555 -4.6327645e-05 -0.00046058607 -9.7344455e-05 -0.00014357227 -2.8907705e-06 -0.00011320769 -0.0001611394
-0.00036255142 -0.000105522195 -8.869252e-05 -3.809258e-05 -0.00018510067 -5.716343e-06 -0.0002497579 -0.00038838934
6.2036226e-05 1.4266795e-05 -5.2692412e-06 -2.1151574e-05 -7.6328826e-05 -1.5076141e-06 3.7326317e-05 -4.5349687e-05
1.1348158e-05 -2.169441e-05 5.978831e-05 3.3563523e-05 6.8159403e-07 -3.680233e-05 -4.7481804e-05 -1.9537678e-05
-1.9149495e-05 1.2708234e-05 -2.2756998e-05 1.2763306e-05 -6.0300044e-05 -2.4371398e-06 6.722046e-07 7.671666e-05
-3.4020122e-05 -8.996472e-05 -1.0130453e-05 -5.04569e-05 -2.7699414e-05 7.885146e-05 3.5374174e-05 5.337094e-05
5.164925e-06 3.1073283e-05 -4.0683215e-05 4.4795037e-05 -4.6067747e-05 8.038458e-06 2.0787904e-06 -3.0146033e-05
-3.42285e-06 -2.7167081e-05 -7.751454e-05 -1.2567067e-05 -1.9716577e-05 -1.0254741e-05 -3.8843362e-05 6.463966e-05
2.7084152e-06 4.3443855e-05 -2.4035224e-05 -1.736736e-05 -3.7017435e-05 2.0230766e-05 -1.3714904e-06 1.4545752e-05
-1.9022475e-05 -2.805202e-05 9.569769e-06 -2.5833526e-05 -5.445994e-05 1.8650077e-05 -1.429535e-05 -4.6129033e-05
