artifacts/experiment_20250726_224246/training_artifacts/run_20250726_224254/checkpoints/latest_checkpoint.pth (torch, 113819 bytes, 24 tensors)

input_layer.0.weight f4 [64, 7]
000000 d1 1f ae 3e 37 a2 3d be 5a 5e 98 3d 4c e9 69 be
       0.3400865 -0.18518911 0.07439871 -0.22842902
000010 8a 27 23 3e a4 45 20 3e 35 01 90 be 5f 97 59 3e
       0.15933052 0.15651566 -0.2812592 0.2124915
000020 d0 f0 34 bc b3 3e 15 3e 3a 73 9c bc bd 8f ce 3e
       -0.011043742 0.14574699 -0.019097913 0.4034404
000030 57 9e 1a be f8 9f 49 bb 4d 8c ed 3e 66 fe bd 3d
       -0.15099464 -0.0030765515 0.46396104 0.09277038
000040 48 6e 18 3e 09 3b 2e 3e 95 95 9e 3d 28 d1 f0 3c
       0.14885819 0.17014708 0.07743374 0.029396608
000050 fc d8 03 be ee a7 01 be cb 31 bb bd 39 7d f5 3d
       -0.12875742 -0.12661716 -0.09140357 0.11986775
000060 62 a2 35 be c9 10 c8 bd 5b 1e 36 be ce d3 79 be
       -0.17737725 -0.097688265 -0.17785017 -0.24397203
000070 3b bc 85 be 4f 8a 9b 3d 16 3c 87 3c 64 30 26 be
       -0.2612017 0.0759474 0.016508143 -0.16229397
000080 05 77 c3 bd 0f 3d 9b 3d 21 1b a1 3d 75 5a b8 bd
       -0.095441855 0.075800054 0.078665026 -0.09001628
000090 41 4a 7f 3d 92 66 8c be 00 2c ab 3c 9d e7 c6 be
       0.062326673 -0.27422005 0.020895004 -0.38848582
0000a0 05 6e bf bd b3 2c ab 3e fe 62 04 be 17 76 90 be
       -0.093471564 0.3343254 -0.12928388 -0.28215095
0000b0 09 f9 d8 3c 8c ad eb bd af 03 b2 bd f3 79 80 3e
       0.026485937 -0.11507711 -0.08692109 0.2509304
0000c0 ec 8f 14 3c da 85 3f 3d f9 ff 47 3e ac ee 00 be
       0.009067517 0.04675851 0.1953124 -0.12591046
0000d0 f7 7a 14 3e 35 e4 d2 bd 1a 31 06 3e 6a b2 e3 be
       0.14500032 -0.10297433 0.13104668 -0.44472057
0000e0 8b 9b 41 be 77 d3 ca 3d ae b6 13 be 8c 8c 4b 3d
       -0.18906991 0.09903615 -0.14425156 0.049694583
0000f0 13 18 01 bf b3 a0 c1 3e 03 1b 3f 3d 13 25 ee be
       -0.5042736 0.37817916 0.04665662 -0.4651266
000100 72 a9 1f bc be 39 b7 be 25 9a bf 3d 9f 3f 05 be
       -0.009744989 -0.3578624 0.093555726 -0.13012551
000110 4a 11 96 bd cd 1b 2b bd df 96 89 3e 27 50 e2 be
       -0.073275164 -0.04177456 0.26872918 -0.44201776
000120 dd 29 06 bb e7 91 1f be f3 40 43 3e d2 3b 48 bd
       -0.002047173 -0.15583001 0.19067745 -0.048885174
000130 58 d4 51 be a2 2c a0 be 9e 6d 55 3e 05 47 0b 3e
       -0.20491159 -0.31284052 0.20842597 0.1360131
000140 db 6a 0e 3e c3 a0 93 be 60 3c 76 3e bb ec cd be
       0.1390795 -0.2883359 0.24046469 -0.40219674
000150 14 46 3f bd 4d 41 1e 3e 9e 20 24 bd e3 07 18 3e
       -0.04669769 0.15454598 -0.04007017 0.14846759
000160 2c b9 11 bd 06 c1 c1 bd ab 95 a2 3d 7f 0c d4 bc
       -0.035576984 -0.094606444 0.07938703 -0.025884865
000170 ec a4 eb bd a7 88 c6 bc 6a 60 20 3e b3 68 06 3e
       -0.11506066 -0.024235083 0.15661779 0.13125877
000180 c8 a6 cd 3d 2a 4e ad be 5d 67 86 be a1 ad a9 3d
       0.100415766 -0.33848697 -0.26250735 0.0828507
000190 85 4e bb 3e 2b 74 77 bd 80 a4 e0 bc fc 12 09 bf
       0.36583343 -0.06041352 -0.02742219 -0.5354459
0001a0 ba 31 d7 bc 83 b1 f7 3d 1a ac ad 3d c8 02 d5 bd
       -0.026268829 0.120944045 0.084800914 -0.10400921
0001b0 35 8b 6f 3e 30 31 02 be 79 6a a1 3d 2b e6 72 be
       0.23392947 -0.12714076 0.07881636 -0.23720615
0001c0 8f 67 7e 3b 11 da db bd 00 92 77 be 98 48 66 3e
       0.003881905 -0.10734952 -0.24176788 0.2248863
0001d0 93 ec 8b be ff 30 76 be 55 52 fd bd 06 d0 59 3e
       -0.2732893 -0.24042128 -0.12369219 0.21270761
0001e0 e2 0c 51 3d d4 22 e2 3d 7b 93 25 3e f8 2f c4 3d
       0.051037677 0.11041799 0.1616954 0.09579462
0001f0 17 bc c6 bc a1 a3 7e 3e 14 0c aa 3b 72 f0 4e 3e
       -0.02425961 0.24867107 0.005189428 0.2020891
000200 55 81 3d bd 03 04 20 3d da 54 b6 3e ce 0e 12 be
       -0.04626592 0.039066326 0.35611612 -0.1426346
000210 f7 36 2b bc 1e 1f b0 3d 09 5c fa 3d c6 41 50 3a
       -0.010450116 0.08599685 0.122245856 0.00079443713
000220 48 95 c1 bd 35 87 11 be 98 ce b2 be b4 87 10 3c
       -0.09452301 -0.14211734 -0.34923244 0.008821417
000230 fc 6a 26 3b 8b 17 e1 3d 9c 3d 82 3b 3b f4 a6 3d
       0.0025393358 0.109908186 0.0039746296 0.08152052
000240 ba 72 b7 be ed 17 8e bd 24 20 40 3e 14 7c 4a 3e
       -0.35829717 -0.06938157 0.1876226 0.19773895
000250 c5 00 eb 3d 85 26 2e bd 67 8e 83 bd 74 a1 33 be
       0.11474756 -0.042517204 -0.064236455 -0.17542058
000260 ca 14 3e 3c 62 d6 aa bd a1 00 ad be 46 a4 ee 3d
       0.011601636 -0.083416715 -0.33789542 0.116524264
000270 6c 41 ac bc 0c cb 4a be d1 c9 37 be 15 ea 08 3e
       -0.02102729 -0.19804019 -0.1794808 0.13370545
000280 21 3f 51 be bb bb db 3c f5 28 b1 bd 81 a0 25 be
       -0.20434238 0.026822915 -0.0865039 -0.16174509
000290 da 8c 08 3e 3d 17 1c be 82 6c 60 be 13 22 1b 3e
       0.1333498 -0.1524324 -0.21916392 0.15149717
0002a0 8d 41 ca bd 73 b9 72 3e c1 84 02 bd 18 37 85 3c
       -0.09875784 0.23703556 -0.031864885 0.016261622
0002b0 b6 31 15 3e 7b 46 37 3e 53 61 4c be 82 ce 53 bd
       0.14569744 0.1789798 -0.19959001 -0.051710613
0002c0 9a 06 94 be aa 83 39 3e 5f 3a 2f bc c6 55 5b 3e
       -0.28911287 0.18116632 -0.010695069 0.21419439
0002d0 bd 77 16 3d 81 97 86 bd e2 64 f9 bd b5 1f 78 3e
       0.036735285 -0.06571866 -0.12177445 0.24230845
0002e0 27 44 ab 3c d1 c0 14 be c8 0a 30 3e 2e de fc bd
       0.020906521 -0.14526679 0.17191613 -0.12347065
0002f0 2a 1d 47 3e 76 3a 8e be ca 17 b0 3e be 4c 97 3e
       0.19444719 -0.27778977 0.3439315 0.29550737
000300 3f f1 27 bd b0 de c1 3d fd d1 5c be b7 95 aa be
       -0.041001555 0.094663024 -0.21564479 -0.33317348
000310 1f ef 2e 3d ea ba 88 be 78 b5 85 be 8c 99 50 3d
       0.042708512 -0.26705104 -0.26115012 0.050927684
000320 da f0 92 be 03 01 9a 3d 46 e4 43 3e 90 e1 21 bd
       -0.2869938 0.07519724 0.19130048 -0.039521754
000330 25 24 99 3e 9a fb 8d 3a 96 38 85 bd 41 a6 db 3e
       0.2991039 0.0010832429 -0.065049335 0.4290028
000340 24 b1 2c be 34 06 17 bb 30 43 c2 3d 0a df 97 3e
       -0.16864449 -0.0023044469 0.09485471 0.29662353
000350 ef d7 e8 39 63 9b 37 be 5c 45 e2 3d e4 3c 01 3e
       0.0004441137 -0.17930369 0.110483855 0.12620884
000360 cb 3f 85 3c d7 14 23 be 96 d4 ca 3d 59 72 86 be
       0.01626577 -0.15925919 0.09903829 -0.26259115
000370 01 a6 e0 be a3 52 1e be b7 96 2c bd ae a9 87 be
       -0.4387665 -0.15461211 -0.04213592 -0.26496643
000380 68 bb 07 ba c8 3c 8f be 51 d5 f1 bd d1 42 06 be
       -0.0005177767 -0.2797606 -0.11808265 -0.13111426
000390 2b 73 61 3c af 65 7a 3e f7 2a 21 3e a8 2c 83 be
       0.013760368 0.24452852 0.15739046 -0.25620008
0003a0 c6 d1 0a 3e 7f 4b 5e bd 20 db 97 3e 40 31 27 be
       0.13556585 -0.054271217 0.29659367 -0.16327381
0003b0 b7 26 06 bd 90 4e 5f be df ee 20 3b fe a8 a6 3d
       -0.032751765 -0.21807313 0.002455644 0.081377015
0003c0 36 85 21 be 08 42 39 bd 21 1f 8a be 1a 4b 01 be
       -0.15773472 -0.045228988 -0.26976874 -0.12626305
0003d0 37 86 39 3b 09 ff 86 3c f0 32 73 3d 6e c4 1e 3d
       0.0028308758 0.016479032 0.05937475 0.03876155
0003e0 c1 01 17 be 69 27 8a 3e b0 e9 0f be 91 77 b0 bd
       -0.14746763 0.26983193 -0.14053988 -0.086165555
0003f0 fa 55 6c 3e cf c2 6f 3e 3f 10 bb be 02 90 96 3c
       0.23079672 0.23414157 -0.36535832 0.018379215

input_layer.0.bias f4 [64]
000000 2e a2 07 bd 11 a5 76 bd 5b 96 96 3d 70 5d 45 bc
       -0.03311365 -0.060216013 0.07352897 -0.012046203
000010 74 b8 b7 bc 2a 7a 6d 3c 34 2c 24 bc 99 ab 3b bd
       -0.022426821 0.014494458 -0.0100203045 -0.045817945
000020 59 2f 45 3d 33 b4 23 3e f5 b1 f5 3c e9 93 ba 3c
       0.048140857 0.1598671 0.029992083 0.022775607
000030 c5 ca 8e 3b e3 e4 d4 bb ef 8b eb bc 83 5a 01 3d
       0.004357668 -0.006497012 -0.028753249 0.03158046
000040 94 46 2f bc bb 90 42 bc ab 8b 32 3d ab fb b9 bb
       -0.0106979795 -0.011875327 0.04359023 -0.005675753
000050 4a 6c eb 3c 97 15 05 3e f5 63 2d bc c0 4c 95 bc
       0.02873816 0.12996517 -0.010582914 -0.018225074
000060 6b 12 1b bd 38 0c 91 3c c3 a8 a1 3c da 69 c9 3b
       -0.03785936 0.017706022 0.019733792 0.0061466517
000070 8e 24 aa bc b1 6e f6 39 0c c6 9b 3b e2 aa 48 3d
       -0.020769384 0.00047003248 0.0047538336 0.04899109
000080 6b e0 53 bd 09 80 fa bc 2c 82 3c 3a f5 ca c3 3c
       -0.051727694 -0.03057863 0.0007191028 0.023900488
000090 86 ba fa 3d 5f 80 09 bc 29 34 c9 bc 14 57 80 bd
       0.12242608 -0.008392422 -0.024561005 -0.06266609
0000a0 9c 30 ac bb 98 66 f2 3b c5 06 13 bd e0 10 e6 3c
       -0.005254818 0.007397484 -0.035895128 0.028084219
0000b0 09 f6 19 3d 4f 20 b4 3d 58 5d 31 bd 1b 4b d7 bc
       0.037588153 0.08795225 -0.04330191 -0.02628093
0000c0 bf 67 aa bc 55 c1 3b 3c d9 5f 09 3c 7f 5f b0 bc
       -0.020801423 0.011459668 0.008384668 -0.021529911
0000d0 42 73 23 3d 79 a2 2b bc d9 91 da bc 2c 65 b2 bc
       0.03990484 -0.010475748 -0.026680874 -0.021776758
0000e0 e6 eb 7d bd cf 3c 72 3d fd 05 0d bd 58 cc c3 bb
       -0.06199255 0.059140023 -0.03442954 -0.0059752874
0000f0 db 28 63 3a 92 65 c5 bb 6f ce b4 3b 1d 3e 9e bb
       0.0008665451 -0.006024071 0.005517773 -0.004829182

layer2.0.weight f4 [57, 64]
000000 31 51 e9 bd 2d 63 1a 3e 0c 6e 51 3e 64 6b 98 bd
       -0.11392439 0.15076895 0.20452136 -0.07442358
000010 83 42 b6 3e cb 2e bc bd 18 d0 20 3e d7 92 93 3c
       0.3559762 -0.091886126 0.15704381 0.018014355
000020 44 f7 d6 3d cb 1e f0 ba d5 5f 53 3e 78 5a 65 3d
       0.10496381 -0.0018319724 0.20642026 0.05599448
000030 3c 1b 68 be d6 d7 17 3d 41 d1 4d 3d dd fa b0 bd
       -0.22666639 0.03707107 0.05024839 -0.086415984
000040 bd 23 85 3d bb 50 59 3c dd 29 93 3d 2e 09 f8 bd
       0.06500957 0.013263877 0.07185719 -0.12111126
000050 b4 4a 06 be 57 71 0d 3d 1c 01 f7 3b ec 4e 30 be
       -0.13114434 0.034531917 0.007537974 -0.17217606
000060 05 0b 04 3e 14 5e b6 bd 8d ab 45 3d a1 5f 92 be
       0.12894829 -0.08904663 0.048259307 -0.28588584
000070 dd c9 95 3c e3 60 38 be a5 79 5d 3d 84 9d 2f 3e
       0.018284732 -0.1800571 0.054071087 0.17149931
000080 c5 0a 1e 3e 6c 12 dc 3d 5a 5d a6 bc b0 f4 06 3b
       0.15433796 0.10745701 -0.020308185 0.0020592622
000090 25 95 ee 3c 57 ed cd 3d f9 b5 d3 3d ed 57 cb bd
       0.029123852 0.100550346 0.10337443 -0.0992888
0000a0 71 ff bd bb 41 17 6b be 32 08 90 be 4f 36 02 3d
       -0.0057982733 -0.2295809 -0.28131253 0.031790074
0000b0 a6 b4 2b 3d 1b 61 dc bd 9a 97 69 3e ec 53 57 3e
       0.041920327 -0.10760709 0.22811738 0.21028107
0000c0 aa 31 04 be 50 fd b2 3d f8 f4 81 3e fb a8 ad 3e
       -0.1290957 0.08739722 0.2538221 0.33917984
0000d0 29 c8 4f 3e 5f 3a 9a 3d e1 f6 b0 bd 48 f1 7c bd
       0.20291199 0.07530665 -0.086408384 -0.06175354
0000e0 75 36 21 3d 3d 3d 71 bd f7 73 a2 be 50 6b 59 3e
       0.039358575 -0.058896292 -0.317291 0.21232343
0000f0 db 69 36 bb 42 e4 c2 bb 1c da 10 be d8 ec 18 3e
       -0.002783409 -0.0059476206 -0.14145702 0.14934099
000100 ad 49 7f be 77 a5 b6 3e 43 2b 1a be 6a 13 a2 3c
       -0.24930449 0.35673115 -0.15055566 0.019784648
000110 ce 86 69 bd 86 ce cc bd c8 c9 6d 3d 73 bc 26 3e
       -0.057013325 -0.10000329 0.05805376 0.16282825
000120 12 09 66 be 4a 1b 71 3d b8 ae 48 3e b4 42 e0 3c
       -0.22464398 0.058863916 0.195979 0.027375557
000130 0b 6d 2e be 6c 98 1e be 31 cf e0 3c 18 f4 40 bd
       -0.17033784 -0.15487832 0.027442547 -0.047107786
000140 81 99 9c 3d 91 f2 eb bc 3a 7c c7 be 6d e4 9c 3e
       0.07646466 -0.028802188 -0.38961965 0.30643025
000150 e2 75 f7 3c d7 95 95 3e 5c 94 26 3e 25 aa 24 be
       0.030207578 0.2921588 0.16267532 -0.1608053
000160 ec 21 0b 3e 60 56 5d 3f 8a 8a a7 bd fc 59 e3 bd
       0.13587159 0.8645992 -0.08180721 -0.111011475
000170 c6 ea b5 3d c3 98 21 be 76 e6 8b bd 4f cf 82 bd
       0.0888267 -0.1578093 -0.06831066 -0.06387197
000180 78 00 1c 3d 19 25 17 bd 95 25 e6 3d a9 96 21 be
       0.038086385 -0.036900613 0.11237637 -0.15780129
000190 19 0c 51 3e a1 cd 79 bd 27 15 82 3e 0c 8b 92 3d
       0.20414771 -0.06098712 0.25406763 0.07155427
0001a0 8e af 37 3e 86 e3 ec bd 39 96 62 3e a8 ec b4 bd
       0.17938063 -0.11566834 0.22127618 -0.08834201
0001b0 c3 09 57 bc 19 0d 2d 3d 4f f4 fa 3a dc 96 2c be
       -0.013124886 0.04224882 0.0019146296 -0.16854423
0001c0 17 e4 06 be 13 21 b3 ba 53 c5 36 be 45 ff cc 3d
       -0.13172947 -0.0013666473 -0.1784871 0.10009626
0001d0 b0 14 3c bc 76 3d a3 bc 26 15 7e bc ee 1b 37 bc
       -0.011479542 -0.019926768 -0.015507972 -0.011176093
0001e0 cf 42 5e be fa 15 31 bd dc 13 62 3d 99 8a e1 3d
       -0.21705173 -0.04323385 0.05519472 0.110127635
0001f0 95 cc d2 3d 58 d0 f1 bd 07 aa 01 bf 87 65 2c 3d
       0.10292927 -0.118073165 -0.50650066 0.04208901
000200 21 c4 8e be 3c e7 f4 bd ec 3f 1c 3d 6e 44 4d be
       -0.2788401 -0.11958167 0.0381469 -0.20045635
000210 17 8f 7c 3e 4d cd f0 3d d0 52 78 be 2d d2 a8 bc
       0.2466396 0.11757908 -0.2425034 -0.020608032
000220 fc 60 28 be 5c 18 27 3e bf 4f f7 bd ed b4 b8 3c
       -0.16443247 0.16317886 -0.12075757 0.02254721
000230 8f 90 d8 bc 5a 06 7d 3d c1 82 2d 3e c3 3c 5b be
       -0.026436118 0.061773635 0.1694441 -0.21409898
000240 17 54 b5 3d 11 ac fd 3c 08 a2 3e bc ac 3e 10 3e
       0.088539295 0.030965837 -0.011635311 0.14086407
000250 29 29 ad bd 72 9f 1d 3e 78 73 46 3d 16 df 6d 3d
       -0.08455116 0.15392855 0.048449963 0.05807408
000260 4d 1b a2 be 7f 75 e6 bd f6 1a ab 3d a7 71 08 3e
       -0.31661454 -0.11252879 0.08354752 0.13324605
000270 d4 ad 4e be 09 01 35 bd f1 05 85 3e 1b 3a 3e 3e
       -0.20183498 -0.04419044 0.25981095 0.18576853
000280 1b 8b a1 be a8 d7 a7 bc 1a 5f be 3d d8 be e0 3d
       -0.31551442 -0.020488575 0.09295483 0.109739006
000290 67 d4 06 bd 80 78 5d be 53 81 0e bc b5 ff 27 be
       -0.032917406 -0.21627998 -0.0086978255 -0.16406138
0002a0 2e eb 9b 3e 1c ce 65 be 7a f1 42 be e6 55 fc 3d
       0.30452865 -0.22441906 -0.19037428 0.12321071
0002b0 57 41 9d bd 2d 4b 06 bd f7 f3 c8 bd da ce cf bd
       -0.07678478 -0.032786537 -0.098121576 -0.10146876
0002c0 be ce 1f be 9e 31 b4 bd 4d cb 75 3e 8e d1 36 3d
       -0.1560621 -0.08798526 0.24003334 0.04463344
0002d0 36 74 66 3d 75 2a 26 bd e7 8a eb bc 07 a0 3e be
       0.05626317 -0.040567834 -0.028752757 -0.18615733
0002e0 f0 89 c9 bd 40 21 f7 3d 38 ea 23 3e 09 08 07 be
       -0.098407626 0.12066889 0.16007316 -0.13186659
0002f0 8c a9 3f be 0f ef 14 3d 45 70 ac be cc c2 66 3d
       -0.18717021 0.036360797 -0.33679405 0.056338117
000300 0b 68 2b be bf d9 3b 3c 75 f1 55 3d 18 13 86 3d
       -0.16738908 0.011465489 0.052232224 0.065466106
000310 2c 45 23 3e 69 2a 1e 3e f0 35 d1 3d db d4 cc 3d
       0.15944356 0.15445866 0.10215366 0.100015365
000320 60 2b 20 3e d6 c2 bd bc 8b 0e f4 bd 2d 7a 44 3c
       0.15641546 -0.023164194 -0.11916836 0.01199202
000330 b7 6a 0a be 2a ec cd 3d 72 fe b9 3d 90 db 06 3d
       -0.13517271 0.1005481 0.09081735 0.032924235
000340 5d 02 7c bd 26 54 89 bd b7 5d 7a 3e 15 4f 27 be
       -0.06152569 -0.06705503 0.24449812 -0.16338761
000350 e7 28 ad 3d 3f 06 2c 3d c3 74 03 be 31 ac 83 3d
       0.08455067 0.041998144 -0.1283751 0.06429327
000360 f8 94 ad bc 62 7d 05 be fc 57 b8 3d d7 10 05 3e
       -0.021189198 -0.13036111 0.09001157 0.12994705
000370 4a bc 82 3d 1b 42 f4 bc ba eb 7d be d8 14 96 3b
       0.063835695 -0.029816678 -0.24796954 0.0045801215
000380 dd e4 bb 3c 2b fe f3 bb 88 bf 48 3c ea 8d 89 be
       0.022936279 -0.0074460707 0.012252696 -0.26866084
000390 6c 78 fb 3d e5 cf 12 3e 30 cc 20 be 34 0f 15 bd
       0.12278828 0.14337118 -0.15702891 -0.036391452
0003a0 c4 db aa 3d a0 d2 a6 3d f5 28 3f be 9f df bb 3d
       0.08342698 0.08145642 -0.18667968 0.09173512
0003b0 87 02 10 3e 3c 67 66 3e d1 21 df bb 4c 64 2d be
       0.14063464 0.22500318 -0.006809451 -0.16932791
0003c0 e0 4b 3d be cd e5 1d 3e e8 1d 85 be 86 3b 81 be
       -0.18485975 0.15419693 -0.2599938 -0.25240725
0003d0 9e f3 1c 3e d2 fe 87 3d e0 0b 4f be cb c5 8a be
       0.15327308 0.066404 -0.20219374 -0.2710403
0003e0 ad 33 98 3d 69 04 44 bd bf 56 95 bc 93 d5 3b be
       0.074317314 -0.04785577 -0.01822984 -0.18343191
0003f0 41 11 ca 3d 5e 67 07 3e c5 a8 9b 3c 39 31 8a bd
       0.09866572 0.13223025 0.019001374 -0.0674767

layer2.0.bias f4 [57]
000000 60 a2 39 bd fd 92 bc 3c 6f 9c df 3c 07 fc 59 3d
       -0.04532087 0.023019308 0.027296273 0.053218868
000010 55 24 06 3d 84 60 5c bd db 3e c7 3c 8f f1 9c 3d
       0.032749493 -0.053802982 0.024321964 0.07663261
000020 ec c7 71 3d 3a d9 9c bc 75 01 9f bc 93 9b 94 3c
       0.05902855 -0.01914655 -0.019409874 0.01814059
000030 29 0d 86 3c db b7 5b bc 5f 05 8d 3c 60 fd a6 bc
       0.016363697 -0.013410534 0.017214475 -0.02038449
000040 27 c2 a1 bd a1 4a e6 3d 2d 9a 80 bc 82 17 e6 bb
       -0.0789836 0.11244703 -0.015698517 -0.0070218453
000050 64 cd 55 3b 5c c6 43 3c 38 f6 5c bd 06 d2 1a be
       0.0032623643 0.011949148 -0.05394575 -0.1511918
000060 9e 34 40 3c f7 7d 70 3c 94 0a 0a bd 7b e7 00 3d
       0.011731295 0.01467847 -0.033701494 0.031470757
000070 66 57 9b bd 0f 00 11 bd 9d 64 e5 bd 36 91 02 bd
       -0.07585029 -0.035400447 -0.11200831 -0.031876765
000080 e9 cc 85 3c 50 66 aa 3d ad 38 16 3c cf 88 ca 3c
       0.01633306 0.08320296 0.009168786 0.024723439
000090 31 ca d5 3b b2 b8 44 3c e8 a0 0b bd 36 68 87 bd
       0.0065243472 0.012006925 -0.034089 -0.066116735
0000a0 82 82 ef 3b ae b8 a7 bc 60 a5 5b 3b c5 7b f1 3a
       0.007309259 -0.020473804 0.003351532 0.0018423727
0000b0 d7 ce 50 bd b9 c4 e9 3d 13 9e 07 3c 57 fa f9 3d
       -0.050978508 0.11414475 0.008277434 0.12205952
0000c0 8b 13 12 bd 06 6f dc bc 2e 0d 8e 3c a2 a3 0d be
       -0.03566317 -0.026908409 0.017340269 -0.13831952
0000d0 90 55 8d bc ce 37 86 3d 48 fe 45 3b 2a c7 fb bd
       -0.017252713 0.06553613 0.0030211378 -0.12293847
0000e0 12 b4 ef bc
       -0.029260669

layer3.0.weight f4 [64, 64]
000000 c2 73 4d be 65 26 09 3c 9c 10 f1 3d 66 09 f5 bd
       -0.2006369 0.00837097 0.11770746 -0.11964683
000010 19 ea f2 3d f7 c5 10 3e e5 8a c9 bd c1 08 08 3e
       0.11861057 0.14138018 -0.09840945 0.1328459
000020 db a5 90 be e8 89 1b 3e 2a 4c e3 3d 87 31 2b 3d
       -0.28251538 0.15189326 0.110985115 0.04179528
000030 4c 85 5b 3e 69 be 12 3b b3 de 02 bb f9 cb 54 3c
       0.21437567 0.0022391325 -0.0019969165 0.012988084
000040 8c 29 0a 3d f7 24 26 3e f6 8b 21 3d 01 18 67 3e
       0.03373103 0.16225038 0.039440118 0.2256775
000050 e0 12 2c 3d 20 3f 00 3e 1a 53 1d 3e 17 0f 42 3f
       0.042010188 0.1252408 0.15363732 0.75804275
000060 1a 8e f7 3d 9e 44 3e bd 2c 99 a0 3e 4a fb 67 bd
       0.120876506 -0.046452157 0.3136686 -0.056636132
000070 c4 40 42 3b 41 3e e3 3d f5 32 e1 bd 56 62 9f 3c
       0.0029640654 0.11095858 -0.109960474 0.01945607
000080 c5 cc 3b 3e fb 55 5a 3d 46 0a 24 3e 89 e5 59 be
       0.18339832 0.053304654 0.16019544 -0.21278967
000090 af 88 10 3e bf e3 36 3e 8d 95 a8 bd 89 12 90 3d
       0.1411464 0.17860316 -0.082316495 0.07034785
0000a0 0a 3a 88 3c 7b 62 86 3c 67 e6 06 3c a9 6e 3f 3e
       0.016629238 0.016404381 0.008233643 0.18694557
0000b0 5c 99 25 bd 84 1e a4 3e 73 b7 77 3b 26 e6 c1 3e
       -0.040429458 0.32054532 0.0037798553 0.37870902
0000c0 77 4c 01 be 8a c0 c3 3d 73 15 3e bd e5 70 63 3e
       -0.12626825 0.09558208 -0.046407174 0.22211035
0000d0 fd 6e b9 bd 4e 64 0a 3e 6a 73 00 3e 79 13 03 bd
       -0.090543725 0.13514826 0.12544027 -0.032000992
0000e0 aa 76 3e 3e 0e 8c 69 3d e0 9e ae be 49 be 83 3e
       0.18599954 0.057018332 -0.34105587 0.25731114
0000f0 75 af a1 3e 31 1e ea bd ac 18 e9 3d f5 8c 21 be
       0.31579176 -0.1143154 0.11381659 -0.15776427
000100 65 d9 b4 3d c4 53 94 be 7a af cf be 11 0f ed 3d
       0.08830527 -0.28970158 -0.40563565 0.11575139
000110 6e e9 37 be a8 5a 69 be 31 d0 08 3c 20 0d 9b 3e
       -0.1796014 -0.22788489 0.008350418 0.3028345
000120 28 7b b9 bd 07 2c ac bd b0 4a fb 3d df f9 5d 3c
       -0.09056693 -0.08406835 0.12270105 0.013548343
000130 08 9b 89 bd 2e b4 7d bb fa 58 07 3e 31 ed 06 3e
       -0.06719023 -0.0038712132 0.13217536 0.13176419
000140 ae b1 20 be f4 fd c7 3d 6d 46 60 3d 2d 07 24 3d
       -0.1569278 0.097652346 0.054754663 0.040045906
000150 3c 5a 45 be 1f 25 81 3d 6a 9d 5f be 84 ae 7e bf
       -0.19272703 0.063059084 -0.21837392 -0.9948504
000160 38 79 10 be 83 ca a0 bd e2 2d 87 3e a1 dc a5 be
       -0.14108741 -0.07851126 0.26402193 -0.3239489
000170 73 fd 1e 3e c1 6b 9e be 2a e8 b9 3d e6 c7 4c bd
       0.1552637 -0.30941585 0.09077485 -0.049995326
000180 6f c1 e7 bd 97 a9 49 3e dd cc 3d 3e a8 cc ac 3c
       -0.113161914 0.196936 0.1853518 0.021093681
000190 c0 68 05 3d d6 9f 8b 3c ae 90 3d 3d 54 d3 2c 3c
       0.0325706 0.01704399 0.046280555 0.010548431
0001a0 b5 e6 6d be 4a fc 9e 3d 19 a7 11 3e df d2 40 be
       -0.23232539 0.07762964 0.14223899 -0.18830441
0001b0 eb a1 e6 bc e9 3d 8f 3f 3e d8 9f 3c e3 4f 0e 3e
       -0.02815338 1.1190768 0.019512292 0.13897662
0001c0 b1 1a 11 3e e8 f0 17 be 85 6f 99 be da 80 61 3d
       0.14170338 -0.14837992 -0.29967895 0.055054523
0001d0 7a fa 0f bd 70 e1 90 3d 7a 67 c0 3c 4f c9 b8 3d
       -0.035150982 0.07074249 0.023486841 0.090227716
0001e0 1c 88 3a 3e 36 ef 09 bd 95 6a cb bd 69 b8 4c bd
       0.18215984 -0.033675395 -0.09932438 -0.049980555
0001f0 e0 33 7a bd 9d b5 8e bd e7 f5 80 3d 67 ac 7c 3d
       -0.061084628 -0.06968234 0.06296902 0.061687853
000200 0f 8f ee 3d ba 5c 5f 3e ca ce 76 bc 50 8b 19 be
       0.1164838 0.21812716 -0.015063951 -0.1499455
000210 40 34 59 be e2 62 ab bc 03 d8 06 be f1 97 ba 3d
       -0.21211338 -0.020921174 -0.1316834 0.09111012
000220 cc c0 9d bd c9 5a f4 3d a1 18 49 3e 81 f3 54 3e
       -0.07702789 0.119313784 0.19638301 0.20796014
000230 1f 91 08 3e 41 3e f0 bc 27 ce 3c 3e 5d bb ad 3d
       0.1333661 -0.02932656 0.18438016 0.08483002
000240 c5 5d 0b 3e 2f 57 b0 3e 8d 9c 23 3e e5 da d0 3c
       0.13609989 0.34441516 0.15977688 0.025495002
000250 7f d0 59 3d c2 49 57 be b5 b2 f0 bd ad ac 44 3f
       0.053177353 -0.2102423 -0.11752836 0.7682598
000260 1e 30 38 be e8 59 55 be 62 54 0a be ec f1 4e 3e
       -0.17987105 -0.20835078 -0.13508752 0.20209473
000270 44 74 41 3e 9e d2 08 be 44 92 db 3d c6 da 96 bd
       0.18892008 -0.13361594 0.10721257 -0.073659465
000280 c0 35 f8 3d ab 75 db bd c5 66 92 3d f4 dd d9 bd
       0.12119627 -0.10715803 0.07148508 -0.10638037
000290 b2 9e a8 bd a4 9d b6 3d d2 08 f0 3d 60 de cd 3b
       -0.08233394 0.08916786 0.11720432 0.0062826127
0002a0 59 a0 76 3e f6 cb 15 be f1 e1 84 bc 77 52 f8 bc
       0.24084605 -0.14628586 -0.016221019 -0.03031276
0002b0 2c 1c bd 3e e2 c8 11 3f 0a 77 0c 3e 89 12 4c bb
       0.36935556 0.5694715 0.13717285 -0.0031138978
0002c0 a9 c5 11 bd 9f 6e 66 bd c6 7a 9d bd ff 0c b7 3d
       -0.035588894 -0.05625784 -0.07689433 0.08938026
0002d0 ae 2b 7e 3d 20 81 9f 3b ea b3 8b bd 1e ab a1 3d
       0.062053375 0.004867688 -0.06821425 0.07893966
0002e0 65 9e fd bc 2d ed 06 3e 65 54 35 be d9 ff 42 be
       -0.030959317 0.13176413 -0.17707975 -0.1904291
0002f0 10 01 36 3e 03 d0 93 bd f6 70 4a be fa 88 1e be
       0.17773843 -0.072174095 -0.19769654 -0.1548194
000300 ec 35 94 be 6d 59 3d bd e2 5f ff bb 91 47 92 3d
       -0.2894739 -0.04622786 -0.0077934125 0.071425565
000310 11 4c 34 bd e3 5b 6e bc f0 49 e0 bd 2c 0c ec 39
       -0.044017855 -0.014548275 -0.109516025 0.00045022496
000320 03 83 01 3e e6 dd d6 3c 80 03 a1 bd 2d b1 71 bd
       0.12647633 0.026228856 -0.07861996 -0.05900686
000330 a4 2e b6 bd 0e c3 f7 bd c5 9e c0 3d ad ea 14 be
       -0.08895615 -0.120977506 0.09405283 -0.14542647
000340 3e a7 04 bd 2c 6f ce 3c 00 8c 24 3e ea 20 97 be
       -0.032386057 0.025199495 0.16069031 -0.295173
000350 58 21 2a 3d d9 1c 81 3e 16 fc 64 3d 78 17 86 3e
       0.041535705 0.25217322 0.05590447 0.2618978
000360 2d 5d 1c bd ae ca 77 bd d3 68 7c 3d 25 44 1b be
       -0.038174797 -0.060496025 0.061623406 -0.15162714
000370 f8 98 98 3d e5 04 97 bd 77 93 8c be 0e 9b 55 be
       0.074510515 -0.073739804 -0.27456257 -0.2085993
000380 70 6d d5 3b 9b 25 f8 3d 4d 95 a5 3c 44 c3 84 3e
       0.00651329 0.12116548 0.020212794 0.25930226
000390 5b c5 2d bd 10 8f 3a 3e 09 ea 35 bd 8a 1f e9 3c
       -0.04242454 0.18218637 -0.044412646 0.028457422
0003a0 87 bf cd bd 7f b6 bd 3e a6 08 c3 3c 3f e6 0f 3e
       -0.100462966 0.37053296 0.023807835 0.14052676
0003b0 b3 84 30 3e 79 d7 3c bf 5f 38 a9 bc ba 65 e3 3d
       0.1723812 -0.73766285 -0.020656763 0.11103387
0003c0 29 6c f6 3d 2b a4 05 3d 3e 06 86 be ba 4c e7 3d
       0.12032349 0.032627266 -0.26176637 0.11293931
0003d0 49 13 86 bd a8 93 96 bc ab e9 5c be e7 a6 7b 3c
       -0.06546647 -0.018380955 -0.21573512 0.015359617
0003e0 fb 16 8a 3e f9 0c cd 3d d8 45 1b 3e 1b 14 bc be
       0.26970658 0.1001224 0.15163362 -0.3673409
0003f0 46 20 26 be 99 21 2b be 03 f2 b1 bd b4 bf 41 3c
       -0.16223249 -0.16712035 -0.08688738 0.011825491

layer3.0.bias f4 [64]
000000 39 55 bf bc 4f 37 6d 3c 75 d4 ee bc fa 17 1a 3c
       -0.023356067 0.014478519 -0.029154042 0.0094051305
000010 01 1d 13 bc 5a a7 13 3d c2 cd 29 3c cc ba e8 3c
       -0.008979083 0.03604827 0.010363998 0.028409384
000020 f1 be 4a bd d8 c0 df bb 1c a6 4f 3c cd 4d 9f 3c
       -0.049498502 -0.0068284087 0.012673881 0.019446278
000030 b7 d7 6d ba 06 f2 b2 3b a8 5d b6 3c 7f 7a 71 bc
       -0.00090729765 0.0054609803 0.022261456 -0.014738678
000040 7d cd 08 bd c0 d5 9f bc eb 30 35 bc c8 ea 99 ba
       -0.033399094 -0.019511104 -0.011059026 -0.0011742944
000050 72 ef 67 3c fc e9 63 3c 49 c8 90 3b c9 3d 96 3c
       0.014156209 0.013910767 0.004418407 0.018340008
000060 e3 bb 41 3d 20 8e 06 3c 2c 79 f3 bb fc 15 95 bc
       0.047298323 0.008212596 -0.0074302163 -0.01819896
000070 74 2a 83 3c 59 26 b8 3c 13 63 89 3b 27 4d 7a bd
       0.016011454 0.022479223 0.004192719 -0.061108734
000080 88 31 d8 3c e2 5d 33 bd 95 08 1b bd 3b 9c ef 3c
       0.026390806 -0.043790706 -0.03784998 0.029249301
000090 85 b3 d1 3c 06 6a d8 3c 3b 66 9d bc 0c 32 64 3c
       0.025598297 0.026417743 -0.019213786 0.013927948
0000a0 ce 42 4b 3b 2e d2 47 bd cd 1a 44 bd 24 05 4f bc
       0.003101516 -0.048784427 -0.04787712 -0.012635503
0000b0 bb cf 0f 3c 76 6e db bb eb 83 0a 3c 63 4a f2 bc
       0.008777554 -0.0066965176 0.008454303 -0.029576486
0000c0 e0 1c c0 3c 11 4d cf bb ac 7f 1c 3d 1a f4 93 3b
       0.023451269 -0.0063263257 0.038207695 0.004515183
0000d0 df 16 1b 3c 58 55 cc 3c bc a2 8f bc f6 c7 a2 3c
       0.009465902 0.024943039 -0.017533652 0.01987074
0000e0 33 11 fd 3b b1 59 a7 3b 69 f9 b4 bb 82 dc 84 3c
       0.0077229976 0.0051071276 -0.005522896 0.016218428
0000f0 a3 1a d4 3b 9b cb 36 bc 61 fd d2 3c cb de 78 bc
       0.006472902 -0.011156942 0.025755586 -0.015189837

output_layer.weight f4 [1, 64]
000000 19 5f e6 3d 8c 33 66 3e 31 61 b3 3d f6 ac cd bd
       0.11248607 0.22480601 0.08758772 -0.10042755
000010 d6 d6 e7 3e e6 c7 79 be ea 3a 34 be 3e 24 2d bd
       0.45281094 -0.24392661 -0.17600599 -0.04227089
000020 ce ef 53 3e 13 4d 7b 3d 54 ee ea 3d 60 60 f0 bd
       0.20696947 0.0613528 0.11471239 -0.11737132
000030 d0 b4 35 3e 7b 52 cc bd 58 df cb 3e 5b 34 6f 3e
       0.17744756 -0.099766694 0.39818835 0.23359816
000040 1e 24 cb 3d 0f 38 aa 3e 33 b7 f4 3d 15 82 d7 3e
       0.09918998 0.33245894 0.11949005 0.42091432
000050 2c d5 84 be e5 42 b6 be 4a 26 ad be f4 6b 80 be
       -0.25943887 -0.3559791 -0.33818275 -0.25082362
000060 fd 92 b4 3e c4 44 2a be ca cc c1 3d b9 da 75 3d
       0.35268393 -0.16627795 0.094628885 0.060023043
000070 93 d8 d6 3d b7 fa 70 be 80 0f 7b be 8e 24 dd 3e
       0.10490527 -0.2353314 -0.24517632 0.43191952
000080 96 46 a3 be 40 5a 1f 3f b6 53 cb 3d ee a1 c2 bd
       -0.3188979 0.62247086 0.09928076 -0.09503542
000090 61 f5 6c be 4e 2e 49 be 0a 9c bb 3e 54 4f d2 3e
       -0.2314048 -0.1964657 0.36642486 0.41076148
0000a0 22 c1 46 be 67 99 d1 3d 56 02 0a 3e c2 4c 20 3e
       -0.19409612 0.10234337 0.13477454 0.15654281
0000b0 51 59 ec bd 05 11 8d 3d 84 35 12 be a8 ce a4 3e
       -0.11540473 0.06888012 -0.14278227 0.32188916
0000c0 7d b3 66 be 9b 39 93 3e 31 1e 21 be 83 36 bd bd
       -0.22529407 0.28754887 -0.15734173 -0.09238913
0000d0 ca 48 8c be 2b 14 4c be cf 05 9a 3e 63 0b c5 be
       -0.27399284 -0.19929568 0.30082557 -0.3848525
0000e0 52 7c dc bc 56 61 bf be 73 a0 d0 3e 4a 26 2e 3e
       -0.02691475 -0.3737895 0.40747413 0.17006794
0000f0 63 ce 07 be 2d b1 a7 be 32 eb 80 be 7b 65 91 3e
       -0.13262324 -0.32752362 -0.2517944 0.28397736

exp_avg f4 [64, 7]
000000 95 eb 39 39 50 13 e1 37 b2 c7 10 b8 85 43 29 37
       0.00017730736 2.6831083e-05 -3.4518256e-05 1.0088906e-05
000010 e0 32 6b 38 54 30 13 39 83 b5 31 b9 1d 18 ef 38
       5.6075747e-05 0.00014037016 -0.00016947654 0.000114008995
000020 3c 6e 97 37 a6 c5 cb b7 6a a1 bc 35 ef e3 21 39
       1.8051935e-05 -2.4291523e-05 1.4054069e-06 0.00015439068
000030 55 53 b7 38 d2 a9 10 b8 58 f0 83 37 ad 01 2f b7
       8.741642e-05 -3.4490433e-05 1.5728336e-05 -1.0431203e-05
000040 36 20 11 38 e0 12 ba 38 32 48 99 38 03 ec a2 38
       3.4600693e-05 8.872687e-05 7.309056e-05 7.7687226e-05
000050 9a 61 52 39 0f 22 a4 38 a2 cd 6e 36 e3 78 1f 37
       0.0002006352 7.826473e-05 3.5584458e-06 9.505285e-06
000060 58 a2 81 38 1e 90 a5 b8 48 5d 77 38 26 21 5f 36
       6.181438e-05 -7.894657e-05 5.8976264e-05 3.3248884e-06
000070 df 2a 0f b8 ff af 03 b7 2b af 78 37 36 f7 8d 37
       -3.4133784e-05 -7.849186e-06 1.4822736e-05 1.6923626e-05
000080 33 63 d1 38 95 2e 08 b8 18 c6 44 b9 d8 6d 1f b8
       9.984374e-05 -3.246831e-05 -0.00018765812 -3.8010854e-05
000090 92 fe 64 b7 ff a1 02 38 8c 65 5d 38 3f 14 20 39
       -1.3649131e-05 3.1145286e-05 5.278508e-05 0.00015266331
0000a0 53 25 6e b8 7d 08 b6 b8 3b 21 74 b7 b3 0e c8 b6
       -5.6778383e-05 -8.680017e-05 -1.455127e-05 -5.9621757e-06
0000b0 87 e9 6f 37 05 93 d6 37 e7 5d 23 39 ed aa 85 38
       1.4299882e-05 2.557925e-05 0.00015579873 6.3737716e-05
0000c0 2f ae d2 b8 11 bd cc b7 7f 89 4b b5 06 ec 80 b6
       -0.000100460245 -2.4406736e-05 -7.5823476e-07 -3.842174e-06
0000d0 fb 04 b4 b7 07 41 99 b6 1d 16 bd b6 09 01 03 b8
       -2.1459991e-05 -4.5673255e-06 -5.6352133e-06 -3.1233798e-05
0000e0 b6 1f 09 b8 3d 2b 81 b6 48 fa 45 36 3f 91 22 b7
       -3.269288e-05 -3.849533e-06 2.950097e-06 -9.68977e-06
0000f0 2f 5d 86 37 78 84 6d 36 23 03 18 38 38 a1 24 b9
       1.6017437e-05 3.539286e-06 3.6242545e-05 -0.00015700317
000100 31 00 01 b8 12 8b 56 38 9f a6 23 38 22 9c 6b 39
       -3.0756175e-05 5.1151095e-05 3.9017406e-05 0.0002246951
000110 5e 18 9e b8 a5 60 ba b8 24 8a 3c b6 7d f4 0f b6
       -7.538566e-05 -8.8871726e-05 -2.8094591e-06 -2.1450971e-06
000120 34 82 be 36 a6 0e 45 37 de 55 3a 36 f4 52 3d b7
       5.677599e-06 1.1745526e-05 2.776614e-06 -1.1284592e-05
000130 00 a8 d0 38 28 d4 a2 36 c9 e7 04 36 13 92 96 b6
       9.949505e-05 4.8526745e-06 1.980445e-06 -4.4873536e-06
000140 5e 92 07 b7 c2 d1 1f b7 c6 2c 42 37 44 ff 93 b8
       -8.080706e-06 -9.525977e-06 1.1573726e-05 -7.057053e-05
000150 b2 2b 02 b9 13 4d af b7 91 02 01 38 cf 1d 06 37
       -0.00012414044 -2.0897516e-05 3.0758387e-05 7.993963e-06
000160 24 c9 b6 b7 2d d2 67 b8 d2 d1 38 b9 4d 9a 94 b8
       -2.1789754e-05 -5.5270433e-05 -0.00017625772 -7.085931e-05
000170 a4 08 2a b7 35 67 50 37 e2 b8 fc b6 5e 77 cb b8
       -1.0134801e-05 1.2421796e-05 -7.5317084e-06 -9.702028e-05
000180 3e 64 60 b8 92 03 fe 37 5c ff 25 37 b8 ba 90 37
       -5.349912e-05 3.0280822e-05 9.894222e-06 1.7253085e-05
000190 8b 8c 4d b8 fa c1 e3 b8 e0 87 b3 b8 c6 43 d2 b8
       -4.90067e-05 -0.000108603344 -8.560694e-05 -0.00010026204
0001a0 dd 4a a1 b8 0e a9 c9 b5 00 37 c5 b6 cf 80 90 37
       -7.6910226e-05 -1.5024868e-06 -5.8774604e-06 1.7226119e-05
0001b0 87 16 24 38 3d 8f 73 38 1d 85 65 38 ab 30 42 38
       3.9121627e-05 5.8069116e-05 5.4721826e-05 4.629853e-05
0001c0 26 45 c9 36 6d d0 9c 35 b0 32 f2 b5 cf c9 a8 b5
       5.9983167e-06 1.1683566e-06 -1.8045157e-06 -1.257571e-06
0001d0 5f e2 b7 37 46 47 43 b7 26 ef d4 b8 6b 32 19 38
       2.1920712e-05 -1.16395e-05 -0.000101534926 3.6524998e-05
0001e0 d5 86 e7 36 8a 6e 3a b7 f5 f8 f3 b6 5d 38 c3 37
       6.900033e-06 -1.1112201e-05 -7.2709468e-06 2.3272058e-05
0001f0 4f f4 8e 38 e1 72 ea 38 9f b4 a3 b8 2d 79 66 b7
       6.816594e-05 0.000111793874 -7.806089e-05 -1.3737282e-05
000200 0a eb af 37 9e 60 15 37 c8 d9 a9 b8 e5 4d 41 b8
       2.0971074e-05 8.9035875e-06 -8.099113e-05 -4.608733e-05
000210 d1 0c 14 38 95 70 8d 38 47 16 16 38 d9 14 bc b8
       3.5297886e-05 6.744374e-05 3.5783534e-05 -8.968422e-05
000220 d1 04 36 b9 cb 2c a1 b9 3e d8 e2 b8 e2 2c 80 36
       -0.00017358667 -0.00030741686 -0.00010816798 3.8199223e-06
000230 f3 b0 b9 34 33 ae a1 b6 f6 32 76 37 9b cd 0e 38
       3.4587683e-07 -4.8184534e-06 1.4674608e-05 3.4046923e-05
000240 57 59 ae 37 37 7e df b6 42 32 8e b8 89 55 8e 38
       2.0784018e-05 -6.6606112e-06 -6.780449e-05 6.78702e-05
000250 bf c0 12 38 85 8d b7 b8 ad 42 30 b9 4e 2b 1a b8
       3.498862e-05 -8.75248e-05 -0.00016809507 -3.675679e-05
000260 aa 61 bc b8 92 56 7b 39 4b 70 38 b8 8d 4a 77 36
       -8.98273e-05 0.00023969475 -4.39736e-05 3.6849262e-06
000270 eb 1e ba b7 75 f9 9a b8 d7 26 f9 b8 09 e8 8f b7
       -2.2187325e-05 -7.389757e-05 -0.0001188048 -1.7154978e-05
000280 83 38 37 38 be be b0 b7 8d 70 00 37 99 3f ec b7
       4.368323e-05 -2.1069656e-05 7.6556e-06 -2.8163007e-05
000290 da b0 9f b8 bd 68 54 b9 cf 70 19 b8 5c 01 73 38
       -7.614652e-05 -0.00020256914 -3.6583104e-05 5.793698e-05
0002a0 ab 18 db b8 e2 ee 86 b7 0e f1 b4 37 2a 37 64 b6
       -0.000104473285 -1.6085283e-05 2.1569922e-05 -3.4006757e-06
0002b0 7c a9 cc b8 3c bb 5b b8 4c 74 cd 38 fb 8a ab b8
       -9.759047e-05 -5.2388044e-05 9.796824e-05 -8.1798025e-05
0002c0 a9 4b a1 b7 c0 06 19 38 bc 1f 34 38 f9 c2 76 b9
       -1.9227928e-05 3.648433e-05 4.29449e-05 -0.00023533021
0002d0 f7 bf 83 b8 54 19 cf b7 61 eb ef b8 12 c3 41 b7
       -6.282323e-05 -2.4688117e-05 -0.00011440251 -1.1549115e-05
0002e0 12 6d b0 36 b2 88 41 b8 70 6f 7f b8 ea c4 f7 b8
       5.257906e-06 -4.6142093e-05 -6.0900522e-05 -0.00011814556
0002f0 fd ff 44 37 c9 30 4f b8 b4 63 80 b6 d0 ec 96 b5
       1.1742112e-05 -4.939808e-05 -3.8263042e-06 -1.1244792e-06
000300 e5 8d e9 b7 5c cd b1 b8 57 bf 50 b8 42 63 0b b6
       -2.784184e-05 -8.478269e-05 -4.9769264e-05 -2.077039e-06
000310 11 9d 1c b6 8b 59 2f 35 9e 43 22 b6 ad 87 e7 b6
       -2.3337236e-06 6.532288e-07 -2.417924e-06 -6.900131e-06
000320 2b 85 c5 b8 bc f1 8e 37 84 fd fc b7 b8 2f 13 b9
       -9.4184965e-05 1.7040285e-05 -3.0158793e-05 -0.00014036789
000330 9b 7a a1 b7 ff f9 b4 37 63 61 b4 b7 15 a0 32 b9
       -1.9249788e-05 2.1574086e-05 -2.1503021e-05 -0.00017035038
000340 c7 ec c8 b8 50 ce 85 38 66 fc 79 39 a4 75 58 38
       -9.5808464e-05 6.380363e-05 0.00023840516 5.1607974e-05
000350 e1 f0 c2 b8 4c 95 c5 b8 70 f7 f6 38 65 b9 15 39
       -9.295508e-05 -9.421501e-05 0.00011776283 0.00014278812
000360 af 9e 76 b8 7b ba d7 b8 96 aa b3 b7 64 43 1c 38
       -5.8798756e-05 -0.000102867336 -2.1417898e-05 3.725606e-05
000370 6b cc 0f 38 a8 54 15 38 85 44 bc b8 5a 06 93 39
       3.4284236e-05 3.560321e-05 -8.977301e-05 0.00028042757
000380 db 9c 0a 38 46 50 66 37 9e 92 07 b8 53 ae 74 b8
       3.3047847e-05 1.3727758e-05 -3.2323056e-05 -5.8336485e-05
000390 b8 8d 49 b6 35 93 7f 38 f1 3d 77 39 5b ae 31 b8
       -3.0033825e-06 6.0933835e-05 0.0002357883 -4.236247e-05
0003a0 2b 3f 9d b6 69 e5 55 36 d3 9c 6e b7 8e 2c 86 b7
       -4.6863183e-06 3.1873008e-06 -1.4222419e-05 -1.5994792e-05
0003b0 5f 06 0e b8 d4 66 08 38 f8 8f f6 b8 f7 c5 0f b8
       -3.386137e-05 3.2520693e-05 -0.0001175701 -3.4278226e-05
0003c0 9f 80 97 38 06 d1 e1 38 f8 30 be 39 f5 d5 17 b8
       7.2241986e-05 0.0001076777 0.0003627611 -3.620047e-05
0003d0 15 db c2 38 a7 aa db b8 13 e2 93 b7 d2 36 d7 37
       9.291448e-05 -0.0001047452 -1.762904e-05 2.5655525e-05
0003e0 31 c2 d1 36 8e 90 24 b9 0e e5 a2 b8 11 02 4a 38
       6.2512922e-06 -0.0001569411 -7.767427e-05 4.8162477e-05
0003f0 46 4a 6d 39 ba bf 34 38 8e d0 94 b8 9c 05 4e b8
       0.0002262975 4.3093904e-05 -7.096036e-05 -4.911945e-05

exp_avg_sq f4 [64, 7]
000000 23 41 8e 37 b9 a8 eb 34 ec e5 6f 35 84 35 d6 32
       1.695805e-05 4.3894923e-07 8.936902e-07 2.4937215e-08
000010 59 97 25 36 35 03 5c 37 18 f5 9e 37 5e 6f 3f 37
       2.4675012e-06 1.3113769e-05 1.8949198e-05 1.1410417e-05
000020 97 f6 17 35 a8 d8 07 36 c0 c9 2f 36 46 4f ae 38
       5.661072e-07 2.0242678e-06 2.6194466e-06 8.3117324e-05
000030 79 c6 a8 36 5c 47 20 34 5c 09 96 36 b9 f8 91 35
       5.0298954e-06 1.4927122e-07 4.471438e-06 1.087573e-06
000040 a0 e9 eb 36 cf bb d8 37 bb 35 9f 36 00 fa 3c 35
       7.0307433e-06 2.5836662e-05 4.7448243e-06 7.0399255e-07
000050 3b 16 c0 38 c6 0b c4 36 d5 ce e0 31 c1 b1 30 34
       9.159414e-05 5.842626e-06 6.542772e-09 1.6455944e-07
000060 d3 ec 9b 36 9d 84 06 37 57 3d 2c 36 a0 26 3b 36
       4.64693e-06 8.017899e-06 2.5665702e-06 2.7887654e-06
000070 80 06 5b 35 3a 43 aa 32 61 28 23 33 6a 6e dd 31
       8.1593316e-07 1.9821176e-08 3.798812e-08 6.444499e-09
000080 93 29 80 36 05 ca 00 35 42 41 ff 37 a3 91 87 35
       3.819537e-06 4.7977693e-07 3.0428757e-05 1.010067e-06
000090 23 75 b7 33 81 be d5 34 7e bf 70 35 98 29 84 37
       8.5429086e-08 3.9812952e-07 8.9685625e-07 1.5754995e-05
0000a0 d7 d2 00 36 6c de 8b 35 4a 39 1e 34 39 cf 26 32
       1.9196211e-06 1.042104e-06 1.4735738e-07 9.709589e-09
0000b0 85 84 03 34 b5 d4 6a 35 7e 69 02 37 06 fd bd 36
       1.2248536e-07 8.748132e-07 7.773166e-06 5.6620947e-06
0000c0 f2 b5 db 36 38 5b bc 33 2f 09 4b 33 c9 c6 d2 34
       6.54789e-06 8.771025e-08 4.7272973e-08 3.9260183e-07
0000d0 c7 5a 00 36 31 2a f5 34 12 1e d3 33 1c 5f 87 37
       1.9126326e-06 4.5665504e-07 9.830923e-08 1.6137543e-05
0000e0 44 88 75 35 8f 41 0c 33 30 ab c4 33 89 79 58 33
       9.1467905e-07 3.2655915e-08 9.1581e-08 5.0401955e-08
0000f0 23 6a 08 36 1b 11 c7 31 4c 58 6e 34 55 74 bc 37
       2.032736e-06 5.793607e-09 2.21976e-07 2.2465518e-05
000100 94 48 b5 35 9e a0 b5 36 49 33 1b 37 06 04 d3 37
       1.3506674e-06 5.4129187e-06 9.250661e-06 2.5155034e-05
000110 94 d5 9f 36 21 0b e7 36 f8 f3 87 33 5d ba f8 31
       4.763433e-06 6.885632e-06 6.330805e-08 7.238937e-09
000120 96 e0 23 33 f3 cc e4 33 51 92 13 33 e0 84 2d 33
       3.8155655e-08 1.06543574e-07 3.435918e-08 4.040055e-08
000130 4f 76 23 37 c1 81 0c 35 70 c8 8c 33 cd af bd 34
       9.743103e-06 5.234288e-07 6.5557174e-08 3.5331905e-07
000140 e0 ee 87 35 7d ec a7 35 6f ab 19 35 0a fc ca 37
       1.0127806e-06 1.2511297e-06 5.724641e-07 2.4197641e-05
000150 60 6a 01 37 25 24 d6 33 4f 2d d1 33 7f f3 9b 35
       7.7137665e-06 9.971726e-08 9.7405625e-08 1.1619267e-06
000160 99 36 a0 36 87 af f3 35 62 17 a3 36 cb 9b 16 35
       4.7747276e-06 1.8155996e-06 4.8605007e-06 5.6106063e-07
000170 ac 7e 8d 33 60 7a 1d 35 c9 72 5d 36 20 b3 c5 36
       6.5888656e-08 5.8665137e-07 3.299838e-06 5.8919104e-06
000180 bd 1f 19 35 4b 6f 8c 37 ed 2f fb 34 5e f6 ad 34
       5.7043127e-07 1.6741125e-05 4.6787264e-07 3.2403017e-07
000190 2b 5f 24 36 90 0c 33 37 cf 07 74 36 67 e0 2b 37
       2.44933e-06 1.0672156e-05 3.6363379e-06 1.0244642e-05
0001a0 76 13 db 36 2a 12 90 33 d9 60 27 32 bd a3 04 34
       6.528974e-06 6.7088266e-08 9.7427e-09 1.2353026e-07
0001b0 c6 0a 61 35 85 64 5d 36 76 75 7e 36 2d 6d e2 34
       8.383471e-07 3.2990076e-06 3.791732e-06 4.2175216e-07
0001c0 72 73 55 35 6c c1 5c 33 86 14 63 34 97 b0 c7 34
       7.951668e-07 5.1398658e-08 2.1148489e-07 3.7195124e-07
0001d0 e1 2a 01 36 d7 7e 0c 34 21 b7 23 37 e4 43 05 35
       1.9247457e-06 1.308466e-07 9.758195e-06 4.9645155e-07
0001e0 3b 00 87 33 d7 bb bb 34 77 23 90 35 61 7e af 35
       6.286469e-08 3.4968136e-07 1.0739158e-06 1.3075297e-06
0001f0 c0 c2 7d 35 e6 02 98 37 fa ef 71 36 30 af cb 33
       9.4533243e-07 1.8121162e-05 3.6051483e-06 9.4847906e-08
000200 f2 3a 53 34 10 0f f5 31 6b d9 ea 35 3b 1b 1e 35
       1.967235e-07 7.132151e-09 1.7497636e-06 5.889921e-07
000210 40 60 10 34 1d 3d 7e 36 76 cd 8d 35 59 2d e9 36
       1.344606e-07 3.7884522e-06 1.0565116e-06 6.9492203e-06
000220 16 ab d9 37 4f ea c9 38 ff 53 2a 37 0c 9d ae 35
       2.5948084e-05 9.62807e-05 1.01523465e-05 1.3009717e-06
000230 70 d9 2e 35 49 b8 16 32 a8 f6 b5 32 fd ae 61 34
       6.5136464e-07 8.773051e-09 2.118334e-08 2.1018418e-07
000240 5d 27 08 35 c8 b7 fd 33 2e aa ce 34 b6 03 db 34
       5.072123e-07 1.181466e-07 3.8494312e-07 4.079463e-07
000250 1c c3 a2 34 0f 68 22 36 71 4b 3c 37 dc e5 61 36
       3.0316812e-07 2.4200451e-06 1.1223238e-05 3.3661408e-06
000260 57 9a 1b 37 f8 10 4e 38 08 41 b1 34 43 3b ed 33
       9.274655e-06 4.913003e-05 3.3016136e-07 1.1046952e-07
000270 92 f6 b1 35 8b 20 0f 37 cd 5f b6 37 ff 2a f7 33
       1.3259289e-06 8.531041e-06 2.1740701e-05 1.1509655e-07
000280 64 a5 76 36 4e 0f af 33 53 fc 74 34 e4 37 09 36
       3.6753127e-06 8.1518564e-08 2.2816066e-07 2.0447123e-06
000290 ee 2c 30 37 a4 1c 8f 38 6c 2d 0c 35 f8 27 c5 37
       1.05008785e-05 6.824106e-05 5.222016e-07 2.3502842e-05
0002a0 ea fe 61 36 61 45 c9 32 a0 31 92 34 8a 03 71 36
       3.3675992e-06 2.343103e-08 2.7230726e-07 3.5913858e-06
0002b0 cc 00 08 37 e0 56 b6 34 a3 bd 08 36 80 1f cc 35
       8.106417e-06 3.3963352e-07 2.0375962e-06 1.5208352e-06
0002c0 b9 c5 23 34 06 88 4d 35 aa ad 04 36 68 70 e6 37
       1.5252489e-07 7.656639e-07 1.9770619e-06 2.747048e-05
0002d0 e2 93 c3 35 c0 23 38 36 39 67 80 36 30 d1 a6 32
       1.4571672e-06 2.7438946e-06 3.826714e-06 1.942007e-08
0002e0 85 55 c0 34 dc 07 a3 36 90 7b c7 36 45 95 d7 36
       3.582501e-07 4.8586935e-06 5.9450467e-06 6.4248766e-06
0002f0 85 7b 8d 36 aa 35 cb 34 45 8f 9a 32 35 6c 83 34
       4.216507e-06 3.7850742e-07 1.7993111e-08 2.4479382e-07
000300 61 05 f9 35 c3 fc 9d 36 ca 8e b8 35 31 9a 58 37
       1.8553511e-06 4.70839e-06 1.3750625e-06 1.2910504e-05
000310 ae 1e 95 32 80 14 02 33 65 98 86 34 d0 66 a0 35
       1.7359834e-08 3.028663e-08 2.5070327e-07 1.1950851e-06
000320 b4 07 ba 37 f4 a2 05 35 5f e1 47 35 e3 94 15 37
       2.2176515e-05 4.978349e-07 7.4461235e-07 8.9157575e-06
000330 7c f0 9d 33 d8 cb 9b 33 3a bc 34 36 40 35 22 36
       7.354626e-08 7.254829e-08 2.6931652e-06 2.4170877e-06
000340 78 75 56 36 cc 05 7e 34 d8 c4 ff 37 16 d8 c7 35
       3.195686e-06 2.3657702e-07 3.0490031e-05 1.4889545e-06
000350 33 05 af 36 d7 ca cc 36 29 7d 1a 37 4c 74 0f 37
       5.2160117e-06 6.1032874e-06 9.208256e-06 8.550542e-06
000360 19 f1 ae 36 98 88 09 37 8a 8b 2f 35 1e dd 48 36
       5.2136716e-06 8.1976395e-06 6.5395636e-07 2.993103e-06
000370 b1 5b dd 36 dc aa 26 36 c7 97 cb 36 f7 46 01 39
       6.5969875e-06 2.483538e-06 6.0675407e-06 0.00012328835
000380 48 fd 9e 35 ab 7f 04 35 1b 24 6a 36 c3 87 6d 37
       1.1845632e-06 4.9359613e-07 3.4889733e-06 1.415791e-05
000390 05 6c b2 36 7d 9e 90 36 79 8d 07 39 cb 20 9d 35
       5.3173885e-06 4.309985e-06 0.00012927306 1.1706956e-06
0003a0 77 d4 88 31 71 81 91 33 75 9a 9b 35 7d 95 09 36
       3.9822754e-09 6.775634e-08 1.1593353e-06 2.0501604e-06
0003b0 e7 ee 0a 35 f0 5d e0 35 71 cc 04 37 69 e1 58 35
       5.1756655e-07 1.671664e-06 7.915413e-06 8.0794285e-07
0003c0 78 10 88 36 4b 3b 2e 37 65 6f e3 38 c9 d2 04 36
       4.055033e-06 1.0385013e-05 0.00010844952 1.9792226e-06
0003d0 fc 51 b5 37 b2 48 a3 36 be e6 4c 34 80 ab 1a 35
       2.1615058e-05 4.8662414e-06 1.9082924e-07 5.7619036e-07
0003e0 12 45 e3 34 46 9b b7 37 81 73 60 36 58 bd ad 35
       4.23323e-07 2.1887605e-05 3.3445833e-06 1.2944611e-06
0003f0 e2 ba aa 37 5f 85 01 35 ba b3 77 35 41 b9 de 34
       2.0352603e-05 4.8250325e-07 9.2276207e-07 4.1485512e-07

exp_avg f4 [64]
000000 8b 40 dc 39 00 75 98 39 92 11 a5 b9 bd 3a 39 b8
       0.00042009758 0.0002907887 -0.00031484343 -4.416214e-05
000010 9c ec 23 b9 7a 72 a2 b9 62 9d 12 b9 f0 5f be 37
       -0.00015633035 -0.0003098434 -0.00013982275 2.269444e-05
000020 08 ba 41 b8 ee f2 13 ba db c4 63 b8 8d 3b 3d 38
       -4.618804e-05 -0.00056438043 -5.4304353e-05 4.5116572e-05
000030 b9 a5 b9 b9 5c e7 20 b9 d3 5d f1 39 01 25 28 b9
       -0.00035409423 -0.00015344977 0.00046037007 -0.00016035514
000040 e7 53 ae 37 df 1d 02 39 d2 d5 79 b9 d8 08 64 3a
       2.0781486e-05 0.00012408894 -0.00023826145 0.00086988276
000050 d4 bf 0d b9 f4 66 5e 3a 9b 9d 3e 39 8c 39 83 39
       -0.0001351827 0.0008483969 0.00018178525 0.00025029143
000060 b7 e7 86 b9 30 6e c9 b9 5e 39 eb b8 21 f9 8b b7
       -0.00025731113 -0.00038419804 -0.00011216359 -1.6686101e-05
000070 ad 89 b6 37 10 dd 91 b9 f7 8a 82 3a d6 25 d4 b9
       2.1760201e-05 -0.0002782126 0.0009959628 -0.0004046398
000080 98 ae a7 39 93 19 5e b8 00 fd 40 ba 93 be 9b b9
       0.00031982805 -5.2952742e-05 -0.00073619187 -0.00029705893
000090 dc 76 4d 3a 8f 63 88 b9 46 97 b6 39 1d ec 07 39
       0.0007837841 -0.00026014118 0.00034826453 0.00012962562
0000a0 7a 45 d9 39 7a 03 b9 39 66 ad 8a b9 bc a6 77 39
       0.0004144123 0.0003528854 -0.00026450603 0.00023617869
0000b0 aa fc 89 ba 26 92 15 b9 4b 66 67 39 6e a3 45 b9
       -0.001052757 -0.00014264192 0.00022067984 -0.00018848266
0000c0 33 21 de b9 fa 9c 69 ba ca f0 ea 39 c4 90 2b b9
       -0.00042367875 -0.0008911636 0.0004481136 -0.0001636176
0000d0 fd 11 2b ba 43 77 05 b9 4e 48 35 38 8f 85 0b 3a
       -0.0006525813 -0.00012728297 4.32211e-05 0.0005322331
0000e0 ec 54 5c 39 b5 8d 6c 39 53 f5 60 3a 25 e4 76 39
       0.00021012471 0.00022559504 0.0008581478 0.00023545379
0000f0 a2 22 b7 b9 9d e3 bb b8 7f 62 f3 b9 be eb 6d b6
       -0.00034930283 -8.959251e-05 -0.00046421957 -3.5452972e-06

exp_avg_sq f4 [64]
000000 88 51 ff 38 11 eb 6b 39 b6 f4 2b 3a 60 72 c3 36
       0.00012174534 0.00022498915 0.0006559597 5.824768e-06
000010 44 7f b1 36 81 f3 2a 38 43 dc 21 37 39 e9 0f 38
       5.2898267e-06 4.075794e-05 9.6476315e-06 3.4311062e-05
000020 d6 98 39 37 0e 06 18 3a 20 ba 7c 36 c2 65 11 38
       1.1062444e-05 0.0005799242 3.7659265e-06 3.4665463e-05
000030 70 10 8c 37 df 76 51 38 e5 2f 66 39 88 84 24 37
       1.6696955e-05 4.994019e-05 0.00021952351 9.806019e-06
000040 3d ab bc 37 73 70 0e 38 c2 2e df 37 5d 3e 29 3a
       2.2491085e-05 3.3960165e-05 2.6605445e-05 0.0006456131
000050 21 ce 1b 36 6b 33 60 39 c3 df df 38 15 4b 38 39
       2.3216783e-06 0.0002138146 0.000106751475 0.00017575578
000060 2c f8 9b 37 c0 bf a0 38 b9 d2 c0 37 f9 cb 9e 37
       1.8593004e-05 7.665111e-05 2.2986309e-05 1.893005e-05
000070 9e 4c b8 37 8b 74 16 37 47 24 19 3a 07 73 a1 39
       2.1970187e-05 8.9678315e-06 0.00058418926 0.00030794015
000080 5f c4 a6 39 cf 07 84 36 6a ed d4 39 b8 40 8e 38
       0.00031808295 3.9348156e-06 0.00040612678 6.7831425e-05
000090 de 5a 06 39 c4 b8 0f 37 1d df 74 39 97 4f 6a 38
       0.00012813087 8.566483e-06 0.0002335277 5.586407e-05
0000a0 f4 9e 70 39 37 1d 16 38 39 5f 95 37 14 38 ac 36
       0.00022947398 3.5789995e-05 1.7806526e-05 5.132528e-06
0000b0 f1 82 8f 3a 71 89 25 39 67 57 63 39 fd 5d aa 37
       0.0010949058 0.00015786827 0.00021680967 2.0309346e-05
0000c0 26 1a 61 38 2e 55 1d 3a 5b 0d 2f 3a 1f ed 63 38
       5.3668533e-05 0.00060017675 0.00066777103 5.4341854e-05
0000d0 f1 95 b3 39 c3 4e 43 36 72 91 47 36 b5 26 0a 3a
       0.00034253256 2.910311e-06 2.973797e-06 0.000527005
0000e0 5b 60 50 39 14 26 2c 37 0f d7 87 39 30 35 17 39
       0.00019872321 1.0260865e-05 0.00025909438 0.00014420296
0000f0 ae 27 d4 37 a4 bc 2d 37 47 26 f8 37 c5 d2 88 38
       2.5290847e-05 1.0355525e-05 2.9581728e-05 6.524244e-05
