artifacts/experiment_20250726_193600/training_artifacts/run_20250726_193605/models/final_model_complete.pth (torch, 925849 bytes, 24 tensors)

input_layer.0.weight f4 [64, 7]
00000000: 712a 5abc dae5 803d 9d8a b7bd 7ba9 0ebc
00000010: 790f f53d d57e 4d3e 5ad9 bb3e 774a f1bd
00000020: e57c a63e f721 1fbc 2768 c33e a0e3 943e
00000030: dc10 36bc dcae 103e 6d69 f7bd b3dc 04be
00000040: cd6c a83e e996 2ebd 0ae4 6ebe da88 a0bd
00000050: 88b0 843e 3d5d 2abe fdd3 173c e314 f93c
00000060: e458 a4be 7e6c b23d 34d6 953e ca09 01be
00000070: 8ebd 313e 0068 563e 7829 7ebe 0f55 fcbd
00000080: f8a2 97be 8fcf a13e 1899 86be 8fca 89bd
00000090: 24c3 bd3d 9716 c43d 0720 843d 4e29 4a3e
000000a0: e301 81be e3b9 9d3d 5dbf c2bd 04e4 b3be
000000b0: f68f f1be 56db e73b 4e1b debc 867f 88be
000000c0: a7e8 8e3e 6113 8cbe e75e 2ebe d775 e03d
000000d0: 6300 f7bd 70c1 37be b9fe 7b3e e9cd 97bd
000000e0: d6a4 133d 835b a4bd 160f 7cbd 94ac 0d3e
000000f0: f716 a53e 7370 183e 9838 35be 6a4c 583d
00000100: 8519 5bbe fea4 5ebd 9873 3f3d 898b 80be
00000110: e251 a73e 74c1 853c 6056 0e3c aa19 343e
00000120: fec8 35be 63df debe 040c ce3d d34f 4a3d
00000130: 77dc 233e 8d5e eb3d e561 c43e ac44 a7bd
00000140: 2a8c dbbd ca4d 4b3e 8aa9 e2be 1d04 aa3c
00000150: 4a3f 19be 6157 46be 1bdb a53c ea9b 193f
00000160: 5a42 0f3c 8520 cb3e ebed d8bb ee06 373d
00000170: 4597 37bd 69a9 a8be d3c7 6dbd 35a7 afbe
00000180: 8939 5ebc 06f3 063d 8921 7abe 6201 09be
00000190: 90c7 983e 7f4b febd a0c1 1b3d 0e12 9abd
000001a0: d62c 43be 0b5c a53e 41f4 59be 4505 16bc
000001b0: 1dfb 523c 8b77 95be f232 8d3e 5611 173d
000001c0: f9d6 d03e 8d36 cd3d 330c 313e a170 343e
000001d0: b5e5 abbe 76d0 e1be 8390 20be b71f 3a3e
000001e0: 0dd2 263e afd8 69be 6695 433e e2e8 973d
000001f0: efbf a1be 2db4 8fbc 4f1b a43d f378 25be
00000200: f15d c8bd cfb8 83be 3dfa f6bd 667f 5b3e
00000210: 2d67 a53d 3572 e6bd b151 edbd d6fa c93d
00000220: 4f00 093e 2010 983e 5b66 06bb 6a50 d23d
00000230: 6779 c63d 3af1 f3bc 1cc2 903d d624 45be
00000240: c427 a1be 2113 a6bc fd92 2dbd b90b 0abd
00000250: a393 c6be 8577 c9bd 23ce 313e 6ba7 a9be
00000260: 431b fcbe 85aa 2f3e aab1 a73e 7b25 9bbd
00000270: bf5c 3b3d ba33 3b3e 8304 4cbe 71d9 cbbd
00000280: 6af4 093e f60d 1bbe edf3 7bbd 8716 1fbe
00000290: ca99 f7bd b0e2 fb3e 77c1 4bbe b1ed 3f3e
000002a0: edb3 c6bc 185c d9be 4732 28be 9396 383e
000002b0: 06a9 7fbe 6ce2 ddbc 2fb6 82be e6ee bcbd
000002c0: 2697 2cbe 5560 2dbe cbac aabd 0ef9 4abe
000002d0: 3e3f a43d 8a40 77be 7e33 233e 7b08 4c3e
000002e0: d83a 30be ba59 65bc c44b f73d 4193 6bbe
000002f0: 65d8 09be c205 1dbe ac2f bfbd 8be0 1cbe
00000300: 0688 36bd f2d2 fdbe 827b cebc 7d90 c03e
00000310: cb24 0abf 355c 50be 3170 683e c1d0 43be
00000320: b723 373c 385a d4bd e8a3 883c e518 863d
00000330: 5df5 f43c 44aa 16be c528 30bd 024d 453e
00000340: 2cb2 a23e 0972 ba3e 4abc 47be 2b1f 05bd
00000350: 7581 e2be eb6a cbbe a1c8 c83d e7f3 17be
00000360: 3e41 cabc 106d ad3d c281 e2bd 24ca 883b
00000370: b4ff cb3d 37c9 a13e 6313 833e cb69 ad3e
00000380: 9bb8 e73d b0fc f03d 1872 ae3d 7be2 103e
00000390: 7512 593e b056 45bd b419 0ebe a78c 883d
000003a0: 4cea 7a3d 71b4 a0bd c0f3 a33d c40b 9d3e
000003b0: 19d4 aabe f931 9b3e c8a9 2d3e 2421 71be
000003c0: d8e8 e63c 6c7e 72be 3c19 9abe 42d3 013f
000003d0: a1d2 743d 826d 84be bfaa 60bd ca9b f83d
000003e0: 89fc 0ebe e4ee f73e 3ab1 2fbd 9da9 163e
000003f0: 866a cdbd f1d7 0bbe 0235 5c3e 21c7 5dbd
-0.013315783 0.06293841 -0.08961985 -0.0087073995 0.11965842 0.20067914 0.36689264 -0.11781781
0.32517162 -0.009712688 0.381654 0.29079914 -0.011112418 0.14129204 -0.12080655 -0.12974815
0.32895508 -0.042624388 -0.23329177 -0.07838602 0.25915933 -0.1663713 0.009266851 0.030405467
-0.32099068 0.087120995 0.29264987 -0.1260139 0.17357466 0.2093811 -0.24820507 -0.12320911
-0.29616523 0.31603667 -0.26288676 -0.06728088 0.09265736 0.09574621 0.06451421 0.19742319
-0.25196752 0.07701471 -0.09509156 -0.351349 -0.47180146 0.0070757074 -0.02711263 -0.26659793
0.27911875 -0.27358535 -0.1702839 0.10959976 -0.12060621 -0.17944884 0.24608888 -0.07412321
0.03604587 -0.08025267 -0.061537825 0.13835365 0.32244083 0.14886646 -0.1769737 0.05280725
-0.21396454 -0.054356568 0.0467411 -0.25106457 0.3267966 0.016327597 0.008687586 0.17587915
-0.17752454 -0.43529806 0.100608855 0.049392533 0.1600207 0.114926435 0.38355938 -0.08167395
-0.107200935 0.19853893 -0.44269973 0.020753914 -0.14965549 -0.1936927 0.02024608 0.6000353
0.008743847 0.39673248 -0.006620159 0.044684343 -0.044821996 -0.3294175 -0.058051895 -0.34307256
-0.013563522 0.03294661 -0.24426855 -0.13379434 0.29839754 -0.124167435 0.038026452 -0.07522975
-0.19060072 0.32296786 -0.21284582 -0.00915653 0.012877253 -0.29192767 0.2757793 0.036881767
0.4078901 0.1002017 0.1728981 0.1762109 -0.3357369 -0.44104356 -0.15680127 0.18176161
0.16291066 -0.22836564 0.1909996 0.07417466 -0.31591746 -0.01754197 0.08013021 -0.1615942
-0.09783543 -0.25726935 -0.12059448 0.21435317 0.0807632 -0.11252252 -0.11587847 0.09862296
0.13379024 0.29699802 -0.0020507786 0.10269244 0.096911244 -0.029778112 0.070682734 -0.19252333
-0.3147565 -0.020272793 -0.042376507 -0.033702586 -0.38784513 -0.0983725 0.17363791 -0.33135542
-0.4923955 0.17154892 0.32752734 -0.07575508 0.045742746 0.18281451 -0.19923596 -0.09953583
0.13472143 -0.15142044 -0.061511923 -0.15535937 -0.1208988 0.49196386 -0.1989802 0.18743016
-0.024255717 -0.42453074 -0.1642543 0.1802619 -0.24966821 -0.027085505 -0.2552962 -0.09225254
-0.16854534 -0.16931279 -0.08333739 -0.1982157 0.08019875 -0.24145713 0.15937611 0.1992511
-0.17209947 -0.013998443 0.12074998 -0.23005392 -0.13461454 -0.15334228 -0.093352646 -0.15320031
-0.044563316 -0.49575 -0.025205377 0.37610236 -0.5396239 -0.20347674 0.22699048 -0.19122602
0.011177949 -0.1036877 0.01667972 0.06547717 0.029902155 -0.14713389 -0.04300763 0.19267657
0.3177656 0.36415127 -0.1950542 -0.032500427 -0.44239393 -0.3973001 0.09803892 -0.14839135
-0.024689313 0.08468068 -0.110599056 0.0041744877 0.09960881 0.31598827 0.25600728 0.33869776
0.113145076 0.11766946 0.085178554 0.14148895 0.21198447 -0.048178375 -0.13876992 0.06667452
0.0612586 -0.078469165 0.08005476 0.3067304 -0.33364943 0.30311564 0.16959298 -0.23547798
0.0281872 -0.23681039 -0.30097377 0.5071298 0.059771184 -0.25864798 -0.054850336 0.121390894
-0.13963522 0.48424447 -0.042893626 0.1471314 -0.10030083 -0.13656594 0.21504596 -0.054144982

input_layer.0.bias f4 [64]
00000000: a5dc 61bd c566 2dbc a4b8 d53b 4571 3e3d
00000010: 5d72 d0bc c6dd f6bc 4d08 b63c f143 cdbc
00000020: 3523 f43c 7802 3dbc 1d16 aa3c a8cd e5bb
00000030: c62c a4bd 199c e73a 96fb b53c f419 98bc
00000040: 47c4 9d3d 8253 d8bc 1035 263c 76b9 6d3c
00000050: 1231 1c3c d877 2a3d e627 0f3d 8a88 abbc
00000060: 5c0a ae3c f93e 423d 55d3 2c3d 3c70 80bb
00000070: be9a 143d 30d9 223d 44b0 b03d f75f b53d
00000080: 9fa3 513c 85f1 b33d 69c4 a23c 4312 17bd
00000090: bbd7 1bbd 2d21 863c 5e8f 9f3b d559 b03a
000000a0: f762 0a3c f128 5f3c 9aaa 7d3c 51f5 4b3d
000000b0: 71fb 1a3d 4043 0e3c 3e7f 6fba aa43 a13d
000000c0: 3436 0a3d 9800 f0bc 32ba d8bc 6428 24b9
000000d0: 3c54 d03d a6a2 bcbc c65f cabb 2c53 9fbc
000000e0: 819c 143d b94f b53c 6d99 703b 5f66 273c
000000f0: 83c7 5fbc f360 8cbc db60 2fbc 41e4 b33c
-0.055142064 -0.010583584 0.006522255 0.04649474 -0.025445158 -0.030135047 0.022220755 -0.025056811
0.029801944 -0.011536233 0.020762498 -0.0070130415 -0.08016352 0.0017670422 0.022214692 -0.018567063
0.077034526 -0.026407007 0.010144487 0.014509549 0.009533184 0.0416182 0.03495016 -0.02093913
0.021245174 0.047423337 0.04219373 -0.0039196294 0.036280386 0.039757907 0.0862737 0.088561945
0.012795358 0.087863006 0.019869046 -0.03688265 -0.038047533 0.016373241 0.0048693856 0.0013454506
0.008446447 0.013620601 0.015482569 0.0497945 0.03783745 0.008683026 -0.0009136087 0.07874234
0.0337431 -0.029297158 -0.026455972 -0.00015655305 0.101723164 -0.023026776 -0.006175968 -0.01944884
0.036282066 0.022132741 0.0036712543 0.010217278 -0.013658407 -0.017136073 -0.0107042445 0.021959426

layer2.0.weight f4 [57, 64]
00000000: a6ec 7dbc 5203 003e 8864 923d 05a0 a7bd
00000010: c118 41be a723 c53d 28fc bd3d 83fa b53d
00000020: ede5 d43e e8f6 5c3e 4190 013e 22fc d43d
00000030: 5535 73be 5937 bb3d c91c 72be 1408 27be
00000040: 2e96 b0bd 166a a03d cce5 d5bc 7a6f 1bbd
00000050: 5bff 94bc d32a 12bd 82ab 8cbd 139f 40bd
00000060: 4cae 453d 4b29 3ebd 3813 af3e ab56 b33d
00000070: 7be4 333e 3ae0 11be 5399 97bd 98ec 603e
00000080: 96e4 09be 0bde a83c e3f9 3bbd a5ca 933e
00000090: 5bb7 10bf ee4b 6e3d c1a1 20be a693 73be
000000a0: 2aef 2e3e 658f 8f3d 5752 65be b4bf 02be
000000b0: 989d 00be b0e3 47bf cf2c c4bb 0d2b afbd
000000c0: 7f87 153e a9e8 16bd a7b0 d33c d4d2 1cbd
000000d0: e104 08bf fa61 c73d 1c39 89bc e633 993d
000000e0: c3cb 7e3d 2f82 8c3d af93 9ebd b65b e83c
000000f0: 7668 00be 2334 463d e17c b8bb 25f5 12bd
00000100: 86f2 19be 4662 b1bd 14de a03c 5bff 263e
00000110: a876 b13d c01d a43d e20c bfbd 4ea2 f739
00000120: 59fa e2be 1a20 993c 9657 e739 5a90 433c
00000130: 52fe 263e a440 bd3d dda4 563e 8e49 4c3e
00000140: c82a 2f3d 7c91 2f3e 7ac8 0abe 971b 963c
00000150: 457c 963e e6a7 033c 3aa3 073e a160 0a3d
00000160: 1dab 6cbd a5a4 203e baf6 9bbe 99a5 1b3e
00000170: b441 99be 1ed8 d53d 60c6 7a3d d44e 933d
00000180: 798e bdbd d09e 8b3e b694 413e cfd8 d8bd
00000190: d05b babe 4ae8 7ebd 8d6c 8dbe 4c9d 273e
000001a0: c527 e13d e09a 393e 033d 143b 4d22 2dbd
000001b0: 895c fabd c0bc 603d 9d15 193c 51e5 f73d
000001c0: 668b 493e 1606 de3d 2471 a8be 858e 0bbe
000001d0: c2db 9abe 4079 0a3e 7aa7 82bd 2021 18be
000001e0: 1fc9 e23d 4907 7cbc 5f63 483d a222 bf3b
000001f0: 6558 12be c9c9 073e 6068 5dbd 44af 66bd
00000200: b248 3fbe 6cb4 a9be a00e 45be 6415 e4bd
00000210: 80c7 49be e1ad 62be a11e a03e 4ea0 c2bd
00000220: cca4 7b3d 099d e1bb 5e69 13be bdeb 9e3d
00000230: 9d6e 03be e489 07be 2f04 3ebe 2827 d33d
00000240: 07a5 b93c 491f 00bd 4da4 8e3d f398 6c3d
00000250: 05b7 0c3d 7dbd 943e d3cd dc3d 4663 d03a
00000260: ed4b 4b3d b5b8 273c 54fc bc3e 60a8 76bc
00000270: 017d 9abd 6bb4 a7be b6ca 543e 7450 a73d
00000280: b602 1ebd 80c8 7dbe 23a9 52be 9b86 213e
00000290: a24a f9bd e6f5 26be 63f9 d93c c834 db3d
000002a0: 841c 92bc 5ba6 fc3d bf9f 963e a13c 13bd
000002b0: 7b96 83bd eb50 653d 60b3 5b3e fc48 1fbe
000002c0: 91a0 a43d 519a b33d e6c8 e53d 1b23 b8be
000002d0: 393e 703e 0fcb 43bd fd2c e93c c89a 3abd
000002e0: 09c2 c0bc cf9d 57be 9696 033e 0bd3 213d
000002f0: 5265 1e3e 69b4 8b3e f591 9a3c 717e 06be
00000300: 27ca 1fbd 3c9c 16bc 35ea 81be 192f 4d3e
00000310: 3615 823d 9b6a 03be dc09 5a3c 3fb2 153e
00000320: 4d67 86be 921a c73c 753e 9bbd 1d43 243e
00000330: 6ab5 5f3e 77ca 09be c896 0e3e 7c1d 3e3e
00000340: 223d d63e 91d8 fcbb 6d82 3ebd b9c0 75be
00000350: 66bd b23c ed49 633e aa9c c1be 2578 643e
00000360: 0b2a a83e d3d9 d9bb 9af3 da3e 73c1 723d
00000370: a0fa e7bd 3b32 af3e c75e a8bd 25f4 cf3e
00000380: c087 c7bd b384 ef3e cf99 c73d 63b7 ff3c
00000390: 3a84 813e fb29 5c3d a2a0 c2bb 9843 643d
000003a0: a08f e93d 32c5 3cbd 18a6 5d3e 0edf 02be
000003b0: 02b3 cbbd 250d 69be 4436 ed3e c28c 063d
000003c0: 31fd 52be e2be a03d 9f22 4f3a b966 09bd
000003d0: df1b 483e 715a 99bd 3cb4 a2bc 7cd9 9bbd
000003e0: 3081 4a3e 0452 ba3d 9bce 12bd d6c4 17be
000003f0: 0c1e 223e f569 84ba e0b2 1fbd d3df 063e
-0.015498316 0.12501267 0.07148081 -0.08184818 -0.18857099 0.09625941 0.092766106 0.08885672
0.4158167 0.21578562 0.12652685 0.10399653 -0.23750813 0.09141416 -0.23643793 -0.16311675
-0.086223945 0.07832734 -0.026110552 -0.03794811 -0.01818817 -0.03568537 -0.0686865 -0.047026705
0.048261926 -0.0464261 0.3419435 0.08756765 0.17567627 -0.14245692 -0.07402291 0.21965253
-0.13466105 0.02061369 -0.045892607 0.28865543 -0.5652978 0.05817788 -0.15686704 -0.23786792
0.17083421 0.07009772 -0.22394691 -0.12768441 -0.12560117 -0.780818 -0.005986787 -0.08553133
0.14602469 -0.036842976 0.02584107 -0.038287 -0.53132445 0.097354844 -0.016750865 0.07480602
0.06220604 0.06860768 -0.07743012 0.028364044 -0.12539849 0.048389565 -0.005630121 -0.03587832
-0.15033922 -0.08661322 0.019637145 0.16308348 0.0866521 0.08013487 -0.09328629 0.00047232438
-0.44331625 0.018692065 0.0004412501 0.011936272 0.16307953 0.09240845 0.20961328 0.19949934
0.04276541 0.17145342 -0.13553038 0.018323703 0.29391685 0.008035636 0.1324586 0.03378356
-0.057780374 0.15687807 -0.30461675 0.15199889 -0.2993294 0.10441612 0.06122434 0.0719277
-0.0925569 0.27269602 0.18904385 -0.10588228 -0.36398172 -0.062233247 -0.2762188 0.16368598
0.109939136 0.18125486 0.0022619374 -0.04226904 -0.12224681 0.054867506 0.009343532 0.121042855
0.19682083 0.108410046 -0.3289882 -0.13628586 -0.30245787 0.13522816 -0.063796 -0.14856386
0.11073517 -0.015382596 0.048922893 0.005832986 -0.14291532 0.13260569 -0.054054618 -0.05631949
-0.18680075 -0.33145463 -0.1924386 -0.111368924 -0.1970501 -0.22136642 0.31273368 -0.09503232
0.06143646 -0.006885175 -0.14395663 0.07759807 -0.12835164 -0.13236195 -0.18556283 0.10310203
0.022661699 -0.031279836 0.06964932 0.05776305 0.03435423 0.29050818 0.10781445 0.0015898726
0.049632955 0.010236909 0.3691126 -0.015054792 -0.07543374 -0.32754835 0.20780453 0.08169642
-0.038576804 -0.24783516 -0.20572333 0.15774004 -0.12172438 -0.1630474 0.026608175 0.107034266
-0.017835863 0.12336417 0.29418752 -0.035946492 -0.06425186 0.055985373 0.21455145 -0.15555185
0.08038438 0.08769668 0.11219959 -0.35964283 0.23461236 -0.047801074 0.028463835 -0.045557767
-0.023530023 -0.21056293 0.12850413 0.039507907 0.15468338 0.2728608 0.018868426 -0.13134171
-0.039011147 -0.009192523 -0.25373998 0.20037498 0.06351702 -0.12833636 0.013308015 0.14618777
-0.26250687 0.024304662 -0.07580272 0.16041227 0.21846548 -0.1345614 0.13924706 0.18565935
0.41843516 -0.0077162464 -0.046511102 -0.23999299 0.021818828 0.22196169 -0.37814838 0.22311457
0.32844576 -0.006648281 0.42763978 0.05926652 -0.113271 0.3421801 -0.08221202 0.40615955
-0.09742689 0.4678093 0.097461335 0.031215375 0.25296193 0.053750973 -0.005939559 0.055728525
0.114043474 -0.046086498 0.21645391 -0.12780401 -0.099462524 -0.2275892 0.46330464 0.03284908
-0.20604397 0.07848908 0.0007901582 -0.03354523 0.19541882 -0.074879535 -0.019861333 -0.07609841
0.19775844 0.090976745 -0.035841566 -0.1482118 0.15831774 -0.0010102378 -0.038988948 0.1317132

layer2.0.bias f4 [57]
00000000: 9300 ea3c a01f 61bc b601 583d 25e1 96bc
00000010: 14dc 103d 5cda 15bc a3ad ce3c 7739 8b3c
00000020: b47f 873b 7a2e 9fbc 4e03 b33c b2d0 fabc
00000030: 5fd9 cdbb c8bd 2bbd f282 8cbb 2fa9 743c
00000040: c216 813c fd04 6e3d 0a1a 1e3d 8baf ecbc
00000050: 9b47 2d3a b39b abba 12bf 82bc 627f 48bc
00000060: 6c4a 16bc def1 cebc 79ec abbc 84f4 813c
00000070: f38d 303c 22e9 843c 0000 0000 8ac7 883a
00000080: e1a8 5dbd ab32 cfba 3093 83bb 8279 b6bb
00000090: e8a9 213c 6076 39ba c870 43bd fc94 0d3d
000000a0: c82f 8dbb 5d44 943d 4a5c a13d 27c2 8e3d
000000b0: cc05 59ba 48b1 98bc 55c6 f6b9 de6e c73b
000000c0: 44a7 98bb d17e 26bc 5e99 483c 2f49 22bc
000000d0: 8443 f3bb ca49 33bd 24fb 933d 2fdb 46bc
000000e0: e4ac 6cbd
0.028564727 -0.01374045 0.052736007 -0.018417904 0.035366133 -0.009146299 0.02522928 0.016995175
0.0041350964 -0.019431341 0.021852162 -0.030617092 -0.006282016 -0.041929036 -0.004288071 0.014932915
0.015757922 0.058110226 0.03859905 -0.0288923 0.00066100963 -0.0013092667 -0.01596025 -0.012237402
-0.009173017 -0.025261816 -0.020986782 0.015863664 0.010776031 0.016224448 0.0 0.0010435444
-0.054116134 -0.0015807947 -0.004015349 -0.005568684 0.009867169 -0.0007074829 -0.04771498 0.03456591
-0.0043086745 0.07239602 0.07878931 0.06970625 -0.0008278757 -0.018639222 -0.00047068545 0.0060862144
-0.0046586115 -0.010162071 0.012243597 -0.009905144 -0.00742382 -0.043771543 0.07225636 -0.012137218
-0.05778207

layer3.0.weight f4 [64, 64]
00000000: cba9 903e 20f0 8ebe 9093 143d e498 1bbc
00000010: 424a 783e 7a9c 60be 224b 8e3d 8248 91be
00000020: df70 dbbd 78fa f8be 2db4 203d 0e28 2fbe
00000030: 9603 023e ecc5 c1be 3810 83bd 7252 143e
00000040: e32b 88bd 8e79 4c3e 13f5 1b3e 7b57 8dbc
00000050: 5e7d b3be 2f07 15be d8ef 203e 6004 48be
00000060: 21ac 8abe 02c8 2c3d 1b2f de3e eee8 403e
00000070: 17c5 803d 0e22 07be 22c4 02be d730 bb3d
00000080: 0cc2 9bbd 7efc 063e ba4b 35be 0919 583e
00000090: 207f 61bd 0a3b b3bd 83e5 11be 061b 2abe
000000a0: b68a 313c dbc0 443e a961 8e3d 28df 22bc
000000b0: 108d 863c 3332 1dbd 0f56 4ebd c5eb 123e
000000c0: 2831 843d c62c 18bd 5f73 9cbd e9ad 6dbe
000000d0: 28f2 32be 829e 013e 692c 1a3e d7c0 65be
000000e0: de28 7f3d 0fa0 5b3e 7857 8a3e 934c 9cbc
000000f0: 7e85 74bd 5c26 5b3e 0925 533b c124 ec3b
00000100: e032 d1be 35f1 c03d 9046 1a3e ff72 59bc
00000110: b96f 14be 61e2 0d3e 7476 853d 7c68 983e
00000120: 8f9d 803e 919f 803e cf00 c3b8 194d 13bd
00000130: 4538 603e 619c c0be a7ff 1abe 2930 e3bd
00000140: 4548 42be 154c f0bd f4a7 133e 00a5 ad3d
00000150: 60b1 3c3d 275c 983d 8629 283e 66c6 a83d
00000160: f2cf d2bd 7cc5 fa3e 45ff ed3d 5a13 55bd
00000170: 5f82 e03d 735e 773d a7f7 9f3d b8b1 00bf
00000180: 5b31 e13d 28a6 1b3e 281b bc3e 8e60 f8bc
00000190: 72b4 8a3c 7481 943e cd11 78be 1207 2b3c
000001a0: b013 4fbe 5332 48be 9832 4e3d 42b3 0a3d
000001b0: 518f e13d 0e24 02bd e0f0 1f3e 54f6 0b3e
000001c0: bc65 44be ec11 d6bd 02dd 203e 6286 06be
000001d0: fc41 453e 8d1a 8ebe fb79 93be c6ef 4f3d
000001e0: d633 823b 30b9 63be e8d2 943d 915a 643d
000001f0: 17b1 f53d 48cc fdbd f66d 023d 62dc 97bd
00000200: baec 873e 7621 c33d a7cd 0d3e dc24 4a3e
00000210: e037 40bc 27ae 343e 7e70 a13e 55fb 9a3d
00000220: 4ca1 32be c441 8a3e 1555 8fbd 2870 f33d
00000230: ba81 d93d c98c ed3e 6aec ec3d 21a6 9a3d
00000240: 1646 e73c 6b2c 703e 4d0c 7abe 7353 73be
00000250: a912 e6bc 674a 293e 2b2a 87bd 4bc5 dd3d
00000260: 4522 edbd e9f0 783c ab29 753e 139d 353e
00000270: c2c5 e03d 644d 223d 6f9c 7d3d 33eb f83d
00000280: fc38 583e 66cd 723c 914d 69be b8be 3f3d
00000290: 3dcc 553d 1bc2 cebe 605c 823e f997 e1bd
000002a0: 705f 573d 8de6 96bd 9b89 bf3c dc53 cabd
000002b0: c9fe 233e 8280 cd3d d876 3f3e 3778 e43d
000002c0: f561 903d 46e9 d13d 2e60 f439 5893 bb3b
000002d0: 6582 77be dd9c f43d 169e 71bc 1916 093e
000002e0: a717 a13d 8f97 54be f846 d0bd 234c 573e
000002f0: 0686 a93e fca0 173e b72b 25be 4c09 7abc
00000300: 2e3d 053e f2d3 84be cd59 553e d429 08be
00000310: 1a19 9cbd 7e32 efbc 373a 403e 5e08 763d
00000320: 8aec e0be ac89 c0bd 1d3d 99bc a873 6ebe
00000330: 53bf 6b3d 7fe3 1ebe b3c8 0fbe 725a 1abe
00000340: bd75 f3bd 7f5e 303e ba42 3dbe 43d8 16be
00000350: e561 fd3c f94a 2a3e 6962 73bd c5d7 d0bd
00000360: 2e81 763d d4fa eebd ba2f 28be 34da 3f3e
00000370: 216f 453e 9ae6 6f3e cfb2 8e3d 5fda 45bc
00000380: 0b37 333d 4ce5 f83d 30b9 84bd 91bc b6bd
00000390: 9665 0bbc 354c cb3e b469 013e 4b5b eebc
000003a0: 93ff 47bd e442 fcbd 7624 b8be 3cd7 ca3d
000003b0: 65e2 f7bd c769 83bd 099a 8f3d 1baa e73d
000003c0: f55a 493d 3b7f 5cbd 61f1 98bd 0537 efbc
000003d0: 3538 13be dc5c 993d 7ee6 f93c c860 40be
000003e0: 099d 243d b0bc c93d d943 afbd c92e a4bd
000003f0: c83e 81be 2d3f 163d 4f35 403d ab39 e33d
0.28254542 -0.27917576 0.03627354 -0.009496901 0.24247077 -0.21934691 0.06947924 -0.28375632
-0.10714888 -0.48628592 0.03923433 -0.17105123 0.1269668 -0.37846315 -0.06399578 0.14484575
-0.06648996 0.19968244 0.15230207 -0.017253628 -0.35056585 -0.14553522 0.15716493 -0.19532919
-0.2708445 0.04218293 0.43395314 0.18838856 0.06287592 -0.13196585 -0.12770131 0.09140175
-0.07605371 0.13182256 -0.17704669 0.211033 -0.055052876 -0.08751495 -0.14247708 -0.16611871
0.010836294 0.19214194 0.06952221 -0.0099409 0.016424686 -0.03837795 -0.05037504 0.14347751
0.06454688 -0.037152074 -0.07639193 -0.23210873 -0.17475188 0.12658122 0.15056004 -0.22436844
0.062294833 0.21447776 0.27019858 -0.019079482 -0.05969762 0.21401352 0.003221812 0.00720653
-0.40859127 0.094210066 0.1506598 -0.013272046 -0.14495744 0.13855888 0.06516734 0.29767215
0.25120208 0.2512174 -9.298475e-05 -0.035962198 0.21896465 -0.37619308 -0.15136586 -0.1109317
-0.18972881 -0.117332615 0.14419538 0.08478737 0.046067595 0.07439452 0.1642209 0.082409665
-0.10293569 0.48978794 0.116209544 -0.05202041 0.10962366 0.06039281 0.07810908 -0.5027118
0.10995742 0.15200102 0.3673947 -0.030319478 0.016931746 0.29005015 -0.2422554 0.010438697
-0.20222354 -0.19550447 0.05034122 0.03386236 0.110136636 -0.031772666 0.1561923 0.13668185
-0.19179434 -0.10452637 0.15709308 -0.131372 0.19263452 -0.27754632 -0.28804 0.050765775
0.0039734645 -0.22238612 0.0726679 0.055750433 0.11996668 -0.12392479 0.03184315 -0.074150816
0.26547796 0.095278665 0.13847981 0.19740623 -0.011732072 0.17644559 0.31531137 0.07567469
-0.17444342 0.270033 -0.0699865 0.118866265 0.106204465 0.46396473 0.1156853 0.07551218
0.028231662 0.23454444 -0.24418755 -0.23762302 -0.02808507 0.16532288 -0.0659984 0.10828646
-0.11578802 0.015194156 0.23941676 0.177357 0.10975219 0.039624587 0.061916765 0.12154236
0.21115488 0.014819479 -0.22783495 0.046812743 0.05219673 -0.40382466 0.25461102 -0.110153146
0.05258125 -0.07368193 0.023381045 -0.09879276 0.16015162 0.100342765 0.18697679 0.11155742
0.07049934 0.102495715 0.00046610966 0.005724352 -0.24170835 0.11943982 -0.014747163 0.13387336
0.078658395 -0.2076094 -0.10169786 0.21025138 0.33110064 0.14807504 -0.16129957 -0.015261006
0.1301162 -0.2594295 0.20835038 -0.13297206 -0.07621975 -0.029198881 0.18772207 0.060066573
-0.43930465 -0.09401259 -0.018705899 -0.23286307 0.057555508 -0.1551647 -0.14041404 -0.15073565
-0.11887691 0.17223547 -0.18482485 -0.14730935 0.030930469 0.16630162 -0.059420023 -0.10197405
0.06018179 -0.116689354 -0.16424456 0.18735582 0.19280674 0.23427811 0.06967699 -0.0120759895
0.043753665 0.1215311 -0.06480634 -0.08922685 -0.008508107 0.3970658 0.12637979 -0.029096266
-0.04882772 -0.12317446 -0.35965317 0.09904334 -0.12103728 -0.0641666 0.07011802 0.11311742
0.04915901 -0.053832274 -0.074679144 -0.02920104 -0.1437691 0.07488415 0.030505415 -0.18786919
0.040188823 0.098504424 -0.08557863 -0.08016736 -0.2524321 0.036681343 0.04692584 0.11094984

layer3.0.bias f4 [64]
00000000: 29eb 0aba 8009 adbb 8625 8abb a966 143c
00000010: 01c8 29b6 2a7f 873b ea06 8c3c 0a3e 04bd
00000020: f7ff 193b 25e3 193d ebfd 50bb 56c4 b2b9
00000030: bb56 ef39 9a4a f3bc b342 9639 9058 aa3b
00000040: b173 3b3c ccbc bbbb d5a5 f5bb 9415 94bb
00000050: 93e8 a2bc c5c0 d83b b1b2 233c 055c d33c
00000060: a3dd 0cbc e089 a63b 92d4 fdbb a0db 8d3b
00000070: 1b7a 2ebb 4ef4 a83c 78cc 893c 0633 2e3b
00000080: b079 323d 22b8 15bc 3cdb a4bb 31f8 cebb
00000090: cd95 cc39 f089 093c 274a 18bb 97dc cd3a
000000a0: fe5a 843c 43b9 a2bb 667b a63c c1ce 33bb
000000b0: 3b43 5439 df3f 0ab9 22cb b73b 060a e23c
000000c0: d5f3 b53c 14f2 b23b a4b5 4c3c 3c46 dfba
000000d0: 4d7d 02bb b755 313c def7 8a3c 11e6 afbc
000000e0: aa7e a9bb b8dd 833c 55ba 163c bd14 0e3c
000000f0: b05d 90ba 0517 f8bb 4def 9e3b e042 ad3c
-0.0005299324 -0.0052806735 -0.004215899 0.009057679 -2.529938e-06 0.004135032 0.01709314 -0.032285728
0.0023498514 0.037570138 -0.0031889628 -0.00034097087 0.00045650252 -0.029698659 0.00028659924 0.0051985458
0.011441157 -0.0057292935 -0.0074965754 -0.004519174 -0.01988629 0.006614777 0.009991334 0.025800714
-0.008597764 0.005082354 -0.0077462876 0.00432916 -0.0026623073 0.020624306 0.016821131 0.0026580705
0.04357308 -0.009138139 -0.0050310176 -0.006316208 0.00039021522 0.008394703 -0.0023237558 0.0015706
0.01615667 -0.0049659326 0.020322513 -0.0027436467 0.00020242941 -0.000131845 0.005608932 0.02759267
0.022210995 0.005460987 0.012494478 -0.0017034481 -0.001991111 0.010823659 0.016963895 -0.021472009
-0.0051725702 0.016096935 0.009199698 0.008671937 -0.0011014249 -0.0075711035 0.004850304 0.021150053

output_layer.weight f4 [1, 64]
00000000: 7912 cbbe abb9 73be d968 113e d6a1 c6be
00000010: a7a9 133e 3da4 9cbe f37d 2cbe 939f 793e
00000020: 7b9f b63d 3a3b 6fbe 8be9 913e 5c5f 4cbe
00000030: 7658 b0be fd16 2b3e f980 f5bd dcfb 5f3d
00000040: f68c 88be 89dd 5bbe 37e4 80be 0118 06be
00000050: fdf6 e73e 7d4a 0cbf 0647 c5be 1430 05be
00000060: 27de 0b3d 0f3f d03e cf8f 4d3e aa38 87bd
00000070: 1ef3 323f 38f4 873d 6b3f 8abe 05ec 5fbe
00000080: 14b2 3bbe 3c20 1fbe 55f1 46be 6113 debd
00000090: aac0 8a3e 1abf 093e 7c9c ddbd eab0 ebbd
000000a0: dc97 453e 24a9 7a3e 6769 0f3e 0110 7a3e
000000b0: 50b5 37be ee21 51be c223 7e3e d439 52be
000000c0: f4b2 91be 0cba ec3d 342a a13d 7ddb 393e
000000d0: d368 373e 2510 09be 812d 9bbe 8a6c e03e
000000e0: 4fa0 af3e 6aa1 33bf 21db c53e 5a87 40be
000000f0: e5a2 143e 4355 e5be 287d f73e a048 debe
-0.3966253 -0.23801295 0.14200152 -0.38795346 0.14420186 -0.30594054 -0.16844921 0.24377279
0.08917137 -0.23362437 0.28498492 -0.19958252 -0.3444249 0.16707988 -0.1198749 0.05468355
-0.26670045 -0.21471228 -0.25174114 -0.13095094 0.45305625 -0.5480116 -0.3853075 -0.13006622
0.034147408 0.4067311 0.2007439 -0.06602605 0.6990222 0.06638378 -0.2700151 -0.21867378
-0.1832965 -0.1553964 -0.19427998 -0.1084354 0.27100116 0.13451806 -0.10820863 -0.11508353
0.19296211 0.24478585 0.14005052 0.24420168 -0.17940259 -0.204231 0.24818328 -0.20529872
-0.28456843 0.11558923 0.07869378 0.18150134 0.17911081 -0.13385065 -0.30308154 0.4383281
0.34301993 -0.70168173 0.38643745 -0.18801633 0.14515264 -0.44791612 0.48337674 -0.43414783

exp_avg f4 [64, 7]
00000000: 15b5 0a38 cd6b 5738 9822 b2b8 13b1 9236
00000010: d73b a138 7b39 d033 c1fb a6b8 ce9f 58b8
00000020: 051e 1c38 e554 3bb9 2ed5 78b9 6f74 a139
00000030: 82de 1f38 2615 0638 2b18 36b9 d23e d0b8
00000040: 127c a4b6 e7fc bab9 15b3 49b9 9963 a038
00000050: fb1e 0239 1981 5639 c162 d038 714d 5b38
00000060: ad35 ee39 4395 0e38 aa09 3f38 28ef ab38
00000070: 5674 75b7 0649 b738 8d2e 85b9 c434 64b9
00000080: bed3 0839 8d02 0b37 f11f 7eb9 ec19 40b8
00000090: 764f c735 7d3d 9cb8 f55e 1bb9 a855 8f38
000000a0: 209c 51b8 bbbe a138 5784 e2b8 377b 2fb7
000000b0: f2d5 11b9 fa0c a9b9 5784 b6b7 9592 a2b8
000000c0: 62e7 92b7 3aba 2d39 fedf aa37 6927 5339
000000d0: b3aa fe39 3ad7 1c3a 25b1 9cb7 4765 a438
000000e0: 3ad1 e5b8 b353 abb7 bf31 f1b8 0c7b a1b9
000000f0: 4d3d aa39 d1d8 8d38 786e 82b9 1542 04b9
00000100: bb7b 5bb8 0f6d 6bb8 a133 9cb9 1709 9eb9
00000110: 4080 1139 ffc3 5fb9 04f4 ea39 76e9 3938
00000120: 117a 163a 9911 af3a 4922 4a39 ed3f 9ab8
00000130: 20f4 3039 8d18 f736 c237 08b9 b444 ba39
00000140: b1a2 9139 1c5c 0839 3d84 cd37 c889 0139
00000150: 95b7 8db7 efa0 4cb7 92ff d236 0dc9 f8b7
00000160: 179d 0d38 dd7a 0635 f593 96b6 afd3 0cb9
00000170: 02a4 f938 6ed5 08ba f0ce 2cba 0002 27b9
00000180: 1733 0339 8fd2 c438 ca40 a738 db0f f337
00000190: ae33 4338 6d32 4e39 1815 e1b9 ecab d3b8
000001a0: 3d85 ce36 9665 98b8 3f11 a5b8 db2a ca38
000001b0: 2c38 a0b8 78ff 87b8 8430 81b7 bb48 3437
000001c0: fa6d 86b8 c59d 23b8 8a5d 8f36 8847 05b9
000001d0: 503b f4b8 b025 21b7 65fe f1b8 dd9e 8d36
000001e0: b8ec 3fb6 9ebd 6b37 d709 9f37 b2c6 1e39
000001f0: 8e10 f437 5c36 2b37 2dbf e7b8 c469 fbb7
00000200: 6c8c beb8 07fa 98b9 a69e 46b9 6b71 9037
00000210: 86b6 83b9 ad5c 9537 df98 1337 e95b 9736
00000220: 3b16 2638 edc1 3ab8 459e a1b6 3005 13b9
00000230: d4c6 4fb9 b129 beb8 7f62 88b8 5c56 ecb9
00000240: e331 c5b9 bfcc 85b8 399a 9cb9 4bd3 03b9
00000250: 645d 4eb8 77db 85b8 36c3 9eb9 f68d 4ab9
00000260: e289 bdb8 5970 6f39 9fa7 e8b8 6fd1 9ab8
00000270: a8a4 ca37 fea8 59b9 b669 92b9 3010 12b8
00000280: 0125 cb38 5cb4 9bb8 368f 6438 e2c0 87b9
00000290: 0295 b3b9 53ff 9d39 b2c5 2037 2ea5 c238
000002a0: c905 0339 a950 0238 a329 e738 79de af39
000002b0: 8a01 5939 5b11 71b7 6a3f ad39 63c7 3539
000002c0: 607d 0b38 79b4 3b39 fd2d fe39 4a4e 7839
000002d0: b8d9 1639 766a 663a 37d7 3339 2bc2 19b9
000002e0: 663b 2b3a 710e 5a3a 0c35 09b8 1642 e0b6
000002f0: ee8f 9f39 30e6 5db7 2f9b 78b7 fd77 9e37
00000300: c875 58b7 33a5 68b8 258d a836 4531 2a36
00000310: a9e8 e139 f7c7 0439 50f3 ac39 68c9 923a
00000320: a8d3 b239 2a70 7039 1a33 e538 4f6c e3b8
00000330: d81f a138 4c75 c2b9 55c0 01ba 6746 1239
00000340: 219d 6f38 4bce 5939 e4b4 b339 e5a8 1c39
00000350: 3a3b 0b39 0f67 503a e692 a238 991f afb5
00000360: b42b 6c3a 89d4 cfb7 d8d8 4838 d9cd 2cb9
00000370: 5da8 34b9 edd5 2838 9d9a 4938 a3cb 0439
00000380: a848 06b9 a777 d837 8572 8bb9 79b6 efb9
00000390: 9166 f939 a965 f538 768f 76b9 73df 64b7
000003a0: d03b c236 ab81 17b8 2382 64b8 f4cd 3839
000003b0: dd59 d938 228b 2639 6c9d 0eb9 c97b d2b8
000003c0: 85c9 6938 57bf 76b9 94e7 11b9 66e7 0c38
000003d0: 3b44 2d39 70a0 47b8 921b 78b8 44cd ae38
000003e0: d000 13b8 cc84 d037 c8a9 c9b6 41e4 b4b8
000003f0: 69b4 c6b8 adb0 43b8 9813 beb7 5b80 5bb9
3.307041e-05 5.136039e-05 -8.494145e-05 4.371753e-06 7.688224e-05 9.6962104e-08 -7.96239e-05 -5.1647243e-05
3.7221256e-05 -0.00017865335 -0.00023730539 0.00030795063 3.811578e-05 3.1967786e-05 -0.00017365876 -9.929914e-05
-4.9020246e-06 -0.00035665111 -0.00019235567 7.647946e-05 0.00012409307 0.00020456723 9.936607e-05 5.228579e-05
0.0004543489 3.399445e-05 4.554695e-05 8.198462e-05 -1.46302245e-05 8.739722e-05 -0.0002540242 -0.00021763431
0.00013048851 8.2856395e-06 -0.00024235227 -4.580051e-05 1.4849782e-06 -7.450113e-05 -0.00014817326 6.834726e-05
-4.9974886e-05 7.7126046e-05 -0.0001080117 -1.0459501e-05 -0.00013907978 -0.0003224386 -2.1757716e-05 -7.752065e-05
-1.7512302e-05 0.0001656794 2.0369884e-05 0.0002013721 0.00048573836 0.0005982999 -1.8679139e-05 7.838994e-05
-0.000109585424 -2.0423764e-05 -0.000115010414 -0.0003079999 0.000324706 6.763789e-05 -0.00024877838 -0.00012613118
-5.23289e-05 -5.6129935e-05 -0.00029793105 -0.0003014288 0.00013876054 -0.00021339951 0.00044813764 4.4324865e-05
0.0005740235 0.0013356685 0.00019276993 -7.355199e-05 0.00016875612 7.3640317e-06 -0.00012990742 0.00035527872
0.0002777777 0.00013004284 2.4499483e-05 0.00012353726 -1.6893997e-05 -1.2196818e-05 6.28824e-06 -2.9657525e-05
3.376332e-05 5.009768e-07 -4.487573e-06 -0.00013430299 0.00011903794 -0.0005219792 -0.00065921154 -0.00015927106
0.00012512166 9.385228e-05 7.9752484e-05 2.897524e-05 4.6539753e-05 0.00019664476 -0.0004293106 -0.00010093287
6.1547894e-06 -7.266847e-05 -7.8710254e-05 9.640093e-05 -7.639857e-05 -6.4848864e-05 -1.540059e-05 1.074577e-05
-6.410103e-05 -3.9009163e-05 4.2726215e-06 -0.00012710516 -0.000116458745 -9.605123e-06 -0.0001153916 4.2206216e-06
-2.8599006e-06 1.405124e-05 1.8958859e-05 0.00015142074 2.9094776e-05 1.0205051e-05 -0.000110505476 -2.9970783e-05
-9.0860616e-05 -0.00029177984 -0.00018941853 1.7218952e-05 -0.00025122258 1.780534e-05 8.797476e-06 4.5108504e-06
3.9598188e-05 -4.4526463e-05 -4.816599e-06 -0.00014020945 -0.00019815128 -9.0676716e-05 -6.503332e-05 -0.0004507777
-0.00037611937 -6.380071e-05 -0.00029869544 -0.00012571846 -4.9201204e-05 -6.382813e-05 -0.00030281552 -0.00019317106
-9.037905e-05 0.00022834669 -0.00011093844 -7.382302e-05 2.415695e-05 -0.00020757687 -0.0002792605 -3.482419e-05
9.686687e-05 -7.4245705e-05 5.449281e-05 -0.00025892915 -0.0003425256 0.00030135605 9.582773e-06 9.281408e-05
0.00012495289 3.1069536e-05 0.00011022694 0.00033544356 0.00020695306 -1.436876e-05 0.00033044379 0.00017335782
3.3256947e-05 0.00017900941 0.0004848092 0.00023680288 0.00014386221 0.00087896676 0.00017150944 -0.0001466355
0.00065319834 0.0008318192 -3.271275e-05 -6.6834136e-06 0.0003043408 -1.3226221e-05 -1.4818083e-05 1.8890942e-05
-1.2902026e-05 -5.5466964e-05 5.0232215e-06 2.5360653e-06 0.0004308869 0.00012662994 0.00032987678 0.001119894
0.00034108502 0.00022929968 0.00010929089 -0.000108443775 7.6830096e-05 -0.00037089956 -0.0004949619 0.00013949872
5.7128378e-05 0.00020771583 0.00034276315 0.00014940237 0.00013278137 0.0007949927 7.752124e-05 -1.3047712e-06
0.0009009198 -2.4775292e-05 4.7885667e-05 -0.00016479882 -0.00017228858 4.0253555e-05 4.806613e-05 0.00012664362
-0.00012806302 2.5804924e-05 -0.0002659747 -0.00045721585 0.000475694 0.00011701446 -0.00023513832 -1.3641885e-05
5.7886136e-06 -3.6121968e-05 -5.4480635e-05 0.00017624331 0.00010364105 0.00015882825 -0.0001360082 -0.00010036637
5.573921e-05 -0.00023531668 -0.00013914547 3.3594108e-05 0.00016523984 -4.7594716e-05 -5.9153484e-05 8.3352e-05
-3.5048288e-05 2.485737e-05 -6.010032e-06 -8.6255845e-05 -9.47498e-05 -4.6656165e-05 -2.2658889e-05 -0.00020933284

exp_avg_sq f4 [64, 7]
00000000: 41f4 8134 0eee 2835 2f4a f535 fd55 3a33
00000010: 585c bb35 ae32 9435 477e a335 c4c9 4036
00000020: 280d c033 df44 3a37 d2ff 1138 d81f 8238
00000030: 1336 6e33 31fd 0c37 73f4 2337 ebb1 8036
00000040: d63e 3234 76b8 1a38 36cc 3c37 6e8d 8335
00000050: b9b7 2537 f2c8 0737 4af2 ca35 7a82 b435
00000060: 478d 3738 cffc 0735 cf86 0f36 2eae 0735
00000070: 3c93 1d33 9b30 3336 87d2 b037 ecb0 6d37
00000080: 5c5a d436 2d4d c633 95ae b937 1abb e334
00000090: f97b f432 6be3 0636 b7ee bb36 c47e 1a36
000000a0: c56f 7835 bf81 cd36 d8e8 6a36 6008 4f32
000000b0: 3374 0237 cbe0 0f38 ab5c e835 a097 ba35
000000c0: f09d 9b33 7fa2 0237 d145 be34 7cf3 f736
000000d0: 2c31 7738 1e4c 4c38 e232 6433 286c 3735
000000e0: 64b2 e336 3b8b a735 af18 9435 a256 1a38
000000f0: 529d 8238 effc b635 65be 7a37 6011 b736
00000100: 26ab 5c35 8bc1 be35 d6b3 0438 9ee0 a137
00000110: 9c6a 3837 ed64 fe36 def6 9338 d85b ff35
00000120: bfde b338 bcde 153a 8a21 8b36 77e4 9835
00000130: d158 0836 5cc2 d831 0c9b ab36 27e6 1738
00000140: 4fe0 aa37 ea20 f636 e9a6 a933 8cf8 7636
00000150: efa9 b232 d351 3932 5822 4931 7e70 8a33
00000160: b813 b031 640d 4134 1b31 3831 3f6f e536
00000170: 9a7e df35 b0f1 6238 698b f138 127c 2f37
00000180: 4923 8a36 d983 6e37 01e1 8236 75a9 6435
00000190: 91a9 e034 04f9 a637 98ac 4a38 d1cf fe35
000001a0: b77b f735 fbbe c835 c2e7 1536 960f 9136
000001b0: 1d91 7e35 7187 aa36 0134 e532 4ff9 0a33
000001c0: 93eb 7d35 3a79 0234 3579 b934 bcf1 c136
000001d0: 0bad 4a37 6482 3033 a246 8836 9bc5 e230
000001e0: cb54 8c32 8ad6 d933 f39d 6733 a09e f136
000001f0: 7eb7 6733 6a0e 4835 c2c0 2636 1603 3b34
00000200: 6eb0 ee35 c1d5 9237 89d6 2937 0bf5 4e36
00000210: 502f d237 2b00 e034 7ed4 cb32 a03a c434
00000220: 4498 4e36 03d1 0a36 77b0 5532 bdc9 bb36
00000230: 0d48 f736 9ef1 0336 5cb3 6d34 fdd4 0f38
00000240: e027 e237 3a87 a035 be1b cd37 7e0b c036
00000250: 81e1 4835 7f8e 0136 c04a 1138 c343 6737
00000260: 4e3c 1c36 7f5f 8537 6c63 4036 4e07 2435
00000270: 4f6f a434 e20e 7737 14cd 1b38 82a0 9834
00000280: 2cbb 7c36 fd0f 3236 8f33 0d35 80c3 a037
00000290: 8237 3338 7a82 0238 326b 8033 7197 d836
000002a0: eda4 5536 2b44 1d34 e815 4a36 a1eb c937
000002b0: 9c66 c736 9468 2132 134b 9d37 9eba 0b37
000002c0: ce41 2335 8340 c536 49e1 7438 46d8 8a37
000002d0: 2583 0f37 7e7f df38 c38e 0b37 76ca 2d37
000002e0: 5bd6 2d39 fc3d 7739 710d 1d35 2f8c 5435
000002f0: e6e6 7e37 d1e6 fc32 be73 ba33 6f24 9a34
00000300: 3a7f 1133 8005 9a35 443f 0e33 e28b 9334
00000310: 94a7 7238 fb8e 5136 a65b 4e38 e242 df39
00000320: d95a 8b37 8473 e737 c3b0 8e36 d6ff db36
00000330: f23a 3935 d6aa 1a38 e591 c438 e5d9 7c37
00000340: 81e5 6334 ea4d 1438 4e58 1138 7e6f 1337
00000350: 5ac6 ca35 b41f 2d39 85c0 8335 7b17 9934
00000360: 1968 1339 7574 9334 5f9b 7034 b48e 8a36
00000370: 806b db36 83fb 8935 f62d 8035 62e1 ed36
00000380: 0b56 0d37 d946 8933 0af0 7c37 06fc a038
00000390: a945 0739 4d6d 0236 6fbd aa37 bb99 1834
000003a0: bd71 3134 3456 b334 1065 9d34 6efd fb36
000003b0: 2ec1 8636 6381 2e37 75f6 fe36 7aa6 7c36
000003c0: 6926 6735 c71f cd37 ab66 4636 beb1 2534
000003d0: 454d 7237 7207 d534 3f86 8635 7b42 3e36
000003e0: faf8 f032 5eea 1534 d231 3632 a214 8236
000003f0: 75bf 2f36 2738 0435 6cfc db34 0193 6c37
2.420584e-07 6.293129e-07 1.8275513e-06 4.3384706e-08 1.3959461e-06 1.1041609e-06 1.2181198e-06 2.8727673e-06
8.94309e-08 1.1102499e-05 3.4808945e-05 6.2048144e-05 5.5462873e-08 8.403601e-06 9.772472e-06 3.8354096e-06
1.6600401e-07 3.6888254e-05 1.125322e-05 9.801422e-07 9.877543e-06 8.093413e-06 1.5120688e-06 1.3449019e-06
4.3762175e-05 5.0659304e-07 2.138713e-06 5.0544884e-07 3.668832e-08 2.670137e-06 2.107887e-05 1.4167494e-05
6.3286116e-06 9.234132e-08 2.2135015e-05 4.241818e-07 2.8461715e-08 2.009993e-06 5.6008244e-06 2.3021576e-06
9.2549845e-07 6.1245805e-06 3.500425e-06 1.205089e-08 7.775659e-06 3.430321e-05 1.7312317e-06 1.3902209e-06
7.2464786e-08 7.786438e-06 3.5441056e-07 7.389519e-06 5.8935184e-05 4.870828e-05 5.3131664e-08 6.83302e-07
6.7858946e-06 1.2482991e-06 1.1034043e-06 3.6797144e-05 6.228186e-05 1.363367e-06 1.4945491e-05 5.4558477e-06
8.220544e-07 1.4212432e-06 3.1638738e-05 1.9297291e-05 1.0992077e-05 7.581539e-06 7.055489e-05 1.9025711e-06
8.576875e-05 0.0005717089 4.1464273e-06 1.1391375e-06 2.0317277e-06 6.3085235e-09 5.114247e-06 3.621555e-05
2.0370031e-05 7.335203e-06 7.9000365e-08 3.680153e-06 2.0799204e-08 1.0787022e-08 2.9268872e-09 6.446588e-08
5.124516e-09 1.7979397e-07 2.6803437e-09 6.8376826e-06 1.6651641e-06 5.4107688e-05 0.00011517743 1.04597e-05
4.116828e-06 1.4216604e-05 3.900496e-06 8.518321e-07 4.1846627e-07 1.9904699e-05 4.8321293e-05 1.8984957e-06
1.843894e-06 1.4956744e-06 2.233763e-06 4.323151e-06 9.483354e-07 5.0821623e-06 2.6682757e-08 3.2357374e-08
9.459265e-07 1.2151295e-07 3.4547125e-07 5.77999e-06 1.2080428e-05 4.1096783e-08 4.0613386e-06 1.6499827e-09
1.6336704e-08 1.01438744e-07 5.3927533e-08 7.200826e-06 5.3950764e-08 7.452678e-07 2.4848127e-06 1.7416855e-07
1.778373e-06 1.7504093e-05 1.0123135e-05 3.0839026e-06 2.5055982e-05 4.1723374e-07 2.372894e-08 3.65505e-07
3.0785022e-06 2.0685263e-06 1.2438355e-08 5.5965197e-06 7.3695614e-06 1.966116e-06 2.2137596e-07 3.4292218e-05
2.6959868e-05 1.1960285e-06 2.4450823e-05 5.7233838e-06 7.483396e-07 1.9305442e-06 3.464031e-05 1.378445e-05
2.3280913e-06 1.5899304e-05 2.86681e-06 6.110539e-07 3.0628368e-07 1.4725812e-05 3.7145874e-05 2.842899e-07
3.7659875e-06 2.6533373e-06 5.260162e-07 1.9164523e-05 4.272862e-05 3.111593e-05 5.979963e-08 6.4549317e-06
3.1835473e-06 1.4646564e-07 3.0113097e-06 2.407079e-05 5.9426075e-06 9.395212e-09 1.8750818e-05 8.328496e-06
6.081799e-07 5.8785677e-06 5.8383946e-05 1.6551592e-05 8.553999e-06 0.00010657216 8.318285e-06 1.0358743e-05
0.0001657842 0.00023578847 5.850662e-07 7.918015e-07 1.519334e-05 2.9441624e-08 8.682353e-08 2.8711244e-07
3.3876155e-08 1.1475495e-06 3.311949e-08 2.7482662e-07 5.7853365e-05 3.1226652e-06 4.919958e-05 0.00042583706
1.6612395e-05 2.7591137e-05 4.2525076e-06 6.556492e-06 6.900365e-07 3.6875565e-05 9.373183e-05 1.5071103e-05
2.1224515e-07 3.5358513e-05 3.4652934e-05 8.787842e-06 1.5107901e-06 0.00016510376 9.816291e-07 2.8515555e-07
0.00014057792 2.7465617e-07 2.2408265e-07 4.1293333e-06 6.5392233e-06 1.0280495e-06 9.55012e-07 7.0893884e-06
8.424288e-06 6.392447e-08 1.5076259e-05 7.6763376e-05 0.00012900554 1.943513e-06 2.0353791e-05 1.421203e-07
1.6525787e-07 3.340407e-07 2.9317061e-07 7.509886e-06 4.0160003e-06 1.0401333e-05 7.5984813e-06 3.7647828e-06
8.61101e-07 2.4452702e-05 2.956406e-06 1.5431485e-07 1.4442315e-05 3.967976e-07 1.0022849e-06 2.8350903e-06
2.8052899e-08 1.3961969e-07 1.0605122e-08 3.876704e-06 2.6188475e-06 4.9255544e-07 4.097559e-07 1.4100923e-05

exp_avg f4 [64]
00000000: 85f3 afb7 0236 e239 481b 343a a4a4 63ba
00000010: d365 c839 af05 9039 aba2 1d3a 23bc 6dba
00000020: a644 173a e275 143a a041 23bb 5557 fdb9
00000030: 1aa7 7338 dc84 9c3a 1847 c3b9 295e 2939
00000040: 59dc 8039 5e93 10b8 73f6 0f3a c214 9fb8
00000050: 124b 613a d1a0 163a 15c4 d339 4929 233a
00000060: df48 25ba fd1e 6eba 47a1 c5ba 21ea e737
00000070: 405b 0abb 7ce5 6b3a 275c c6ba b668 a139
00000080: 0add 5c3a 2803 d138 b048 f239 d46e a738
00000090: e8e7 d139 b158 b1b9 2b78 d83a ac79 663a
000000a0: d2f2 c539 5bd2 7ab9 1e6f f539 67ca 03bb
000000b0: d3a6 67b8 1258 8eba 4c06 f7b8 6402 563a
000000c0: a78b 1a3a 950f 553a be01 933a 3826 283a
000000d0: c036 233a 9daf 6f3a 4fd8 6838 cb4c 3a3a
000000e0: 7527 823a 8e18 293a bc2c b538 1a83 f839
000000f0: d376 7b3a 28bd 1eba 46f9 d73a 3380 123b
-2.0975023e-05 0.00043146318 0.00068705203 -0.0008683896 0.00038222838 0.00027470055 0.0006013314 -0.0009068867
0.0005770422 0.0005663318 -0.0024910942 -0.00048320988 5.809134e-05 0.0011941451 -0.00037246267 0.00016152173
0.00024578234 -3.446952e-05 0.0005491741 -7.585577e-05 0.0008594255 0.00057460094 0.0004039115 0.00062241085
-0.0006305109 -0.0009083597 -0.0015077972 2.764637e-05 -0.0021111518 0.00089987344 -0.0015133665 0.0003078633
0.00084252714 9.9664845e-05 0.00046211993 7.983824e-05 0.0004003637 -0.0003382615 0.0016515305 0.0008791934
0.00037755683 -0.00023920221 0.0004681283 -0.0020109655 -5.523006e-05 -0.0010859987 -0.00011779051 0.00081638084
0.00058954436 0.0008127627 0.0011215729 0.00064143864 0.0006226115 0.0009143295 5.5514563e-05 0.000710678
0.0009929972 0.00064504973 8.639085e-05 0.00047399924 0.00095925963 -0.0006055408 0.0016477488 0.0022354245

exp_avg_sq f4 [64]
00000000: 94d9 4a34 4a5c f838 7a03 1139 9ef6 2539
00000010: fba2 3538 2300 9f37 6424 f838 e94e 5939
00000020: e493 0b39 d08f ee38 ff0e 033b 7320 8038
00000030: feff 8434 f67e c939 84d0 9738 846a 9e36
00000040: d97e ad37 3764 2f34 99ce 8138 2fe5 3537
00000050: 1df4 0339 751c 0239 f879 6038 6cdf 1539
00000060: d386 b138 5fa0 5839 b136 493a 312f e433
00000070: a7b0 c43a b486 a539 5d76 1e3a 59dd b337
00000080: 4b90 8b39 7205 9935 44b1 c338 ca1f 5034
00000090: 5f09 5638 b903 ea37 2721 483a 5bb6 a139
000000a0: ca3c 5238 b938 7436 e516 8238 2d22 b63a
000000b0: 4182 6c34 a200 aa39 3098 8237 c609 8c39
000000c0: f438 0239 6f3b aa39 0a21 b939 0c0a a838
000000d0: a46a ae38 6b91 b539 e687 b135 d08e 5339
000000e0: 19e0 cd39 4461 1c39 2155 b136 4357 9338
000000f0: 4282 8639 ca00 0c39 abf3 5c3a cf35 bb3a
1.889187e-07 0.00011842752 0.00013829573 0.00015827498 4.330555e-05 1.895434e-05 0.0001183234 0.00020724129
0.00013311167 0.000113755115 0.0019997952 6.10956e-05 2.4773175e-07 0.000384323 7.23908e-05 4.721167e-06
2.0682275e-05 1.6334603e-07 6.189681e-05 1.0841802e-05 0.00012584073 0.00012408367 5.3519354e-05 0.00014292978
8.465131e-05 0.00020659108 0.0007675691 1.06256614e-07 0.001500626 0.00031571614 0.0006044859 2.1441536e-05
0.00026619653 1.1400973e-06 9.331343e-05 1.9383074e-07 5.1030303e-05 2.7896707e-05 0.00076343346 0.00030844178
5.0124516e-05 3.639185e-06 6.2031475e-05 0.0013895683 2.2026599e-07 0.00032425398 1.5568075e-05 0.00026710163
0.00012418983 0.00032469208 0.00035310566 8.0127356e-05 8.31683e-05 0.00034631355 1.3227079e-06 0.0002017573
0.00039267613 0.00014913554 5.2849214e-06 7.02576e-05 0.0002565552 0.00013351734 0.00084286433 0.0014283004

exp_avg f4 [57, 64]
00000000: d9f1 55b8 45b7 7bb6 d12f 12b9 fe5d 9bb8
00000010: 5251 65b7 071f b2b7 e83e 52b9 b5c4 ccb8
00000020: e4a4 36b4 09c6 3fb8 dff5 5db9 968d aeb8
00000030: 366c 86b5 5ac5 02b9 842e 37b8 e2ae fdb7
00000040: c3da e0b6 df1b 4bb8 6c73 ebb8 c9fd 25b8
00000050: 0690 b4b8 2251 b6b8 36a5 a1b5 08c4 2fb9
00000060: 71be 54b7 4a2c f3b7 c9bb 14b8 f271 41b9
00000070: 15ed 44b9 63e0 b4b8 d8ed 86b9 369a 31b7
00000080: 6af4 5db6 264b 94b8 3728 f5b8 5056 00b9
00000090: 1092 de36 2ba3 19b8 702c 44b7 ee73 00b9
000000a0: 0d09 17b9 7f40 73b7 2c45 51b8 832b b4b8
000000b0: b358 f5b7 afed 6fb6 f65e f335 a900 9eb8
000000c0: c9b5 88b8 5f57 8fb7 a795 f2b7 98a0 26b5
000000d0: 0875 3f32 2be8 7fb8 f9e0 efb7 0875 aeb8
000000e0: 92d4 86b8 0853 22b8 d7f3 a3b8 803f 7cb9
000000f0: 3072 85b7 15f6 f3b7 780a 2bb8 2c1f 7ab8
00000100: 69de 4438 d604 7437 7dba 5738 7370 c038
00000110: 534f 7738 03c5 7136 baf3 8538 9a20 9038
00000120: 4603 1937 a952 3c37 d79c f138 342d cd37
00000130: a768 88b5 10bb 5438 0b0a 5138 dc34 a037
00000140: 0df9 2037 0062 b736 2ff1 ab38 3e94 9035
00000150: 7fcf 7c38 04dd 0138 3af1 5235 a316 7d38
00000160: a1f6 0238 d0ec 6838 ccca c437 e0cc 9038
00000170: 8c3a 9638 7433 9738 45e3 1d39 b69e ee37
00000180: 6a0c 71b6 9210 c937 7898 bf38 2a7e 4138
00000190: a5d1 8638 dbc0 7537 3da3 3636 dfd7 5938
000001a0: f518 0f38 b303 0c38 fdae 6538 eeb5 0638
000001b0: 08d2 1f38 5612 8c37 49ac 5838 3c26 8d38
000001c0: 6395 4638 d38c e737 cdae 9138 61dd 8637
000001d0: 1039 ff37 23e0 8637 cc00 0137 9c95 b037
000001e0: 35b9 b238 6862 4738 fe4f 6037 3d96 af38
000001f0: a7eb 1638 5b00 2037 8d18 1738 553d 9738
00000200: 546e aeb7 302a 87b7 158a f5b7 7bd3 93b9
00000210: bb19 9db9 b359 83b5 35e1 48b9 29fe 8eb8
00000220: 2541 11b8 e94e 16b8 74f5 b2b9 872b 44b9
00000230: 0400 0000 7884 7bb9 8f0d 21b8 a8ac aeb7
00000240: 084a 2cb8 8570 f7b8 4011 36b9 57f1 0cb6
00000250: fa5b 14b9 be73 6bb8 bf3a e7b6 7e49 4ab9
00000260: 177a 40b8 6142 5bb9 639a 85b9 cfe0 13b9
00000270: 78f6 42b8 4332 b8b8 234a 1cba 678b b9b7
00000280: 7891 16b8 241a 7cb8 9a6c 06b9 7480 81b8
00000290: d242 cdb8 db9b 6db8 0400 0000 9279 15b9
000002a0: d127 f6b7 ac42 55b8 4018 20b9 eda3 2bb8
000002b0: a1a5 8bb8 81ae 14b9 0d18 72b9 fee2 51b8
000002c0: f18e 60b9 ee4f 42b8 d17a f1b9 6825 ccb8
000002d0: e38b 16b9 0fff 41b6 ea69 edb8 87f7 28b9
000002e0: d414 beb9 cc4b ddb8 6f00 bab8 99c5 1fb8
000002f0: 9517 42b9 03cf bfb6 f0f1 82b9 bca0 cbb9
00000300: 7219 8238 6b5b 6f37 70ce b0b6 a96e b1b7
00000310: ba12 a0b8 3a59 cab5 d48e 1c38 db35 3eb8
00000320: f863 3e37 64fc b5b7 36c5 7a38 8fc6 0c38
00000330: c9f6 3635 335c 1ab8 3327 47b8 d8e4 a3b7
00000340: 3aa3 a0b7 7335 5537 48e6 beb7 fb21 5637
00000350: aeea 7cb8 be8d 23b6 8c71 3435 f1e2 a038
00000360: d4b0 0eb8 71ab bcb8 f7f5 29b7 afa1 53b8
00000370: 0a5c e8b7 0e5d a538 bb5e 1438 9cda 5f38
00000380: 5e4e ad36 af54 0238 45a3 2ab8 4ee2 3b38
00000390: de38 41b8 eadc 0637 5981 0b36 1de2 fcb7
000003a0: 1eb4 65b6 dde4 e3b7 4d8f a2b8 24d7 52b7
000003b0: 0765 a5b7 c70b 2cb7 beeb 22b8 278f 8738
000003c0: 38c2 3536 7c37 3638 409f c9b7 1fb0 91b7
000003d0: 2b43 1bb8 3db5 a937 0d14 b8b5 8709 7437
000003e0: 7492 9fb7 4151 ebb7 d88d 2037 13b5 d8b7
000003f0: ea6b 64b8 bc72 9c37 10d6 6fb7 ac7a 41b8
-5.1008396e-05 -3.7508592e-06 -0.00013941458 -7.408483e-05 -1.36683975e-05 -2.1233702e-05 -0.00020050595 -9.7641176e-05
-1.7010058e-07 -4.5722383e-05 -0.00021167797 -8.323339e-05 -1.0015272e-06 -0.00012471285 -4.367392e-05 -3.0241386e-05
-6.7011874e-06 -4.842493e-05 -0.00011227172 -3.957542e-05 -8.609895e-05 -8.6935484e-05 -1.2043517e-06 -0.00016762328
-1.2680525e-05 -2.8988481e-05 -3.546084e-05 -0.00018448362 -0.00018780337 -8.624864e-05 -0.0002573568 -1.0585927e-05
-3.3073834e-06 -7.0711874e-05 -0.00011690001 -0.00012239185 6.6331195e-06 -3.6630005e-05 -1.1692857e-05 -0.00012250218
-0.00014403854 -1.4498945e-05 -4.9893904e-05 -8.5911735e-05 -2.924758e-05 -3.5752125e-06 1.8132548e-06 -7.53415e-05
-6.5188455e-05 -1.7087614e-05 -2.8918335e-05 -6.2073514e-07 1.1144273e-08 -6.101296e-05 -2.8595781e-05 -8.318765e-05
-6.429212e-05 -3.870114e-05 -7.8178644e-05 -0.00024056248 -1.5908008e-05 -2.9082448e-05 -4.0779327e-05 -5.9633676e-05
4.6937177e-05 1.4544659e-05 5.1433675e-05 9.176219e-05 5.8963265e-05 3.6026474e-06 6.387332e-05 6.8725276e-05
9.120273e-06 1.1224919e-05 0.00011520989 2.4458954e-05 -1.0163247e-06 5.0718954e-05 4.9838836e-05 1.90981e-05
9.59473e-06 5.4652337e-06 8.198839e-05 1.077198e-06 6.0274728e-05 3.0961834e-05 7.8582127e-07 6.0340983e-05
3.1224106e-05 5.553366e-05 2.3459455e-05 6.904616e-05 7.1634626e-05 7.209825e-05 0.00015057351 2.8445716e-05
-3.5919024e-06 2.3968783e-05 9.135989e-05 4.6132285e-05 6.428667e-05 1.4648041e-05 2.721513e-06 5.1937877e-05
3.41171e-05 3.3382046e-05 5.4760825e-05 3.2117525e-05 3.810416e-05 1.6697839e-05 5.1658866e-05 6.730526e-05
4.7346006e-05 2.7602922e-05 6.946698e-05 1.6077132e-05 3.042494e-05 1.6078417e-05 7.689185e-06 2.1050502e-05
8.522199e-05 4.7536945e-05 1.3370065e-05 8.372634e-05 3.5982255e-05 9.536826e-06 3.602407e-05 7.211665e-05
-2.0793792e-05 -1.61129e-05 -2.9270575e-05 -0.0002819559 -0.00029964544 -9.786366e-07 -0.00019157382 -6.818429e-05
-3.4631365e-05 -3.5836278e-05 -0.00034133682 -0.00018708232 6e-45 -0.00023986574 -3.839802e-05 -2.0822816e-05
-4.1076943e-05 -0.00011798836 -0.00017363299 -2.1002104e-06 -0.00014148644 -5.613616e-05 -6.8911754e-06 -0.00019291599
-4.5890072e-05 -0.00020910196 -0.00025482764 -0.0001410276 -4.6482746e-05 -8.783166e-05 -0.0005961975 -2.2118633e-05
-3.5898265e-05 -6.0105827e-05 -0.00012819693 -6.1751256e-05 -9.787608e-05 -5.6650355e-05 6e-45 -0.00014255036
-2.9344026e-05 -5.084525e-05 -0.00015267823 -4.0922245e-05 -6.658887e-05 -0.00014179388 -0.00023087878 -5.0040886e-05
-0.00021415555 -4.6327645e-05 -0.00046058607 -9.7344455e-05 -0.00014357227 -2.8907705e-06 -0.00011320769 -0.0001611394
-0.00036255142 -0.000105522195 -8.869252e-05 -3.809258e-05 -0.00018510067 -5.716343e-06 -0.0002497579 -0.00038838934
6.2036226e-05 1.4266795e-05 -5.2692412e-06 -2.1151574e-05 -7.6328826e-05 -1.5076141e-06 3.7326317e-05 -4.5349687e-05
1.1348158e-05 -2.169441e-05 5.978831e-05 3.3563523e-05 6.8159403e-07 -3.680233e-05 -4.7481804e-05 -1.9537678e-05
-1.9149495e-05 1.2708234e-05 -2.2756998e-05 1.2763306e-05 -6.0300044e-05 -2.4371398e-06 6.722046e-07 7.671666e-05
-3.4020122e-05 -8.996472e-05 -1.0130453e-05 -5.04569e-05 -2.7699414e-05 7.885146e-05 3.5374174e-05 5.337094e-05
5.164925e-06 3.1073283e-05 -4.0683215e-05 4.4795037e-05 -4.6067747e-05 8.038458e-06 2.0787904e-06 -3.0146033e-05
-3.42285e-06 -2.7167081e-05 -7.751454e-05 -1.2567067e-05 -1.9716577e-05 -1.0254741e-05 -3.8843362e-05 6.463966e-05
2.7084152e-06 4.3443855e-05 -2.4035224e-05 -1.736736e-05 -3.7017435e-05 2.0230766e-05 -1.3714904e-06 1.4545752e-05
-1.9022475e-05 -2.805202e-05 9.569769e-06 -2.5833526e-05 -5.445994e-05 1.8650077e-05 -1.429535e-05 -4.6129033e-05
