volume/checkpoints/latent2volume_best.pt (torch, 8281 bytes, 5 tensors)

net.0.weight f4 [32, 4]
00000000: a56b dfbe c42e 24be 2858 953e c724 d8be
00000010: 2303 4abe 20cb 4c3e d9e1 dd3e 0f0a b8be
00000020: e11b c23e a71c 25be 4005 b03e 7289 e73d
00000030: f9ae 3abe 6c23 dc3e a654 a8be bd1f 9d3d
00000040: 0e9a af3e 18df 87be 676d fc3e a03e c03e
00000050: d2d3 a1be 05e5 a53d caca 1bbe e4b4 b3be
00000060: 316e 0cbf 5017 8b3e 4fe8 cdbc d46f b4be
00000070: 25a6 a03e f11d af3e 3122 c33d 2921 73be
00000080: c01a 9f3e c7a2 9fbe 65f9 ae3c ab2c 843e
00000090: 355d c8be f063 6f3e 8313 81bd a35c 03bf
000000a0: 690b 9ebe ffd5 1f3e 2d25 f83e f911 093e
000000b0: 5326 683e 6624 d43e 62ee 993e a78e cb3e
000000c0: 4583 06be 241b b93e 1168 bd3e f04f 84be
000000d0: 8b35 b0be 0d9b eb3e 9cc6 48be 4676 aabe
000000e0: 602e c23e cb69 04be cfdc 13be 53f0 e5be
000000f0: f9c2 54bd 540e bcbe 10d8 59bd 3cae d9be
00000100: e004 c0be 7ae7 a2be 1284 df3e 26f6 823e
00000110: 07d1 9c3e a3b4 da3e a3e1 b7be 4bc3 df3d
00000120: 97a7 7abe 769f 86bd 6397 063e 04c3 8abe
00000130: 62fc 7ebe c6f3 a0bd b918 f43d cd6e e0be
00000140: 15dd 97be 9cc7 45be d283 47bd f88b b3be
00000150: 1914 c0be 230e 503e fc13 6bbe 706d 383e
00000160: 1688 7ebe 425c b63c ddbe 66be 99a8 073e
00000170: ca03 6ebe ffb8 253e 97b9 af3d 20b3 ab3e
00000180: c4db 903e 55dc 74be c7ff 6bbe 65b7 4bbe
00000190: ab88 1abe 3669 86be 0b63 f53e e4ee dabe
000001a0: 6919 44bc 40a7 11be 3103 44be 871c 02be
000001b0: 4de7 e13e 06b2 873b 276f cf3b 5007 d73e
000001c0: 08d8 a9be f7fa 76bd 64d4 d6be 1b59 e93d
000001d0: f8d6 72be bc38 fd3d 886f 853e d4f7 47be
000001e0: 767d f23e f341 a53e 8b3a e93e 7612 76be
000001f0: 9b45 b63e acd6 6b3d 934e b43e e358 4c3e
-0.43636814 -0.16033465 0.2916882 -0.4221556 -0.19727759 0.19999361 0.4333637 -0.35945174
0.37911895 -0.16124211 0.34379005 0.113055125 -0.1823081 0.42995775 -0.32877082 0.07672069
0.34297222 -0.26537395 0.49302217 0.3754778 -0.3160692 0.08100323 -0.15214077 -0.35098946
-0.5485564 0.27166224 -0.025135187 -0.35241568 0.31376758 0.3420253 0.09528006 -0.23743118
0.31075096 -0.31178877 0.021359155 0.2581533 -0.3913361 0.23377967 -0.0630255 -0.5131323
-0.3086808 0.15608977 0.48465863 0.13385762 0.2267087 0.4143402 0.30064684 0.39757273
-0.13136013 0.3615352 0.3699346 -0.25842237 -0.3441585 0.46016732 -0.19607013 -0.3329336
0.37926006 -0.12930982 -0.144397 -0.44909915 -0.051943753 -0.36729681 -0.05318457 -0.42515743
-0.3750372 -0.31817228 0.4365545 0.2557842 0.30628225 0.4271594 -0.35914335 0.10925921
-0.24477993 -0.065733835 0.13143687 -0.2710191 -0.24900964 -0.07858996 0.11918778 -0.43834534
-0.2966086 -0.19314426 -0.048709698 -0.35067725 -0.37515333 0.20317893 -0.22956842 0.18010497
-0.248566 0.022260789 -0.22533746 0.13247909 -0.23243633 0.16183852 0.0858032 0.335351
0.28292668 -0.23912175 -0.2304679 -0.19894178 -0.15091197 -0.26252145 0.47927126 -0.42760384
-0.011968949 -0.14223957 -0.19141842 -0.12706195 0.4412178 0.004141095 0.006330389 0.41997766
-0.3317263 -0.060297932 -0.41958916 0.11393949 -0.23714817 0.12364337 0.26061654 -0.19528133
0.47361344 0.32276878 0.45552477 -0.2403048 0.3559998 0.057577774 0.35216197 0.19955783

net.0.bias f4 [32]
00000000: 3d9f aabe 0a12 ffbe 7de7 cdbe 2b7b 88bd
00000010: 680c 83be 7d09 5c3e 0301 3a3e 94b9 70be
00000020: db14 0e3e c69d d03e 9933 dd3e 0f0a 8fbe
00000030: d7b6 05be a56f 1bbe 69d9 7abd aa43 b9be
00000040: a3ca 943e 3213 d23e 1112 27bd 55c0 bcbe
00000050: 407b dbbe bf7e 6fbe b397 3fbe 211d dcbd
00000060: c951 17be 3693 aebd 06a7 363e d820 72bb
00000070: e032 8abe 6888 d33d 54be 3d3e e5da debe
-0.33324614 -0.4981845 -0.40215674 -0.066641174 -0.25595403 0.21487994 0.18164448 -0.23508292
0.13875143 0.40745372 0.43203428 -0.27937362 -0.13058029 -0.15179308 -0.061242495 -0.36184436
0.2906085 0.4103027 -0.040788714 -0.36865488 -0.4286747 -0.23388194 -0.18710212 -0.107477434
-0.14777292 -0.08524172 0.17837152 -0.0036945846 -0.2699194 0.10328752 0.18529636 -0.43526378

net.1.weight f4 [32, 32]
00000000: 3d6d 1e3e 85c8 f6bc d9b0 0b3e e4d2 063e
00000010: 3f36 06be 294e 073c 0ee7 f1bd a34c 043c
00000020: ed71 0c3e 25b6 083e 8ce4 253d 2859 0f3b
00000030: 05d9 de3d 2bf8 02be bd5d fb3d 3d4d 13be
00000040: f6e3 8bbd 12bc d53d ea59 96bd 4180 64bd
00000050: f9ca 6dbd 08e6 973d f20c 55bd 79d4 90bd
00000060: bc14 afbc 9ea5 e63d c91a 373e 28b9 38be
00000070: 1632 87bd 18b4 07bd 28e2 13be 03f9 0ebe
00000080: 2210 e83d 00a8 fcbb 86af d1bd 8d5a c2bd
00000090: 489e 91bd 8a4d b3bd 024d a93d 66f2 993d
000000a0: 5cd3 1bbd 13d5 2c3e b0d6 853c f2d9 bbbd
000000b0: c364 23be f850 c7bc 04ec a9bd 6f86 20be
000000c0: d2a8 0dbe b1b5 1dbe 5e1c f33d fcb5 113d
000000d0: 73a2 163e 0ab5 ed3d aa8d b83d e6ac b63d
000000e0: 5035 95bd fce4 5f3d fa69 f6bd c084 11bc
000000f0: d595 2f3e f91d 2fbe 3f4b 153e 2cb6 5b3d
00000100: a29c f43d d4b8 1abe f053 38bd ac30 27bd
00000110: 5a16 f6bd 1897 fc3c 4bdc 2abe 805e 1dbe
00000120: e8ff 33be 90b8 cabc 3a11 cf3d 58ef a5bc
00000130: 91d1 d5bd 5e03 d23d f68f 63bd 68cc 913c
00000140: 8ab9 fb3d 0818 dcbc 8807 99bc 6052 c23c
00000150: 48e2 723d e492 21be ba35 e73d 9f91 103e
00000160: 7d27 273e ee3a 2dbe 33c7 033e e00e 31be
00000170: 4ee5 db3d c8f6 0fbd f007 e4bc b5f8 f3bd
00000180: 235c 133e e4ad fdbd dc9f 123d c4eb 593d
00000190: d069 763c 3cb3 3b3d c003 d93c 1a5c f23d
000001a0: 81e8 103e a172 0dbe ab7b 053e 8849 c43c
000001b0: e905 123e 58ce d4bc 5d54 203e 3094 ab3c
000001c0: a039 07bd 938e a3bd 9ab1 833d ecfa 813d
000001d0: 3239 31be 2a2a b93d 48b7 063d d82a db3c
000001e0: b3e7 2f3e 3b3a e0bd d333 8cbd 3972 edbd
000001f0: 4cba 15be e88e 4d3d 4c01 0dbe dd94 2bbe
00000200: 63c2 8ebd 2708 91bd 198b bc3d b2eb b1bd
00000210: 6410 113c 76ae da3d 7ba6 06bd 85d1 b1bc
00000220: bad3 4bbb 1a68 353e 856f babd 3390 be3d
00000230: d964 fb3c 8f29 033e 3a1a e3bd 2143 15be
00000240: 48eb dc3d ea70 29be c8f8 0a3e 829b 263e
00000250: 4c2d 2e3e 183c c2bb 4c6f 113e 2680 9e3d
00000260: fe4a b5bd e33f 473d 75e2 bfbd 586f df3d
00000270: e0eb f13d 927d 6dba 6803 bcbd 3bd0 d53d
00000280: 7a0d e83d fc63 a1bd 7e1e e93d af02 0f3e
00000290: f8ca e8bc d7ed 213e 2025 5e3d 510b 00be
000002a0: 7005 fabd 989d 243d e325 29be 262e ad3d
000002b0: 8ecd d53d 1cd6 3ebd ba4e 0fbe c0bc 933c
000002c0: 445e 0abe eb9e 23be a0a5 09bc a063 25bd
000002d0: 565e d73d cf24 0dbe 84c8 02be bc24 59bd
000002e0: 8098 28bd f081 6bbd 4e49 1fbe a909 c7bd
000002f0: 5057 15bd 4861 16bd 5278 e5bd e013 3f3c
00000300: e74f 163e 7dd3 36be 94d7 2bbd ec0c a13d
00000310: 833f 5f3d a826 2fbc ca0c b53d 9e0b 14be
00000320: 3117 f5bc 7ff2 0f3d 992f 423c 592d ae3d
00000330: 6ce5 25bd a8b8 b8bd 03f4 583d bfe7 b53c
00000340: e8e2 0cbe 06f2 e1bd c6e8 9c3c 5e69 1cbc
00000350: f6cc e5bd 31de 133e c316 ac39 acaf 47bc
00000360: 21e8 e23d ae59 2b3b 4549 8c3d 7fe4 62bd
00000370: 1659 95bd 1850 893d c3ef 673d 9b58 dc3d
00000380: 7fcb fcbc 8220 fe3d 80b7 d2bd 5247 14bc
00000390: 3e67 093d 4cf8 083e 87fc 54bd a0af 90bd
000003a0: 1eb6 e039 493a ca3c fddf 37bd 261e e63d
000003b0: f1c8 e53d 4e14 b7bb dfd9 23be b7e2 0bbd
000003c0: 9440 2cbe 0288 ebbc 0ae2 2dbd af58 063e
000003d0: 7e76 8e3d ad9d 9dbd eb08 02bc abe8 7f3d
000003e0: ff0f 0d3d f199 123e cdd2 2b3e 931e 0f3e
000003f0: c9a6 433d fc61 02be dd1f a3bd bb77 84bd
0.15471359 -0.030124912 0.13641681 0.13166386 -0.1310663 0.008258381 -0.11811648 0.008074912
0.13715334 0.13350733 0.040501162 0.002187321 0.10881237 -0.12789981 0.122737385 -0.14384933
-0.068305895 0.10436262 -0.073413685 -0.055786375 -0.058054898 0.07416922 -0.0520143 -0.07071776
-0.021372192 0.11262058 0.17881311 -0.18039382 -0.0660135 -0.033130735 -0.1444174 -0.13962178
0.11331202 -0.007710457 -0.102385566 -0.094899274 -0.07110268 -0.08755024 0.08266641 0.07516937
-0.038043365 0.16878156 0.016337723 -0.09172429 -0.15956406 -0.024330601 -0.082969695 -0.15676282
-0.13833931 -0.15401341 0.11870645 0.035573944 0.14710407 0.11606796 0.09011395 0.089196965
-0.07285559 0.054661736 -0.12031932 -0.008881748 0.17147 -0.17101277 0.14579485 0.05364053
0.11943938 -0.15109569 -0.045001924 -0.0408179 -0.12015982 0.030833766 -0.16685598 -0.1536808
-0.17578089 -0.02474621 0.101107076 -0.02025573 -0.10440362 0.102545485 -0.055557214 0.017797664
0.12291248 -0.026866928 -0.018680349 0.02372092 0.05929783 -0.1577869 0.112895444 0.1411805
0.16323657 -0.16917011 0.12868957 -0.1729083 0.10737096 -0.03514746 -0.027835816 -0.119126715
0.14390616 -0.12386683 0.035796985 0.05320336 0.015039876 0.045825228 0.026491046 0.11833973
0.14151193 -0.13813259 0.13035457 0.023960844 0.14260067 -0.025977299 0.15657182 0.020944685
-0.03301394 -0.07986178 0.06430359 0.06346688 -0.17306975 0.09041245 0.032889634 0.026753828
0.1717823 -0.109486066 -0.06845822 -0.11594052 -0.14621848 0.050185114 -0.13770026 -0.16756006
-0.0697067 -0.07081633 0.09206218 -0.086875334 0.0088540055 0.10677807 -0.032873612 -0.021706352
-0.003110154 0.17715493 -0.09103302 0.093048476 0.030687736 0.12808822 -0.11088987 -0.14576389
0.10787064 -0.1654698 0.13571465 0.16270259 0.17009467 -0.005927574 0.14202613 0.07739286
-0.08852194 0.04864491 -0.09369365 0.10909909 0.11812568 -0.0009059544 -0.09180337 0.104401074
0.113306955 -0.07880399 0.11382769 0.13965867 -0.028417096 0.15813385 0.054234624 -0.12504317
-0.12208068 0.040189356 -0.16518359 0.08456068 0.10439597 -0.04659091 -0.13994876 0.018034339
-0.13512522 -0.15978591 -0.0084013045 -0.040378213 0.1051604 -0.13783573 -0.12771803 -0.05301355
-0.04116106 -0.057496965 -0.15555307 -0.097186394 -0.03646022 -0.03671387 -0.1120459 0.011662453
0.14678918 -0.17854114 -0.04195364 0.07863793 0.05450393 -0.010690369 0.0884033 -0.14457557
-0.029918285 0.03514337 0.0118521685 0.08504743 -0.040501997 -0.090195954 0.052967083 0.022205232
-0.13758433 -0.110324904 0.019153964 -0.009546606 -0.11220734 0.14440228 0.00032823355 -0.0121878795
0.11079431 0.0026145983 0.068499126 -0.055393692 -0.072923824 0.0670473 0.05662514 0.10759088
-0.030858753 0.12408544 -0.10288906 -0.009050207 0.033545725 0.13375968 -0.05199864 -0.07064748
0.00042860297 0.024685996 -0.044891346 0.11236219 0.11219967 -0.0055871373 -0.1600108 -0.03415176
-0.1682151 -0.028751377 -0.042451896 0.13119768 0.06956194 -0.0769609 -0.0079366965 0.06247775
0.034439083 0.14316536 0.16779633 0.13976507 0.04776648 -0.1273269 -0.07965062 -0.06468149

net.1.bias f4 [32]
00000000: 33d5 35bd 9c58 15be 3add ec3d 9465 2ebe
00000010: 7195 34be 84d2 2e3d 2a3e 473d 8dee f33b
00000020: 4c5b 443d c409 c4bd 5c66 4cbe 7d93 943d
00000030: f1ff 8c3d 7744 a9bd c224 54bd 5003 5abe
00000040: 3f81 e139 fb16 25be 3b2b 5ebd f263 813d
00000050: 1e91 ebbd 185d 1ebc ef31 dd3d bd0b c7bc
00000060: 952d bd3d c5eb eebc 41e0 193e 6047 923d
00000070: e3d6 12bd 0e08 d03d 16ac 153e 6fe7 26be
-0.044392776 -0.14584583 0.11565633 -0.17030936 -0.17635132 0.042681232 0.04864327 0.007444209
0.04793863 -0.09572175 -0.19960922 0.07254694 0.068847544 -0.08265012 -0.051792867 -0.21290326
0.0004301164 -0.16122048 -0.054240447 0.06317891 -0.11502288 -0.00966575 0.1080054 -0.02429759
0.0923721 -0.029165158 0.15026952 0.0714252 -0.035849463 0.10157786 0.14616427 -0.16299222

net.4.weight f4 [1, 32]
00000000: e229 69bd 188d aebc d60f 34be 35ea 2a3e
00000010: 4817 8438 7059 0ebd 6c45 a4bd a73e 13be
00000020: 8d8c 813d fb08 dd3d 5d71 de3c ddd5 ee3d
00000030: 9974 b83d f350 c9bd 9653 da3d a43b 873d
00000040: 4fa0 123e 6045 66bc 7f08 aeb7 2a8a 273d
00000050: 906a 1ebd 8b52 293e ee81 0bbe 1bf6 d8bc
00000060: b85d 8439 e3b6 0e3e 2571 383a 33bf 6bbc
00000070: f9ed d8bd 3e3a 1ebd 1f91 debd 3b77 a63d
-0.05692471 -0.021307513 -0.17584166 0.16690905 6.298587e-05 -0.034753263 -0.08021054 -0.14379369
0.06325636 0.107927285 0.027153665 0.11661885 0.09006614 -0.09829893 0.10660474 0.066031724
0.14318965 -0.014054626 -2.0746373e-05 0.040903248 -0.038675845 0.16535394 -0.13623783 -0.02648454
0.00025246828 0.13936953 0.0007035903 -0.014388847 -0.10592265 -0.038629763 -0.108675234 0.0812821
