volume/checkpoints/latent2volume_best_yuan2.pt (torch, 204178 bytes, 9 tensors)

net.0.weight f4 [128, 2]
00000000: 58ff a3be 2dda a33e 08ff e1be 7024 a6bd
00000010: 74f0 7bbe 2d90 3f3e 5c26 b13e d999 c83e
00000020: 10a2 e03b 9d09 4c3c e913 30be 8062 d3bd
00000030: 82ca fa3e e44c c43c 15aa 7b3d 9239 f1bd
00000040: fc60 303e ea57 90be 6f61 81bc d9c4 89bd
00000050: b35d 11bd 3ace 9fbd f941 c6be 2f10 a93d
00000060: b32c 913e d5d0 8d3d 7c27 76be ac6e 9d3e
00000070: cd14 a73e d036 7fbe aa96 e2bd c5b9 dd3d
00000080: f28c de3e 03fb c53e 1563 ae3e d437 b5be
00000090: 48dc 033c d474 88bc 3c4c 90be e806 8c3d
000000a0: d898 ad3e 1ec8 dfbe 043a eb3b 4b39 803e
000000b0: 0108 cf3e 6893 09bf 7457 99be a0b1 0a3f
000000c0: 0cca bc3c 0ec7 2cbe 99dd b5be 0b0b 663e
000000d0: 8fdc 50be 8c73 a3be 8e80 91be 469f ab3e
000000e0: bff1 bf3e dd6b 2a3d acb0 093f 01cf 9bbe
000000f0: a6f5 1bbf 3368 513e 770b 963e 4f95 223e
00000100: f830 003d 1ae9 6dbe d7e3 10be 0171 81be
00000110: 368a a53e f6af 1cbe 752a 0f3d 89d3 7f3c
00000120: 9866 923b 4f3a e0bd 0084 9ebd 36d9 a23e
00000130: 3eec 853e 871a d0be e247 86be 1868 233e
00000140: 61ed a23e e4bd 98be 5dc6 ab3d 42ef 1abe
00000150: 2627 6cbd 8b4c 83bd 39a8 44bc c1aa b43c
00000160: 8131 b4be 43b5 e3be 2a44 1b3e 849c 81be
00000170: 441f 63be 202b d83e 9397 e53c 359d 23be
00000180: f11a febd 8e3c 80bc 0569 c23e e078 0abe
00000190: ce38 963e a6da 9abe fe8f 0e3d c45e 09bd
000001a0: a946 313e 9766 223e 45bd 143d 5601 b1bd
000001b0: d15d 823e f28f b8be 57e5 9f3b 56ec f73e
000001c0: 39bc a23e 5055 10bf e58d e8be d373 f93e
000001d0: 7e44 543d 7147 77bb 4d99 f8be eff6 bd3e
000001e0: 09ef 26be ead1 613d f2d3 84bd 469d a9bd
000001f0: 6a39 cb3c 932e e5bd 4ced c73e da97 57be
00000200: d6e8 cabe f2bc c43b 7986 723e d478 d2be
00000210: 5fbd 31be bf08 c8bd 8df2 573e cc8e 6cbe
00000220: 754e 83be b4ba 3f3e 8d56 4bbe 0e4d 1d3e
00000230: 9552 063e 0bdf a43d fea5 7ebe 05a6 56bd
00000240: fb31 053f 986d 0dbf 3ca0 f7bc e16e 1bbd
00000250: 15ed 8c3e 956c 85be 175d 9d3e 0d1e 673c
00000260: c7d6 213e 40d3 ce3e 826e 37bd 5227 c43d
00000270: 2c6c c73e 2811 abbe cb75 873e 07b9 ac3d
00000280: 7849 b43e b1e2 9f3e 4421 cd3d 2524 8fbd
00000290: 5384 c0be 320b c0be 3bc6 e3bd fb8e 0d3e
000002a0: d42b b23b 1f92 613e 48df 373e 26d2 533e
000002b0: 4bcb e13e d8f5 c43e 9910 80be d099 3cbd
000002c0: c710 ab3e dd22 b3be 19ec a7be ea7a 353d
000002d0: ffdf 30be 12f5 473e 9967 803e 46fe debe
000002e0: 0d5c ecbe 8351 213f 6474 f53e b0bb c7be
000002f0: 8766 153e 2390 b9be 363b c23e 6a2d a5bd
00000300: 84b6 cdbe 85e4 98be fb02 1fbe 7e28 3cbb
00000310: 3bb9 63bd 1983 9ebd aaa4 29be ee1e 863d
00000320: 346b 09bf cff7 e33e e08c 9a3e 8fe5 fcbd
00000330: fbeb afbe 37cc e43e d8d8 113f 970c a8be
00000340: 53ee df3e 7d06 493e f4e9 be3e 7847 f5be
00000350: 9383 66be ed58 513e 819f bdbe f79d ba3d
00000360: 8cd7 763e 1f33 01bf 0766 243d 084f f9bd
00000370: 24bc 93bd 99a7 873e 6c9a b23e de90 8fbe
00000380: 74c6 68be c8b4 2ebe 4b05 b6bd aa5d 683e
00000390: 672d b0be 87e5 62be c67f 2bbe 36ba 67bd
000003a0: e1d4 0abf 2b9d b83e 4015 62bd c16d e93d
000003b0: 5af2 12bf 1b63 58be fbea 1a3e 1d82 0bbe
000003c0: 7ccb eebe f0ba 0c3f 791f 83bc 8ece 7a3e
000003d0: a1b4 85be c0f1 4a3e 75ac b2bd 47da de3e
000003e0: f90d e63e b9ad 07bf b907 abbe 3484 b13e
000003f0: 75b7 bbbe 8826 b83e 4a2e e03e 6c36 c8bd
-0.3203075 0.32002392 -0.44139886 -0.08112419 -0.24603444 0.18707342 0.34599578 0.39179876
0.006855257 0.012453464 -0.17195095 -0.10321522 0.48982626 0.023962446 0.0614415 -0.11778559
0.17224497 -0.28192073 -0.01579353 -0.06726999 -0.03548975 -0.078030065 -0.38722208 0.0825504
0.28354415 0.06924597 -0.240385 0.30748498 0.32633057 -0.24923253 -0.11063893 0.10826448
0.43466908 0.3866807 0.3405997 -0.35394156 0.008048125 -0.01665727 -0.28183162 0.06837255
0.33905673 -0.43707365 0.007178547 0.2504371 0.40435794 -0.5374055 -0.29949534 0.54177284
0.023045562 -0.16872808 -0.35520628 0.2246515 -0.20396636 -0.31924093 -0.28418392 0.33519953
0.37489125 0.041606773 0.53785205 -0.3043137 -0.60921705 0.20449905 0.29305622 0.15877269
0.0312967 -0.23233452 -0.14149414 -0.25281528 0.3233201 -0.15301499 0.0349526 0.015614399
0.0044677965 -0.109486215 -0.07740021 0.31806344 0.261568 -0.4064524 -0.26226717 0.15957677
0.3182173 -0.29832375 0.08387444 -0.15130332 -0.057654522 -0.06411084 -0.012002998 0.022054078
-0.35194018 -0.4447423 0.15162721 -0.25314724 -0.22179896 0.42220402 0.028026378 -0.15977938
-0.124074824 -0.015653875 0.3797075 -0.13522673 0.29340214 -0.3024494 0.03480529 -0.03353764
0.17312111 0.15859447 0.036313314 -0.08642833 0.254622 -0.36047322 0.0048796344 0.48422498
0.31784227 -0.56380177 -0.45420757 0.4872118 0.05182313 -0.0037731791 -0.4855446 0.37102458
-0.16302122 0.05513183 -0.06485738 -0.08281951 0.02480765 -0.11190524 0.3904823 -0.2105402
-0.39630765 0.0060039693 0.2368411 -0.4110781 -0.17357396 -0.09767293 0.2108862 -0.23101348
-0.25645795 0.18723565 -0.19857235 0.15361425 0.1311744 0.080503546 -0.24868008 -0.052404422
0.5202939 -0.5524535 -0.030227773 -0.03794754 0.2752463 -0.26059404 0.30735084 0.014106286
0.15804587 0.40395546 -0.044783123 0.09577812 0.38949716 -0.33411527 0.26457056 0.08433729
0.35212302 0.3122764 0.100161105 -0.06989316 -0.37600955 -0.3750854 -0.11121794 0.13824074
0.0054373536 0.22028397 0.17956269 0.20685634 0.44100413 0.38468814 -0.25012663 -0.046045125
0.33411238 -0.34987536 -0.32797316 0.044306673 -0.17272948 0.1952708 0.2507904 -0.4355337
-0.4616398 0.63015 0.47940361 -0.39010382 0.14589892 -0.3624278 0.379358 -0.08065303
-0.4017831 -0.29861847 -0.1552848 -0.0028710659 -0.05559657 -0.07739849 -0.1656672 0.06548868
-0.53679204 0.44525 0.30185604 -0.12348472 -0.34359726 0.44687054 0.569715 -0.32822105
0.43736514 0.19631381 0.37287867 -0.4790609 -0.22511129 0.20444079 -0.37035754 0.09112161
0.24105662 -0.5046863 0.040136363 -0.12173277 -0.07213619 0.26495054 0.3488344 -0.28040212
-0.22731954 -0.1706115 -0.08887728 0.2269198 -0.3440964 -0.2215787 -0.1674796 -0.05657407
-0.5423108 0.3605741 -0.055196047 0.11397887 -0.5740105 -0.21131556 0.151287 -0.13623853
-0.4663962 0.54972744 -0.016006218 0.24492857 -0.2611437 0.19818783 -0.087243 0.43525907
0.44932535 -0.52999455 -0.3340433 0.34671175 -0.36663404 0.35966897 0.43785316 -0.09776005

net.0.bias f4 [128]
00000000: 7d47 96bd 8d10 1c3f de82 0ebe 2b9d 4f3d
00000010: 9079 f5bd 3842 533f 46db 34bf 732c fc3e
00000020: 70b3 cb3e 9163 e53e 641a 153f 52c0 433f
00000030: d37a 4dbf b78b e8be 95bc cf3d b643 493e
00000040: 6cc3 acbe 916f e1bd 99de 88be adf0 d83e
00000050: b372 0a3f da5a 4dbf 7513 cfbe b86e 11bf
00000060: d516 dcbe 21ac 1b3f aa3a babe 0895 cebe
00000070: 483a 3abf 6c69 513e 1b90 393f 9bed 27bf
00000080: 58c1 513f 078e 6c3f 4147 55bf 6c52 5ebe
00000090: dd56 1a3f 5e05 18bf 9fef 2c3f 064a 5a3e
000000a0: 7ed3 7dbe 8072 893e 4fbd ef3e e63e 86bb
000000b0: f2af 1f3f 02a6 223f 113e 573e 9eec b9be
000000c0: 1c71 3c3f 752e a13e a0b0 69bd b2ab d8bc
000000d0: 3998 dbbe 2e54 933e d0d7 153d f323 65bf
000000e0: ebfd 4e3f 650f b63d 560d f63d db6d 603e
000000f0: 7330 f83c 5148 1e3f 6681 bf3e e811 ffbe
00000100: b873 673c 6907 3b3f ef46 773f 57e1 2cbf
00000110: 2063 7c3e 5fa1 193f 8baf 113e 0a73 cdbe
00000120: 0016 7d3e 3270 d63e 7858 023f 59ac 73bf
00000130: d338 20bf 7017 993e cd1b 0d3e c1a4 083d
00000140: 93ad 03bf ef87 32be d018 b13d 1d70 1abe
00000150: 9c68 25bf 0c91 3abf ccad 393f 6c33 3f3f
00000160: 0813 1dbe e211 123f 088c 093e 9e5f 453f
00000170: 8f4f d9be b6c8 b2be 80bd 6a3f b748 6abf
00000180: 1cff ebbe d0bb 4abe cc7a 583f 9dab db3e
00000190: 40c7 5e3e 1969 113e b2c4 fd3e 7663 65bf
000001a0: 194c 4cbf f4af 2ebe 88e9 cc3e ed98 b33e
000001b0: a21e 89be c3ba f13e 5947 abbe 05d5 55bf
000001c0: 5768 65be 7985 1f3c d51f 563f 2afd 95bc
000001d0: 4f96 5c3f 9dea 39be ddcb 763f 266b ecbe
000001e0: b545 4cbf 0b04 27be 91dd 10bf c63b 65bf
000001f0: b00f 983d 16f4 823e fb8d 573f 8055 91be
-0.07337854 0.60962754 -0.1391711 0.050686996 -0.11986077 0.82522917 -0.70647085 0.49252662
0.39785337 0.44802526 0.58243394 0.7646533 -0.8026554 -0.45419094 0.10143391 0.19654736
-0.33742845 -0.11007608 -0.2673233 0.4237112 0.5408127 -0.80216753 -0.40444532 -0.5680957
-0.4298617 0.6080952 -0.36372882 -0.40348077 -0.7274518 0.20450372 0.7248551 -0.6559693
0.81935644 0.92404217 -0.8331185 -0.21711129 0.6028879 -0.5938319 0.6755313 0.213173
-0.24787709 0.2684517 0.46824118 -0.0040968535 0.62377846 0.6353456 0.2101977 -0.36313337
0.7361009 0.31480756 -0.05705321 -0.026449058 -0.42889574 0.28775162 0.036582768 -0.8950798
0.808562 0.08889655 0.120142624 0.21916907 0.03029654 0.61829096 0.3740341 -0.4981835
0.014126711 0.7305818 0.9659261 -0.6753134 0.24647188 0.6001186 0.1422712 -0.4012683
0.24715424 0.41882473 0.5091624 -0.95184857 -0.62586707 0.29900694 0.13780136 0.033360247
-0.5143673 -0.17434667 0.08647311 -0.1508183 -0.64612746 -0.72877574 0.7253082 0.7468784
-0.15339291 0.57058537 0.13432324 0.77099025 -0.4244351 -0.34918755 0.91695404 -0.91517204
-0.4609307 -0.19798207 0.84562373 0.42904368 0.21755695 0.14200248 0.4956413 -0.8960489
-0.79803616 -0.17059308 0.4002192 0.3507761 -0.26781183 0.472128 -0.3345287 -0.83528167
-0.22403084 0.009736412 0.8364232 -0.018309195 0.8616685 -0.18155904 0.9640482 -0.46175498
-0.79793864 -0.16310136 -0.56588084 -0.8954433 0.07424867 0.25576848 0.8420102 -0.28385544

net.1.weight f4 [128, 128]
00000000: 8129 95bd 512f 503c ae01 0dbd d13a 1b37
00000010: b124 31bd 3b41 763d 4dba 523d d611 b2bd
00000020: a474 1fbd db3c 46bd cfe6 933d 7a7e 9abd
00000030: 8965 8bbc 3739 85bd 25eb 883d 6b39 9cbd
00000040: 4135 5dbd e5a7 febb 0d77 b03d ef7e 22bb
00000050: fb01 74bc e8e3 1a3b 8754 c13d 7956 343d
00000060: 252f b23d 2212 0a3d 3d06 df3d 94bf 5d3d
00000070: 1f9a 8b3d 12df a5bd b918 cabc c7c7 b9bc
00000080: 4aee 6d3d 3598 0abd fb21 b33d 07fc bbbd
00000090: 1235 aebd 63ef 533d e4d8 ae3d d173 e53b
000000a0: 8882 643c 8963 76bd 791f b93d 8a39 84bd
000000b0: a6ac 9f3d c5aa 6fbd 62b2 dabc 4078 513c
000000c0: a110 b2bd 93bb 0abd ad89 2c3c 025f 0dbd
000000d0: 5fd8 033d 82b9 3fbc 374a 723d a4d0 eebc
000000e0: 06c3 b53d 99f4 f53c e15f 813d c0b0 b4bd
000000f0: 6bb3 733d 49a1 ec3c 1809 db3d 331c a0bd
00000100: 2000 56bd 237f a83d e6cf 8abd c194 c23c
00000110: a1cc 803c 205b 003d a0c3 c93c b9a9 dc3d
00000120: 81e3 ce3a 983b 53bd 5b4e 43bd c394 7d3c
00000130: cd13 8b3c ef31 f03c a903 69bd a0db 98bd
00000140: 97fa 9cbc a7aa e8bc c4e0 953d 42f7 103d
00000150: e08a b2bd 2a4e f0bc 4964 14bd c6e5 413d
00000160: 1d0f 3b3d 89d5 1fbd 824e 88bd ef11 6ebd
00000170: bda1 123d 56d5 a83d f2a5 c13d f438 dcbc
00000180: b795 eb3b 0a80 9f3d 69a2 853c fdf0 0abd
00000190: d101 29bd 9a33 78bd d906 833c 023f 58bd
000001a0: 2951 823b c0a8 96bc b567 793c d71b 81bd
000001b0: 3a6f f83c cf32 933d 88b1 89bd 1267 f9bb
000001c0: 9924 3bbd 9dac 92bd 181b 9e3d e40e 903d
000001d0: 0947 5c3d 3696 963c c112 0f3d 3b02 143d
000001e0: c171 8b3d ce94 0fbd 57bb fcbc 4506 b63b
000001f0: 6016 8f3c 7b87 9fbc 2660 a5bb 6a02 7a3d
00000200: 8ca0 4b3d b20f a6bd cfab 1fbc 89a2 b13c
00000210: b1e6 a13d 6888 04bd 9218 9fbd 16ff 91bd
00000220: c7a7 44bd da94 bdbd 0368 16be dd2e a73c
00000230: 990c 2dbc b0ea 71bc cc37 d23c c1fc fbbd
00000240: f80f 8b3d ae28 a13c e68a 9c3d 55fb 9e3d
00000250: 9591 8cbd f077 893d 1051 9f3c 4690 4ebd
00000260: 07b9 873c cc96 8439 620e 833d 9063 09bd
00000270: cc94 993d 124c 78bd 8ac5 c6bd bb19 18bd
00000280: f232 76bc e0bd 743d 3822 533c 91f0 133b
00000290: b247 5dbd 7aac 9e3c 8bc0 00bd a5cf 60bd
000002a0: 52eb 733d 23d8 a4bc e897 07bd ff0d 10bc
000002b0: d956 97bd 4024 57bd 506d 06bd 648c 003e
000002c0: 7092 f0bb 836b 7fbd 644f 74bc ba07 523c
000002d0: 3ced 8d3d 966b 51bd f127 2f3d 2ae4 06bd
000002e0: dcaf 3bbd 3cec dbbb 004c 1cbd d7bc b7bd
000002f0: c6a0 34bd b574 efbc 2168 163c 1110 583d
00000300: 6554 ee3d 98c3 27bd 7eab 41bd 19f7 b93b
00000310: b7d2 86bd 0186 e9bc 26ee 063a 45aa d13d
00000320: 402e e83c d9b2 14be 4002 18bb 6ccd bf3d
00000330: e8fa a43d 3823 03bd 51a1 44bd 040c 133d
00000340: 3b07 92ba a193 6e3c 42d7 a73d 2014 7f3c
00000350: 87b0 7fbd d615 633b 0f33 05bd 4e99 88bd
00000360: 1390 a33d 8aa0 a13c 989d ea3c 2e9e e0bc
00000370: c670 c03d 2947 763c eed8 d93b 8c5f 44bd
00000380: cf1b b1bc fb15 4e3d 1bfc bcbd c16f 7fbd
00000390: fe12 363d 4819 87bd df66 39bd 42ad 4ebb
000003a0: ded7 a7bd 3ae6 3e3d 9227 89bc d981 f93c
000003b0: 5d3d 7a3d f4f1 14bd dcab c83a c4fe 683d
000003c0: 7daf cabc 6fd9 673d 2097 313d c911 fabc
000003d0: 2fe4 9abd c93c 61bd 5455 dabb 3765 073e
000003e0: 8fde ab3d 772b 9d3d be45 053c f79f 6c3c
000003f0: 9ca2 4dbd cedf d9bd e1e9 2ebd 43d7 4ebc
-0.07283307 0.012706594 -0.03442543 9.252414e-06 -0.043247882 0.060120802 0.0514472 -0.08694808
-0.038929597 -0.04839788 0.072217576 -0.07543655 -0.01701619 -0.065050535 0.06685475 -0.07628139
-0.054005865 -0.0077714794 0.08616457 -0.0024794897 -0.01489305 0.0023634378 0.094399504 0.04402778
0.08700398 0.0337087 0.10889862 0.05413778 0.06816506 -0.08099188 -0.024669992 -0.02267827
0.05808858 -0.033836562 0.08746716 -0.0917893 -0.08506216 0.05174197 0.08537462 0.007002332
0.013947137 -0.060153518 0.09039206 -0.06456287 0.07796602 -0.058512468 -0.026696388 0.0127850175
-0.08694578 -0.03387029 0.010530871 -0.034514435 0.03218877 -0.011701943 0.059152808 -0.029152222
0.088750884 0.03002386 0.063171156 -0.08822775 0.05949728 0.0288855 0.10695094 -0.078178786
-0.052246213 0.082273744 -0.06777935 0.023752572 0.015722575 0.031336904 0.024629414 0.107745595
0.0015784354 -0.051570505 -0.047682147 0.015477362 0.016977215 0.029320685 -0.056888256 -0.07463765
-0.01916246 -0.028401686 0.07318261 0.035392053 -0.087178946 -0.029334147 -0.036228452 0.04733827
0.04566871 -0.039022002 -0.06655599 -0.05812257 0.035798777 0.082438156 0.0945548 -0.026882626
0.0071894783 0.077880934 0.016312795 -0.03392123 -0.041261498 -0.060596086 0.015994476 -0.052794464
0.00397696 -0.018391013 0.01522248 -0.06304138 0.030326474 0.07187425 -0.067233145 -0.007611164
-0.0456892 -0.071618296 0.077200115 0.0703409 0.053778682 0.018382173 0.034929994 0.03613494
0.06808806 -0.03505402 -0.03085105 0.0055549466 0.017466724 -0.019473782 -0.005046862 0.06103746
0.049713656 -0.081084624 -0.009745552 0.021683948 0.07905329 -0.03235665 -0.07768358 -0.07128732
-0.048011567 -0.09256907 -0.14688115 0.020408088 -0.010562086 -0.0147654265 0.025661372 -0.12304068
0.06790155 0.019672718 0.0764368 0.077627815 -0.06863705 0.067123294 0.019447833 -0.05043056
0.01656772 0.00025289354 0.06399228 -0.033542216 0.07499084 -0.06061942 -0.09705646 -0.037133913
-0.015026795 0.05975139 0.012886576 0.0022573809 -0.054023452 0.019369353 -0.031433623 -0.054885525
0.05955059 -0.020122593 -0.033103853 -0.008792399 -0.07389612 -0.052524805 -0.032819092 0.12553555
-0.0073416755 -0.06235839 -0.014911506 0.012819225 0.069300145 -0.051127993 0.0427627 -0.032932438
-0.04582201 -0.006711511 -0.038158417 -0.08971565 -0.044098638 -0.029230455 0.0091801 0.052749697
0.11637191 -0.040958017 -0.04728269 0.0056752083 -0.065831594 -0.02850628 0.0005147181 0.102375545
0.028342366 -0.1452135 -0.00231947 0.09365353 0.08055669 -0.03201601 -0.048005406 0.03590013
-0.0011141071 0.014561565 0.08195354 0.015568763 -0.06242421 0.0034650466 -0.032519396 -0.066698655
0.07986464 0.019729871 0.0286396 -0.027419176 0.0939651 0.015031614 0.0066481745 -0.047942683
-0.021619705 0.05031393 -0.09227773 -0.062362436 0.044451706 -0.06596619 -0.04526412 -0.0031536375
-0.0819547 0.04660628 -0.016742501 0.030457424 0.061093677 -0.036363557 0.0015310007 0.05688359
-0.024741882 0.056603845 0.043357015 -0.030526059 -0.07563054 -0.05498961 -0.006663004 0.13222204
0.08392059 0.07674306 0.008134304 0.0144424355 -0.050203905 -0.106383905 -0.042703513 -0.012624565

net.1.bias f4 [128]
00000000: 43a3 d3bd 9069 debd adc7 863d bae6 8bbb
00000010: e178 a2bd 5c0c 0ebe 73bb ad3d b840 f0bc
00000020: b86c a5bd b2de 1dbc 82b0 e43c d0f1 b0bc
00000030: 8bb1 1cbc 0c7e 97bc c0e3 0fbd 78d7 d8bd
00000040: cc6e 38bd 164a d6bd ffc0 d8bc 9259 4dbd
00000050: f1ca 953b 030a babc 93d8 2bbd 4180 abbc
00000060: 3e67 263d dcc1 a1ba 3bd1 d43c aebe 363d
00000070: 892b 0abd dfee 86bd 6cd4 d0bd 0edb b53c
00000080: adeb 853d 4305 d83b 94b2 80b9 2554 d5bc
00000090: 8525 9bbd 7617 56bb b6a0 2b3e 673b db3c
000000a0: fa31 02be ddae e9bc ddda 39bd ee2e 553c
000000b0: 5da2 063e 8044 05be a610 2dbd 8d85 b33c
000000c0: 5590 2fbe e8e6 a63b f26e a9bd 9cfc aabd
000000d0: b9ef 443d ab4e 0ebe 7881 bcbd c64c 0b3d
000000e0: 7d87 c2bd 8dd9 22bd cc09 a3bb 4877 fa3d
000000f0: 8ba4 f2bd 92d8 db3d 38db 5d3c ff42 113d
00000100: cba7 d8bc df71 d63c 1d03 da3c 884b 7cbc
00000110: b616 c1bd de01 b5bc 1085 63bc 0860 b6bd
00000120: 5830 f4bd cb75 6bbd 7c6f 203d ae74 9abc
00000130: d658 353d b786 c73d fe95 853d 8eef 413d
00000140: 7d13 babd 2cff b8bd 755f 88bd 3ffb 89bc
00000150: a853 bcbd 8377 fabb 96e8 273e 5cf6 a7bd
00000160: d3b9 2bbd e91e 4ebd b661 83bd 6e2f 48bc
00000170: a863 e6bd cb39 82bd e964 4ebd af7d 9b3e
00000180: e3f7 bbbd e20f 8fbd 5fa6 44bd f620 69bd
00000190: ebbf 5dbb 4759 9dbd 001b a83c 98c0 07be
000001a0: 643e 083d 6809 a8bd 3c05 98bd 4614 be3b
000001b0: e25e 83bd 5421 bfbc ad87 4ebd a60c 2dbe
000001c0: 125a 48bb ca41 a4bd 0cc8 e0bd 48ee e2bd
000001d0: 5252 93bd b76b 8fbd 47af 65bd 8856 eabc
000001e0: c8c5 e9bc 60b0 a7bb 4042 e8bc 4000 a53c
000001f0: 44e0 49bc ef53 8439 181c 03be 77c9 17bb
-0.10333874 -0.10859978 0.06581054 -0.004269448 -0.07933212 -0.13871902 0.08483019 -0.029327735
-0.08077377 -0.009635614 0.027916197 -0.02159968 -0.009563814 -0.018492721 -0.03512931 -0.105879724
-0.04502754 -0.104633495 -0.026459215 -0.05013425 0.0045713116 -0.022709852 -0.04195459 -0.02093518
0.040625803 -0.00123411 0.025978675 0.04461544 -0.033732925 -0.0658853 -0.10196766 0.02219918
0.06539092 0.006592424 -0.00024547114 -0.0260411 -0.07575516 -0.0032667792 0.16760525 0.026761724
-0.12714377 -0.028525764 -0.04537474 0.013011677 0.13147874 -0.13014412 -0.042252205 0.021914268
-0.17144902 0.005093444 -0.08273114 -0.08348963 0.04808018 -0.13897197 -0.09204382 0.034008764
-0.094984986 -0.039758254 -0.004975533 0.12229782 -0.1184779 0.10734667 0.013541035 0.035464283
-0.026447197 0.026177345 0.026612813 -0.015398867 -0.0942816 -0.022095617 -0.013886705 -0.08905035
-0.11923283 -0.057485383 0.03916882 -0.018854465 0.044274174 0.09742492 0.06522749 0.047347598
-0.09085748 -0.09033045 -0.06658832 -0.016843436 -0.09195644 -0.0076436414 0.16397318 -0.08201286
-0.041925263 -0.050322447 -0.06415121 -0.012218339 -0.11249477 -0.063586794 -0.050389204 0.30369326
-0.0917814 -0.06985451 -0.048010226 -0.0569162 -0.0033836316 -0.07683044 0.020520687 -0.13257062
0.033262625 -0.08204919 -0.074228734 0.0058007566 -0.06414582 -0.023331322 -0.05042236 -0.16899356
-0.0030571264 -0.08020361 -0.10975656 -0.11080605 -0.07193436 -0.07002967 -0.05607536 -0.028605714
-0.028536692 -0.005117461 -0.028351903 0.02014172 -0.0123215355 0.00025239537 -0.12803686 -0.0023160854

net.4.weight f4 [128, 128]
00000000: d816 48bd 2e3b 163d ac60 c9bc 74a9 fb3c
00000010: 9548 99bd bcf2 d8be b01c 7f3c 2754 adbd
00000020: 31ac 15bd a27b a23c ac1f 4bbd 0526 d5bc
00000030: 76f1 4d3d cef1 61bd 75a4 2b3c 315e 803d
00000040: 686e fb3b 26a2 e53b 73ca 2ebd 76f2 4bbd
00000050: ae77 94bd 2875 5dbd e7d2 25bd f279 05bd
00000060: c776 1b3c 37c8 9dbc a0d5 903d 7f39 80ba
00000070: b634 b33c 68a6 60bc 2b4c b4bd e631 2b3d
00000080: 7aa9 85bd 54df a93d 0219 bdbd a6f0 74bd
00000090: 1b76 413d bb72 af3d 8f8b 7dbe 94a9 84bd
000000a0: 7da7 923d 88dc 1dbc 3210 87bd 6c8e 81bc
000000b0: 622a 25bf bc6c 6c3d 300a 893b 0daa a63d
000000c0: b3ab 4dbd 5093 763d d82d 163c 84f5 cb3c
000000d0: 0f39 68bd dcfe 35bd 3317 d3bd 968c 923c
000000e0: c472 7e3d 6247 473d 4c26 6fbd bb76 75be
000000f0: 58e0 a2bd 5e9c 6fbe 9010 8cbd f2eb 0ebd
00000100: 2521 abbd 4bf1 a6bd 8702 a8bd 3a2c b3bd
00000110: ff31 c43c e65a df3d cf80 0cbc 3b8a a73d
00000120: a8b5 06bc 7e2d cebd 1ef5 243d 53ab bfbd
00000130: 575f cebc b036 56be 908c 79be 51c0 413d
00000140: 9530 603d 017a 013d 12bb a9bd 753a 34bd
00000150: bb04 8e3c 6eb7 5cbb 540b 86bd 4013 01bf
00000160: 9b6c 41bd d6aa a4bd 3e76 88bd 8cfb 4b3d
00000170: 8dd5 33bd 91ef 9e3d 124d 6bbd 745b 93bd
00000180: 2c41 f0bc 7e5d 4abc b29e b03c bf52 8a3d
00000190: 43c8 b0bb 89df 82bd e6cb f83a 0fdf 09bd
000001a0: 6f21 273d 8666 b8bd 32be 873d b217 083d
000001b0: 95ca 793d f30e 6abd fe5e c8bc f63d c9bd
000001c0: 0dd1 b73d fbf0 18bd 9877 343d 55fa 3cbd
000001d0: 8b62 00bd ec43 af3c 8a9b 4dbd 1a92 6dbe
000001e0: 122e e3bc 56f2 313d c6b3 0cbd 8bc2 6a3d
000001f0: f420 adbd b67f 5fbd a6b5 99bd 02c4 913d
00000200: b768 b43c a69f 9fbd f819 593c 725c 9fbd
00000210: a14b e5bb c234 0bbd 2753 813d 7abb d13c
00000220: 5dcc 083d 3921 9f3c 1ae4 c03c c24c f8bb
00000230: 5034 6cbd f73d 02bb 2226 d53b eb3f b63d
00000240: c048 b6bd 6eb9 943d 224a fdbd 6aa1 a63c
00000250: 4fdb 053d 57fd 2cbd dca5 31bd d887 79bd
00000260: d1bf 6bbd 2f30 dc3c 90ff 6e3d 00f7 19bd
00000270: 93ed 033b 0d7e ddbc 1136 3f3d 4784 073d
00000280: e59e 57bc 437d 5d3d 0afe bb3d a454 3dbd
00000290: bcd9 023d aecc 1e3d d7c0 573d 8ca3 1e3d
000002a0: 5c08 653c e1c1 34bd f5d5 9d3d f7fb 05bd
000002b0: 9da5 03bc 68b4 af3c 8c1a 19bd 3cf5 1d3c
000002c0: e9f1 fcbc dcc8 84bc c9e4 2f3d f5e1 813d
000002d0: 0910 95bc 1c3d 5a3d 2990 0bbd 2d22 923c
000002e0: 5494 c53c 5015 a33c 393f d93c 4b4c 18bd
000002f0: ca75 5e3c 60a5 e4bd 3b0d d5bc c980 413b
00000300: 96c8 9e3c e66b 72bd 9c0d 513d 4e9e 3bbd
00000310: df1e b03d 81f9 e9bb eec3 933d ff16 28bc
00000320: 2104 613d 2257 5ebd 9f1c 7d3d ee07 e2bc
00000330: 26d6 a93d 7c6d e8bc b303 7dbc e55f 3dbc
00000340: 9701 8b3d 68c7 12bc ba0f 823d 02b4 70bc
00000350: 0e44 0ebd 757c ebbc 1ab3 94bb a43d 20bd
00000360: 937f 0ebd b2fe 893d 5926 18bd dcb6 08be
00000370: ff26 9bbc 8041 b6ba 5a59 243d 575b b0bb
00000380: d12b 20bc bc85 78bd a28a 42bd 7618 fbba
00000390: 707f 823d 1539 233d 28f8 8c3d 7ad3 cb3c
000003a0: 68f7 6abd 07ed 88bd 2a0c 2c3d 831e 75bd
000003b0: 48ed ccbc de87 703d 30a2 6bbd 64e2 a0be
000003c0: 6d9a 583d c712 cebc 6527 bf3d a424 393d
000003d0: 18d0 98bc bff0 1cbd cbbd 853d f24a 25bd
000003e0: 80fa 60bb edf0 78bd 21b0 833c e6a5 dfbd
000003f0: 714c 3a3d 2345 12bd b6ab af3d fbf8 563d
-0.04884991 0.036677532 -0.02458223 0.03072045 -0.07484547 -0.42372692 0.0155708045 -0.084633164
-0.036541168 0.019834343 -0.04959075 -0.026019106 0.050279103 -0.055162244 0.010476221 0.062679656
0.0076730736 0.007007855 -0.04267354 -0.049791776 -0.072493896 -0.054066807 -0.040484335 -0.032587
0.009488768 -0.019260509 0.07071996 -0.000978276 0.02187572 -0.013711549 -0.088035904 0.041795634
-0.06526466 0.082945496 -0.092332855 -0.059799813 0.047231775 0.08566805 -0.24760269 -0.06477657
0.07160852 -0.009635098 -0.06594886 -0.015814982 -0.64517796 0.057720885 0.0041821226 0.08137903
-0.050212573 0.060199082 0.009166203 0.024897344 -0.05669504 -0.044432506 -0.10307159 0.017889302
0.062121168 0.04865206 -0.058386132 -0.23971073 -0.079529464 -0.23399493 -0.068390965 -0.034892984
-0.08355931 -0.08151492 -0.08203607 -0.0874867 0.023949621 0.109060094 -0.008575632 0.08180662
-0.008222021 -0.10067271 0.040272824 -0.093588494 -0.025191946 -0.20919299 -0.24370027 0.047302548
0.05473383 0.031610493 -0.08287634 -0.04400106 0.01733624 -0.0033678669 -0.065451294 -0.5042
-0.047222715 -0.08040397 -0.06663178 0.04980044 -0.04390483 0.077605374 -0.057446547 -0.07195178
-0.029327951 -0.012351392 0.021560047 0.06754064 -0.005394967 -0.06390292 0.0018981665 -0.03365999
0.04080337 -0.0900393 0.06628074 0.033225723 0.060984213 -0.057143163 -0.024459358 -0.09826271
0.0897542 -0.037339192 0.044059366 -0.046137173 -0.031343978 0.021394692 -0.05019716 -0.23200265
-0.027731929 0.043444 -0.034351133 0.057314437 -0.08453551 -0.054565154 -0.0750535 0.07117464
0.022022588 -0.077941224 0.01325082 -0.077813044 -0.006997541 -0.03398586 0.06314688 0.025602091
0.03339802 0.019425021 0.023546267 -0.0075775096 -0.057667077 -0.001987336 0.00650479 0.0889891
-0.08900595 0.072619304 -0.12367655 0.02034064 0.032679852 -0.04223379 -0.043371066 -0.060920566
-0.057555977 0.026878444 0.058349192 -0.037589073 0.002013062 -0.027037645 0.04668242 0.033085134
-0.013160442 0.054074537 0.091793135 -0.046223298 0.03194593 0.038769417 0.05267414 0.03873019
0.013979044 -0.04413021 0.07706825 -0.032710996 -0.008035091 0.02144833 -0.037378833 0.009640988
-0.03087707 -0.016209058 0.042942796 0.06341926 -0.018196123 0.053280935 -0.03407303 0.017838562
0.02411858 0.019907624 0.026519405 -0.037182134 0.013577888 -0.11164355 -0.026007285 0.0029526225
0.019382756 -0.05918493 0.05103837 -0.045805268 0.08599638 -0.007140339 0.07215105 -0.010259389
0.05493558 -0.054282315 0.061794873 -0.027591672 0.08292799 -0.028372519 -0.0154427765 -0.011558508
0.067874126 -0.008958675 0.06350656 -0.014691355 -0.03473287 -0.02874587 -0.004537952 -0.039121285
-0.034789633 0.067380324 -0.037145946 -0.13351005 -0.018939493 -0.0013905019 0.040124275 -0.0053819823
-0.009776072 -0.060674414 -0.04749549 -0.001915707 0.06371963 0.03984936 0.068832695 0.024881113
-0.05736485 -0.066858344 0.042003788 -0.05984355 -0.025015488 0.058723323 -0.05752772 -0.31422722
0.052881647 -0.025155438 0.09333686 0.04520096 -0.018653914 -0.03831553 0.06530341 -0.040354677
-0.0034328997 -0.06077664 0.016075196 -0.109203145 0.045483056 -0.035710465 0.08577673 0.05248354

net.4.bias f4 [128]
00000000: a55b 503d 8c51 8ebb cdaa f0bd e250 06bd
00000010: 973f 9cbd 345c 303d 0df6 b9be a870 903d
00000020: 5489 8dbd 3840 99be bd66 9ebe ce0f 853d
00000030: 7748 dbbd f1bf 14be b323 adbe 2203 8ebd
00000040: e50a c4bc 2f53 c93d d88e 8c3c 0afc b6bd
00000050: a76a d3be 5550 223d 3803 aa3d 8e0e d2be
00000060: 0939 64be 195f 9a3d 3d8f 11bd 3e18 8abd
00000070: 147c f5be f839 ebbd 6a2f c0bd ed5e 4e3d
00000080: 16ad db3d 83fa 0b3e 5953 463d 185c 22be
00000090: c4cd 6a3d 5967 8d3d b39a d8be 5fe6 37be
000000a0: c8a6 f4bd d1a0 e7be 78d1 103c 74a2 43bb
000000b0: f676 8cbd b975 723d 56f3 c6bd fc75 cbbe
000000c0: 7cec 833c fb97 f1be 5320 09bd e65f 2dbe
000000d0: e259 7dbe 2978 9b3d 3fe6 a4be d539 8dbe
000000e0: dd56 7bbd 8a99 aebd e635 e83c 97fd 3c3d
000000f0: 28bc 7bbe b380 0ebe 5613 8abe 47f0 1b3d
00000100: fabf b0be 4af2 63be 82d8 953c ac97 65be
00000110: 8e5a b43d b8be 283b ca18 4bbe b8aa 1dbe
00000120: 55a8 99be c15b e9be 6216 be3d 5545 15be
00000130: a39d 2abe 97e9 41bd 8a8a ffbe 295e aebe
00000140: 038a a8bd 193d 8b3d bcff cbbe 9ab2 193d
00000150: 863d 0cbe 951f 553d 4d24 c23b 5bd4 cabe
00000160: 3fa9 9fbb f85c 31be 4d93 04be 3515 c9be
00000170: 8b0f 9dbd 44e7 23be 9749 8c3d 23ef dc3d
00000180: 37e9 81bd ef49 553d cbf7 a5be 4a6c 883d
00000190: fab3 82bd b144 8cbe c42b 72bd e4f0 87bd
000001a0: c337 19be ff83 10be 8239 27bd 7a1f 2cbe
000001b0: 6ba8 55be 6ee3 96be 0cb0 dc3b c550 273d
000001c0: b623 53be 6187 83be de89 6f3c b6ea 893d
000001d0: 57fd 16bd 55a9 d5bc 655d c13d 3862 153d
000001e0: e781 aebe f762 bcbd abfd 9bbe 0ebc 6a3c
000001f0: 3d29 8e3d 40e1 42be 236b d8bd 6e97 213d
0.05086865 -0.0043432172 -0.11751328 -0.03279198 -0.07629316 0.04305668 -0.36320534 0.070527375
-0.06910959 -0.29931808 -0.30937758 0.06497155 -0.10707181 -0.14526345 -0.338163 -0.06934191
-0.023930976 0.09830319 0.017157957 -0.089347914 -0.41292307 0.03962739 0.08301395 -0.4102673
-0.22287382 0.0753767 -0.035536993 -0.06742905 -0.47946227 -0.11485666 -0.093840435 0.050383497
0.10726373 0.13669781 0.04841933 -0.15855443 0.05732514 0.069044776 -0.42305526 -0.17958973
-0.119458735 -0.4523988 0.008839004 -0.0029851468 -0.068586275 0.0591943 -0.097143814 -0.39738452
0.016103975 -0.47186264 -0.033478092 -0.16931114 -0.24741319 0.07591278 -0.32206914 -0.27583185
-0.061362136 -0.08525379 0.028346013 0.04614028 -0.24583495 -0.13916282 -0.26967877 0.038070943
-0.34521466 -0.22260395 0.018291716 -0.2242114 0.088063344 0.0025748443 -0.19833675 -0.15397155
-0.3001124 -0.45577815 0.09281613 -0.1457723 -0.16661696 -0.04734191 -0.49910384 -0.34056213
-0.08229449 0.06798763 -0.39843547 0.037523843 -0.13695344 0.052032072 0.0059247375 -0.3961514
-0.0048724706 -0.17320621 -0.12946816 -0.39273992 -0.0766898 -0.1600619 0.06849974 0.10787799
-0.0634331 0.05207246 -0.32415614 0.066612795 -0.06381984 -0.27396157 -0.05912377 -0.06637743
-0.14962678 -0.14112853 -0.040826328 -0.16808882 -0.20865028 -0.2947039 0.0067348536 0.040848512
-0.20619091 -0.25689223 0.014620272 0.06734221 -0.036862697 -0.02608172 0.09441642 0.03647062
-0.34083483 -0.091985635 -0.3046697 0.014327062 0.06941459 -0.19031239 -0.1056731 0.039451055

net.7.weight f4 [128, 128]
00000000: f315 ad3d 48ab 3cbe 8e18 973c 9c8a 8ebd
00000010: 7563 16be 36d0 1a3d 73b6 443b fe43 b5bc
00000020: 6e00 8e3a 58f7 f13d 584a bcbd b0d6 8fbd
00000030: ed8e b639 5653 f13c d6b8 a33d 2e16 81be
00000040: fb2f 44bd 3a01 46be 09f9 173d 5d28 4a3d
00000050: 8db7 a4bd 4344 a4bb 6b20 b93c 7595 c93b
00000060: ad7e de3d b13e 9abd 2983 8abd 7ce4 33bd
00000070: 8271 aebd 4d3b 603c 8c9f bcbc 3293 32bd
00000080: da28 37be a32c f83c 69f7 bdbc 345c 8ebe
00000090: b4cd 1ebd bf39 c63d e4d3 ddbd 6269 323e
000000a0: 7a78 313d c70a 2e3d 3a5d 233e 1481 82bd
000000b0: 8e03 c0bc 5363 30be 6de4 b4bd f433 e73c
000000c0: 5df3 263d 9f5e 8cbc f345 803d 5b06 56bd
000000d0: 3af5 03be 5528 623c 9bea 3a3d beb1 043d
000000e0: 3dba 21bd ae9f cbbc 7288 183d 64d0 87bd
000000f0: 3ca7 a7bd c521 36bd 99fc 4abe 8018 94ba
00000100: e9bd 323d 94b6 48bd b8ee 123d 0f2e 72bc
00000110: d422 fabb 0810 e6bc d221 4cbd 0e24 09be
00000120: 9fdc 983d b3e6 563d b163 b7bd 7db7 18ba
00000130: fee5 87bd 4114 383d 3dd0 45bc e636 56bd
00000140: 5cf6 b8bd ab79 5d3d 716c 9b3d 718c d83d
00000150: 9c0c 3dbd d567 993c d7ff 9dbc 60b3 6f3c
00000160: 2643 4b3d de78 3abd 77e9 a4bd 5b69 85be
00000170: cbe3 8dbe e974 23be 465e b5bc c6b0 32bd
00000180: ea6d cd3a 67a5 7cbc 59a9 163d a34e 6bbd
00000190: c5c3 94bd 57ce 023e 0519 a33d 2c18 84bd
000001a0: 829d ac3b ee75 22bd 7196 7c3d 082f 51be
000001b0: 4181 9b3c ecfc 01bc 6c67 0f3d 58d7 0fbc
000001c0: d581 b8bd 8b49 5fbd 6047 1cbe 6371 d73d
000001d0: ac11 273d 715a eabc 3037 e9bd 8a0a 993c
000001e0: eccf 603d da51 82bd babd 6e3c b23c 833b
000001f0: 296b 513d f71e c03c a7cf 52bd 4b49 fdbd
00000200: 3a25 b0bd 63da a9bd 6a7f 1cbd aeb3 073c
00000210: e71e 363c 9271 483d 2969 88bd d7e2 bfbd
00000220: ff05 343d 0a59 09be c157 8bbd 3e42 7cbd
00000230: b2fe 143c 9355 32bd b8f9 313d da5b 303d
00000240: ec5d f0ba 712f f6bc 5d4b aabd 762b 4fbd
00000250: 888f a8bd cc7d adbd cb87 363d e51a 85bd
00000260: 79bc dcbd a923 873d 7e12 82bd c469 613c
00000270: 9ee6 ebbc d4fd 153d 0976 69bc a89d 673b
00000280: 4f6f c6bd 2226 96bd ccc3 5f3d b4fa 2dbd
00000290: dac7 13bd 122b 18bd 5655 83bd 8384 aebd
000002a0: 4d5b 863d 335b 09be 37f6 253d 48f6 48bd
000002b0: 60d4 4ebd e906 8abc aa74 8e3d 93c9 fbbc
000002c0: 8292 dbbc ac5d 18bb f7fc bebd 9b44 97bd
000002d0: d107 a5bd 7604 213d 5947 81bc 8b13 843d
000002e0: 60aa 2cbc ff26 833d 7d81 89bd 6140 3abd
000002f0: 8a94 293d c01d 29bd b061 b9bd 31ba 0cbd
00000300: 3e72 5dbd 3294 d9bc 942d f9bc 75ee c1bb
00000310: d629 dfbd 4452 e2bd 6147 db3c 51b9 733d
00000320: 9d0b dd39 b540 27bd 6622 223d 7aa0 fdbb
00000330: 2611 6cbc 7b9a 98bd 264e 8bbd c1cd 163d
00000340: 18e8 eb3c 6f44 3d3b bf9a 9abc b11e c9bd
00000350: 8769 833d 0638 323d fcfa 84bd 01f5 57bd
00000360: 14c2 ea3b 1ae2 acbd d29a 02bd 7b28 4fbc
00000370: ab85 1b3d 748a 89bd 3d4f d6bc efbc b63c
00000380: e671 c93c a7cd 68bd d23d 84bd a68b 07bd
00000390: 11d7 17bd db62 c93c 9869 093c f900 43b9
000003a0: 19ea f33c 2b7c 8c3d 918a 24bc 614b 403d
000003b0: c5dc 69bd c646 153d d25f 26bd cc7a e1b9
000003c0: 6460 efbd 4e2c 0ebd dd00 1dbd e205 85bd
000003d0: 37d0 94bd 3083 293d a52b 913c 9d4f a7bd
000003e0: 84dc d33c 380f 52bc 73db 353d b72e 0d3c
000003f0: 7173 8dba bc6a babd 1cfb 893c 598c 05bd
0.08451452 -0.18424714 0.018444326 -0.069600314 -0.14686377 0.03779622 0.0030015975 -0.022127148
0.0010833868 0.11814755 -0.091938674 -0.0702337 0.00034820233 0.029458683 0.07994239 -0.25212234
-0.04789732 -0.19336405 0.037102733 0.0493549 -0.08042822 -0.0050130202 0.022598466 0.00615185
0.10864005 -0.07531489 -0.06763298 -0.04391907 -0.08517744 0.013686013 -0.023025297 -0.043597408
-0.17886677 0.030294722 -0.023189263 -0.2780472 -0.038770393 0.09678983 -0.108314306 0.17423013
0.043327786 0.042490747 0.15953532 -0.06372276 -0.023439195 -0.17225389 -0.08832631 0.028223015
0.040759433 -0.017134963 0.06263342 -0.052252155 -0.12886515 0.013803561 0.045633893 0.03239607
-0.03948425 -0.024856415 0.0372395 -0.06631544 -0.08186194 -0.0444658 -0.19822921 -0.0011298805
0.043638144 -0.049002245 0.03587219 -0.014781489 -0.0076335464 -0.028083816 -0.04983694 -0.1339266
0.07463955 0.052466106 -0.089545615 -0.0005825682 -0.066356644 0.04494119 -0.012073574 -0.05229845
-0.09031364 0.05407111 0.07589043 0.10573662 -0.046154603 0.018726269 -0.019287033 0.014630169
0.049624585 -0.045525424 -0.080523424 -0.26056942 -0.27712855 -0.15962566 -0.02213968 -0.043625616
0.0015673016 -0.015420294 0.036782596 -0.05744804 -0.072639026 0.12774025 0.079637565 -0.06449923
0.0052678 -0.039663248 0.06166691 -0.20428097 0.018982532 -0.007933836 0.03501074 -0.008779369
-0.090091385 -0.054513495 -0.15261602 0.10519674 0.040788338 -0.028607579 -0.11387479 0.018681783
0.05488579 -0.06363268 0.0145716015 0.004005038 0.051127587 0.023452265 -0.051467564 -0.12367495
-0.086008504 -0.08293607 -0.03820745 0.008282585 0.011115766 0.048936434 -0.06660683 -0.09369438
0.04395103 -0.13412872 -0.06803847 -0.06158661 0.009093927 -0.04353864 0.04345104 0.043056346
-0.0018338538 -0.030051919 -0.08315156 -0.050578557 -0.082305014 -0.084712595 0.044563096 -0.0649927
-0.10778136 0.065985985 -0.06351183 0.013758127 -0.02879649 0.036619022 -0.014249333 0.0035341773
-0.09689199 -0.07331492 0.054630086 -0.042475417 -0.036079265 -0.03715045 -0.06412761 -0.08521368
0.06560383 -0.13413696 0.040518012 -0.049062997 -0.050495505 -0.016848998 0.06955846 -0.030735767
-0.026803259 -0.0023249192 -0.09325593 -0.07386132 -0.080581315 0.039310895 -0.015781092 0.0644904
-0.010538667 0.06403922 -0.06714151 -0.045471553 0.041401424 -0.041288137 -0.090518355 -0.034357253
-0.054064028 -0.026559923 -0.030417241 -0.005918319 -0.108966514 -0.11050847 0.026767435 0.059502903
0.00042161057 -0.040833194 0.039583586 -0.0077400776 -0.014408385 -0.0745134 -0.06802015 0.036817316
0.028797194 0.00288799 -0.018872617 -0.09820307 0.06416612 0.04351046 -0.06493184 -0.05272389
0.007164249 -0.08441563 -0.03188593 -0.012643929 0.037969273 -0.06715861 -0.02616083 0.022306887
0.024590444 -0.05683675 -0.06457104 -0.033092164 -0.037070338 0.02458327 0.008386992 -0.00018597012
0.029774712 0.06859621 -0.010042802 0.046946887 -0.057095308 0.036444448 -0.040618725 -0.00043006835
-0.11688307 -0.03471022 -0.0383309 -0.06495263 -0.07266276 0.041384876 0.017721007 -0.08169482
0.025861986 -0.012821011 0.044398736 0.008617095 -0.001079185 -0.09102389 0.016843371 -0.03260455

net.7.bias f4 [128]
00000000: 5ed5 b83c ac9c 2fbe 44c0 853c 5837 f93c
00000010: 9931 153d 1a5d e33c 43f4 fb3c 34d6 033d
00000020: 4acc 15be 1064 1abe ac06 b8bb b0ff 0dbe
00000030: c8db 2fbb 2cb6 33be 2149 66bc 64bd 313d
00000040: fd8d 0b3d 403c 103d 5c32 13bd 4a09 0fbe
00000050: f3ba 1c3d ffd9 28be 5e45 003d 94b4 c6bd
00000060: 20b5 b7bc ddfc 043d dbfb 11be 8df2 2abe
00000070: 17b2 3ebc fbde 0f3d 7299 7abd 1c94 d3bd
00000080: 8c0f db3c d9f8 be3c b54d d73c aca4 013d
00000090: 26e3 683a 019d e0bc 4da7 dfbc 0066 a73c
000000a0: 11e7 263d 4f08 f1bd ff9a 373c 8632 e93c
000000b0: ff8b e2bd 62d6 bd3c 74c7 2abe 2f96 a3bd
000000c0: f77a 0c3d a8d8 0dbe eb1b bcbc 05d6 89bd
000000d0: c31b 1c3d a36a 38bd e428 b7bd 78f9 f7bd
000000e0: 1084 55bd b976 8cbd 4b4f 073d a0e6 f3bd
000000f0: e6e8 13be cec8 e63c 12cc ca3c b504 023d
00000100: ba47 003d eebc 63bd 2be2 ef3c 0d96 29be
00000110: b348 94bd 149e 00be 086b b5bc 19fb 8d3c
00000120: f124 c63c d8a4 02bd 4ba6 52bd 2c2b 14be
00000130: d217 71bd 2a94 ffbd 328e adbd e3a1 013d
00000140: 6086 c23c 1e13 5dbd 3fcb bfbd 8228 13be
00000150: 6077 053d 6345 6abd d23c 0bbe 5b67 113d
00000160: 389b fb3c f785 013d 6ae9 cd3c a8dc 263d
00000170: 4d6c 66be afbc 973a ebeb 173d d7f7 1fbd
00000180: 612e 3ebb 9ecf 803c 6d4a aebd 40b6 d3bc
00000190: 5b61 05bc 2e17 14be 4ca6 963c 881a c1bd
000001a0: 5956 14bd e966 c73c 50b4 483c edf0 4ebd
000001b0: 8751 523c 736e b0bc cedf aebd 724e b23c
000001c0: b595 123d c7e4 babc 514f ed3c bc2e 2a3d
000001d0: b6cf 0a3d cfc8 173d 7bb2 cc3b c201 1dbe
000001e0: 7a58 0dbd 7018 d9bc 222a 10be a0f2 0c3d
000001f0: 9f44 e0bd 481b be3c 2eb2 153d f103 243d
0.022562679 -0.1714961 0.016327031 0.030421898 0.036424253 0.027754355 0.030756122 0.032186702
-0.14628711 -0.15077233 -0.0056160297 -0.13867068 -0.002683388 -0.17549962 -0.014055521 0.043393508
0.034070957 0.03521371 -0.0359367 -0.13968387 0.038264226 -0.16489409 0.031316154 -0.09702411
-0.022425234 0.03246771 -0.14256231 -0.16694088 -0.01163914 0.03512476 -0.061181493 -0.10330984
0.026740812 0.02331202 0.02628217 0.031651184 0.00088839454 -0.027418615 -0.027301455 0.02043438
0.040747706 -0.11769163 0.011206388 0.028466474 -0.110618584 0.023173515 -0.16677648 -0.079876296
0.034296956 -0.13852179 -0.022962531 -0.06730274 0.038112413 -0.04502357 -0.08943346 -0.12108129
-0.052127898 -0.06858582 0.033034604 -0.119092226 -0.14444312 0.028171923 0.024755511 0.03174277
0.031318404 -0.0556001 0.02928265 -0.16561146 -0.07240429 -0.12560302 -0.022145763 0.017331647
0.024187537 -0.03189549 -0.05142812 -0.14469594 -0.058860607 -0.12479432 -0.08474387 0.031648528
0.023745716 -0.05397331 -0.09364938 -0.14370921 0.032584548 -0.05719508 -0.1359742 0.035498958
0.030713663 0.0316219 0.025135715 0.040737778 -0.22502251 0.0011576618 0.037090223 -0.039054718
-0.0029019343 0.015724 -0.08510289 -0.02584374 -0.008140887 -0.14461967 0.018389843 -0.094288886
-0.03621516 0.024341064 0.012250021 -0.050522733 0.01283682 -0.021537041 -0.08538781 0.021765921
0.035787303 -0.022814168 0.028968485 0.041548476 0.033889495 0.03705674 0.0062468625 -0.15332702
-0.034508206 -0.02650091 -0.14078572 0.034411073 -0.109505884 0.023206368 0.03654688 0.04004282

net.10.weight f4 [1, 128]
00000000: 45f4 08bc d7c0 373c ee5f 42bc 0e01 523c
00000010: 19d1 bd3b 16c1 6b3b 46db 4f3c cca4 fa3b
00000020: 517f c3bc 2ba0 6fbc fff6 7c3c dd1b 41bb
00000030: 522e 603d 463f 783c 9898 b93c da5b c63b
00000040: e224 343b e9a3 f63b bc27 4cbc 9fa3 ffba
00000050: 1af5 e43b 9b2f d7bc f21d aa3b 8c42 283d
00000060: 29d2 00bc b3c3 203c 3e3c d43b 2100 ea3c
00000070: 0138 9e3c 7ec5 d83b af97 58bc 0354 72ba
00000080: 6ce4 193c 4dc7 463c a27d 173c 0c95 243c
00000090: 85de 0abc d33d 26bc ee19 2bbc 01fa 323c
000000a0: 22c6 b33b 8410 82bb 1e97 223c b06d 893b
000000b0: d1a4 b9bc 722f 223c 7206 a4bc 6d5d 683a
000000c0: f8a4 093c 8359 82bc 4998 28bc 7095 923c
000000d0: 3808 df3b e6f6 29bc b318 0bbd 0036 05bd
000000e0: 7b24 6cbc 166f 31bc 805c d23b c55b debc
000000f0: 1de0 3ebd b6cb ed3b 1ed3 073c 9382 c6bc
00000100: a041 f03b 8052 35bc a434 323c 8a26 2cbc
00000110: b852 bbbb 302c 2ebc 6ab7 21bc 914e a3bc
00000120: c7b2 b03b b501 53bc 4d5c 35bc 62e0 563c
00000130: da1b 85bc e5e1 f23c 35ed 36bc 9d4e 693c
00000140: f8ab 273c e8ba 63bc d606 853a f7ec 3c3b
00000150: 0c6d 243c 1c69 efbb ba47 5fba 1702 3c3c
00000160: c84b 2d3c 2c5e 3e3c 8143 493c cee3 3b3c
00000170: 0cf7 0bbc 4353 e93c e763 373c 36b6 f2bb
00000180: ef3e cebb a2ec 3f3c b0b6 25bc df24 45bc
00000190: dc03 81bc 26aa c83b f907 ffbb fb08 4539
000001a0: 96b3 89bc 67ff e53b 4ca1 7d3c 6973 f6bb
000001b0: 795e 333c baea 1ebc e164 8a3c 0427 ee3b
000001c0: 36ac 133c 37ba d3bc 1bf5 103c 1ffb 72bc
000001d0: 83b8 da3b c382 abbc e3f5 7d3c e9cf 323c
000001e0: 4d9f 10bc d431 a0bb 2ae7 8e3c 2495 0e3c
000001f0: debd 41bc 2630 db3b 2afa 673c 45db fe3b
-0.00835902 0.01121541 -0.011863692 0.012817634 0.0057927486 0.0035973242 0.012686556 0.00764904
-0.02386442 -0.014625589 0.015439748 -0.002946607 0.054731674 0.015151804 0.02265577 0.00605343
0.0027487804 0.007526864 -0.012460645 -0.0019503719 0.006987226 -0.026267817 0.005191558 0.04107909
-0.007862606 0.009812283 0.006476908 0.028564515 0.019313814 0.00661534 -0.013219758 -0.0009244086
0.009392839 0.012132478 0.009246262 0.010045301 -0.008475904 -0.010146576 -0.010443194 0.010923863
0.0054862658 -0.003969254 0.009923724 0.004193984 -0.022661598 0.009899007 -0.020022605 0.0008864019
0.008401148 -0.015911823 -0.010290214 0.017893523 0.0068063997 -0.010373807 -0.033959102 -0.0325222
-0.0144129945 -0.010829708 0.0064197183 -0.027143368 -0.04660045 0.0072569503 0.00829008 -0.024232185
0.007332042 -0.011067033 0.010876808 -0.010507235 -0.005716648 -0.010630652 -0.0098703895 -0.019934924
0.0053924057 -0.012878825 -0.0110693695 0.0131150205 -0.016248632 0.02964873 -0.011164953 0.014239934
0.010233872 -0.013899542 0.0010149132 0.0028827765 0.010035764 -0.007306231 -0.0008517463 0.011475108
0.01057715 0.011619132 0.012284161 0.011467887 -0.008542787 0.028482085 0.011193252 -0.007406975
-0.0062941234 0.0117141325 -0.010114357 -0.012032717 -0.01574891 0.006123799 -0.007782933 0.0001879073
-0.016809266 0.0070189717 0.015480351 -0.007521082 0.010947817 -0.009699518 0.016893806 0.0072678346
0.009013226 -0.02584563 0.0088475 -0.01483038 0.0066748275 -0.020936375 0.0155005185 0.010913827
-0.008827043 -0.0048887525 0.017444212 0.00870255 -0.011825053 0.0066890894 0.014158765 0.007777604
