volume/checkpoints/latent2genera_best.pt (torch, 18805 bytes, 10 tensors)

net.0.weight f4 [32, 4]
0	0x3e750fe2	0.2393184
1	0xbe2892e3	-0.16462283
2	0x3e862895	0.26202837
3	0x3e01f749	0.12691988
4	0xbf2a4710	-0.6651468
5	0xbf13ba04	-0.5770571
6	0x3e26b5b1	0.16280247
7	0x3ee66d73	0.45005378
8	0x3e6852d1	0.22687842
9	0x3f60c25b	0.8779656
10	0xbea2f08d	-0.3182415
11	0xbd0d6113	-0.034516405
12	0x3e7e173c	0.2481355
13	0x3eb03d32	0.34421688
14	0x3f8d89df	1.10577
15	0xbf060f3b	-0.5236699
16	0xbf457f89	-0.7714773
17	0xbf544394	-0.82915616
18	0xbf469212	-0.77566636
19	0xbd77ae97	-0.060469236
20	0x3ddfd0a9	0.10928471
21	0x3e1f6c86	0.15568742
22	0xbf825048	-1.018075
23	0x3ec3bde9	0.38230827
24	0x3f5810d9	0.8440071
25	0x3e6d3678	0.2316531
26	0x3f47a375	0.7798379
27	0xbf4ccd8d	-0.80001146
28	0x3f8d639d	1.1046025
29	0xbf4f9997	-0.81093735
30	0x3e8781ab	0.26466116
31	0xbf01b75c	-0.5067041
32	0xbea84379	-0.32863978
33	0xbe45da89	-0.19321646
34	0xbf616b39	-0.88054234
35	0xbf414d9d	-0.75509053
36	0x3f85f581	1.0465547
37	0x3eb7ee92	0.35924202
38	0xbf262f4a	-0.6491591
39	0xbf036176	-0.5132059
40	0xbf402ee9	-0.7507158
41	0x3ec70841	0.38873485
42	0x3f6accc1	0.9171868
43	0x3f210b3e	0.6290778
44	0x3eb2be11	0.34910634
45	0xbf14483d	-0.57922727
46	0x3f0e78e6	0.55653226
47	0x3f236add	0.63834935
48	0xbf30262b	-0.6880824
49	0x3e78c09f	0.24292229
50	0xbe98830d	-0.29787484
51	0xbe7b5111	-0.24542643
52	0x3eb2e205	0.34938064
53	0x3eddc5a6	0.43314856
54	0xbf1a8797	-0.60363144
55	0x3d970c3d	0.07375381
56	0x3e766d35	0.24065097
57	0xbefacf8c	-0.4898647
58	0x3f9c5af8	1.2215261
59	0xbedb16cc	-0.4279083
60	0x3ecb7696	0.3973891
61	0x3f08c996	0.53432596
62	0xbee39724	-0.4445125
63	0x3f37c41e	0.71783626
64	0x3f082cf4	0.53193593
65	0xbdf87c44	-0.12133077
66	0x3e1743ab	0.14771907
67	0x3f1c739a	0.61113894
68	0x3f3026e5	0.6880935
69	0xbefdbe34	-0.49559176
70	0xbee75171	-0.45179322
71	0x3f12da9c	0.5736482
72	0xbe169cd9	-0.1470827
73	0x3e8fa02c	0.2805189
74	0x3eca12a6	0.39467353
75	0x3ed7b2d9	0.42128637
76	0xbebe75e7	-0.37199327
77	0x3f314683	0.6924822
78	0x3eff3267	0.4984314
79	0xbe115ef0	-0.14196372
80	0x3e8b6f4a	0.27233344
81	0xbf6fa453	-0.93610114
82	0xbd8d3d10	-0.068964124
83	0x3eaef2ba	0.3416956
84	0x3db10de1	0.08645225
85	0x3d7cb3d3	0.06169493
86	0xbefdb87a	-0.49554807
87	0x3e2cb606	0.16866311
88	0x3f25cd80	0.64766693
89	0x3f18beba	0.59666026
90	0xbf1893fc	-0.59600806
91	0xbf2e2d2f	-0.68037695
92	0xbf7913dc	-0.9729593
93	0xbe3dde14	-0.18541747
94	0x3ef59c51	0.47970822
95	0x3df2c4a0	0.118539095
96	0x3f1b8c88	0.6076131
97	0x3eabdcda	0.33566934
98	0xbf47bbaa	-0.7802073
99	0xbea4001c	-0.32031333
100	0x3f25e4f9	0.6480251
101	0x3f2e686e	0.681281
102	0x3f0846ac	0.53232837
103	0x3e863b91	0.2621732
104	0xbcc0e2e3	-0.023545688
105	0xbe5a609f	-0.2132592
106	0xbf80d9d1	-1.0066472
107	0xbeb66f4d	-0.3563179
108	0x3e10d5c5	0.14144047
109	0xbde06038	-0.10955852
110	0x3eb37fbb	0.35058388
111	0xbf50d01d	-0.81567556
112	0x3e508aa1	0.20365383
113	0xbf46723f	-0.77518076
114	0x3eb123d5	0.3459765
115	0x3e9fd57d	0.31217566
116	0x3f189ed0	0.5961733
117	0xbf343620	-0.7039509
118	0x3aef44f5	0.0018254804
119	0x3db1c17f	0.086794846
120	0xbf5806f6	-0.8438562
121	0xbf14c0f0	-0.581069
122	0xbf3d2732	-0.7388793
123	0xbeb708fa	-0.35749036
124	0x3f0bebb0	0.54656506
125	0x3e4894de	0.19588038
126	0x3e0ac015	0.13549836
127	0x3f0653d3	0.52471656

net.0.bias f4 [32]
0	0xbe949223	-0.29017743
1	0x3ef0754b	0.46964487
2	0xbebb3346	-0.36562556
3	0x3e7961f0	0.24353766
4	0x3d96958b	0.07352742
5	0xbe8db46b	-0.2767671
6	0x3e32ea0b	0.17472093
7	0xbe8c2d07	-0.27378103
8	0xbece4371	-0.4028583
9	0x3ec195a5	0.37809482
10	0xbdb27fa8	-0.08715755
11	0x3ecbb38b	0.39785418
12	0xbec2a3ab	-0.38015494
13	0xbeedeb5b	-0.46468624
14	0x3e560e3a	0.20903865
15	0x3e8307dc	0.25591934
16	0x3e98eb4d	0.2986702
17	0x3e665025	0.2249151
18	0x3eacad0d	0.33725777
19	0xbe9e220d	-0.30885354
20	0x3e404703	0.18777089
21	0x3e741027	0.23834287
22	0x3ceb6469	0.028734403
23	0x3e402b18	0.18766439
24	0xbecc4492	-0.39896065
25	0x3e58194a	0.21103397
26	0xbd1ee2d4	-0.03879054
27	0xbe180428	-0.14845335
28	0x3c4e6fa4	0.012599859
29	0x3ee8efc2	0.4549542
30	0xbebf0f54	-0.37316382
31	0x3dcc930d	0.09988985

net.1.weight f4 [32, 32]
0	0x3e373837	0.17892538
1	0x3ee4f897	0.4472091
2	0xbe97deac	-0.29662073
3	0xbe9bd760	-0.30437756
4	0x3e317b9d	0.17332311
5	0x3ddc5f7a	0.10760398
6	0xbf03d3ad	-0.51494867
7	0xbed74693	-0.4204603
8	0xbf036c64	-0.51337266
9	0xbe93aad2	-0.28841263
10	0x3f39b740	0.7254524
11	0x3f0e8149	0.55666023
12	0xbe2a068c	-0.1660406
13	0xbe916845	-0.28399864
14	0x3cbb7a67	0.022885514
15	0x3e8f78fb	0.28021988
16	0x3eadab41	0.3391972
17	0x3e9ff6b3	0.31242904
18	0x3e1231f6	0.14276871
19	0xbc8be09e	-0.01707488
20	0x3e6b15be	0.22957513
21	0xbd1760bf	-0.0369575
22	0xbf45f290	-0.77323246
23	0x3ec2945a	0.38003808
24	0xbeabf436	-0.33584756
25	0x3ccf3561	0.025294008
26	0xbe9cc6b4	-0.30620348
27	0xbf30f5dc	-0.6912515
28	0x3e42c4c6	0.19020376
29	0x3d953ade	0.07286619
30	0x3e0629ca	0.13101879
31	0x3e1d8ba4	0.153853
32	0xbc20b472	-0.0098086465
33	0x3e4870fc	0.1957435
34	0xbe56cc3a	-0.20976344
35	0x3f38fdb0	0.72262096
36	0x3d7e659c	0.06210862
37	0xbf02b183	-0.5105211
38	0x3f8ef607	1.1168832
39	0x3e67100b	0.22564714
40	0x3e268c76	0.16264519
41	0x3e6fb406	0.23408517
42	0xbe6ec987	-0.23319064
43	0xbe7864db	-0.24257223
44	0x3dc754d8	0.097329795
45	0xbe16cfe4	-0.14727741
46	0x3f594996	0.8487791
47	0xbf0f03b0	-0.55865
48	0xbec3b6d1	-0.38225415
49	0xbe75b35a	-0.23994198
50	0xbc5e1113	-0.0135538755
51	0xbe2b053b	-0.16701214
52	0x3c9475bc	0.018122546
53	0x3d3df491	0.046375815
54	0x3e26dc99	0.16295089
55	0x3e2837aa	0.16427484
56	0xbd3aea27	-0.04563346
57	0xbe343a39	-0.17600335
58	0x3d17ae41	0.037031416
59	0x3f6d0793	0.9258968
60	0xbd3ec078	-0.04657027
61	0x3e407db6	0.18797955
62	0x3ddbe998	0.10737914
63	0xbe81d9f1	-0.2536159
64	0xbe083407	-0.13301097
65	0x3d3062ea	0.04306308
66	0x3e11c83d	0.14236541
67	0xbd5f7c11	-0.05456168
68	0xbd97ae0d	-0.074062444
69	0xbdabd7a0	-0.083907366
70	0xbee33110	-0.4437337
71	0xbf010f0c	-0.50413585
72	0xbef3a599	-0.47587278
73	0xbe283de7	-0.16429864
74	0x3ec95ae2	0.3932715
75	0x3d98fda3	0.07470252
76	0x3e07daee	0.13267109
77	0xbe246c33	-0.160569
78	0xbeefcb9f	-0.46835038
79	0x3f052c3c	0.5202062
80	0x3e066476	0.1312426
81	0xbcc2c0c8	-0.023773566
82	0x3ee384ed	0.44437352
83	0x3dba6479	0.09101195
84	0xbea22018	-0.3166511
85	0x3e2df94e	0.16989633
86	0xbe5e678b	-0.21719186
87	0x3d2b07d3	0.04175551
88	0xbe7e4df3	-0.24834423
89	0x3e3e4107	0.18579493
90	0xbe37316a	-0.17889944
91	0xbf3f351a	-0.746904
92	0xbe70771d	-0.23482938
93	0xbcddd5ae	-0.02707943
94	0xbe9e3b0a	-0.30904418
95	0x3c28324d	0.010265899
96	0x3e1f9fe1	0.15588333
97	0x3d9aba62	0.07555081
98	0xbcd3064d	-0.02575984
99	0x3e2a4022	0.16626027
100	0xbc2759c3	-0.010214272
101	0xbd124139	-0.035706732
102	0xbe83f9da	-0.2577656
103	0xbe44747e	-0.19185063
104	0xbe9bc53f	-0.30423924
105	0xbf3fa1d3	-0.748563
106	0x3fb1c0ed	1.3887001
107	0x3e3470d5	0.17621167
108	0xbcf783cd	-0.030214215
109	0x3d034f53	0.03205807
110	0x3ea066de	0.3132848
111	0xbe8b7294	-0.27235854
112	0xbbd49406	-0.0064873723
113	0xbd5aeaa9	-0.053446446
114	0x3e2f04a4	0.17091614
115	0x3e3ba0ce	0.18323061
116	0x3e08e27f	0.13367651
117	0xbe55c9a1	-0.20877697
118	0xbf876dae	-1.0580347
119	0x3e7af352	0.24506882
120	0xbe80f92a	-0.25190097
121	0xbe2cf79a	-0.16891328
122	0xbf55608e	-0.83350456
123	0xbd18cd5f	-0.037305232
124	0x3dc1e8c3	0.09468224
125	0xbd9bf897	-0.07615774
126	0xbc6e6396	-0.01455011
127	0xbdaf5397	-0.08560865
128	0xbe284cef	-0.16435598
129	0x3e790be9	0.2432095
130	0xbd47292e	-0.048623256
131	0x3e9711de	0.2950582
132	0xbded1498	-0.115761936
133	0xbd060359	-0.032718036
134	0x3ed54769	0.41656044
135	0xbd1c1c63	-0.03811301
136	0xbebb5838	-0.36590743
137	0x3e8d6e04	0.27622998
138	0xbe9873ab	-0.29775748
139	0x3ee48be3	0.44637975
140	0xbdf094c6	-0.11747126
141	0xbe8584f3	-0.26077995
142	0x3ea987c3	0.3311139
143	0x3e2106ef	0.15725301
144	0x3ed56c7b	0.41684327
145	0x3e90a535	0.28251043
146	0x3e4c03f5	0.19923384
147	0xbebfdb69	-0.37472084
148	0x3e0db6bb	0.13839237
149	0xbd5a9264	-0.053362265
150	0xbdd1266c	-0.102124065
151	0x3d1460dd	0.03622519
152	0xbdc6ff1a	-0.097166255
153	0x3e1137bc	0.14181417
154	0xbea101b8	-0.31446624
155	0xbc5dd857	-0.013540349
156	0x3e6ede81	0.23327066
157	0x3e8c2896	0.27374715
158	0xbeacffde	-0.3378896
159	0x3e46e942	0.19424918
160	0xbd407184	-0.046983257
161	0x3c99a660	0.018756092
162	0x3dfd2a46	0.12361579
163	0xbdf84e5c	-0.12124321
164	0xbe327f3f	-0.17431353
165	0xbc50c3f0	-0.012742028
166	0x3e10f60d	0.14156361
167	0xbd9a73dd	-0.075416304
168	0xbd021e5c	-0.031767234
169	0xbdc6b5f2	-0.09702672
170	0x3e21cd35	0.15800937
171	0xbdcd810e	-0.10034381
172	0x3dd0f4d6	0.10202949
173	0x3e009d05	0.12559898
174	0x3d90c490	0.07068741
175	0xbcc07fd0	-0.023498446
176	0xbe266b84	-0.16251951
177	0x3e037c39	0.12840356
178	0xbda88d6c	-0.08230099
179	0x3c8bbb98	0.017057225
180	0xbdc63d19	-0.09679622
181	0x3ddedee2	0.10882355
182	0xbd8a9d15	-0.06768242
183	0xbdfa5b30	-0.12224424
184	0xbcca9210	-0.024727851
185	0xbe28d406	-0.1648713
186	0xbdc2e18e	-0.095156774
187	0x3e2104bb	0.15724461
188	0x3e2bbfdd	0.16772409
189	0xbe0ad7b9	-0.13558854
190	0x3e0dad2f	0.13835596
191	0x3db2d4c6	0.087319896
192	0xbe0d8a5d	-0.13822313
193	0xbd26dbd4	-0.04073699
194	0xbcca8584	-0.024721868
195	0xbe342229	-0.17591156
196	0xbe0e6aa1	-0.13907863
197	0x3e076733	0.13222961
198	0x3ee85f80	0.4538536
199	0x3d9a12d4	0.075231224
200	0x3e0f7a86	0.14011583
201	0x3ebc2d2e	0.3675322
202	0xbeb9635b	-0.36208615
203	0xbc5a5dfc	-0.013328072
204	0xbe93beba	-0.2885645
205	0x3e87c8fe	0.26520532
206	0xbec36362	-0.3816176
207	0x3ec1fc0e	0.37887615
208	0x3eaba6bb	0.33525643
209	0x3ec47e1c	0.38377464
210	0x3d9c16e4	0.076215535
211	0xbe5529a3	-0.20816664
212	0xbe088a30	-0.13333964
213	0x3e82dc70	0.25558805
214	0x3ee5d8f9	0.448921
215	0xbef24125	-0.47315326
216	0x3e6ac660	0.22927237
217	0x3dcbb7ba	0.099471524
218	0x3ce7db88	0.028302923
219	0xbe7145cd	-0.23561783
220	0x3a6bdee5	0.00089977524
221	0x3e543887	0.20724688
222	0xbee96f77	-0.45592853
223	0x3eae8f12	0.3409353
224	0xbcf471f9	-0.029839503
225	0x3dc62cae	0.09676491
226	0x3e0e7ef2	0.13915613
227	0x3d707965	0.05870952
228	0xbe6942e2	-0.2277942
229	0x3cdd1313	0.026986634
230	0xbe9f2ddc	-0.31089675
231	0xbeaff450	-0.34366083
232	0xbe829aac	-0.2550863
233	0xbd556628	-0.052099377
234	0x3ec65484	0.38736355
235	0xbd93b6c7	-0.072125964
236	0xbe3ec92f	-0.18631433
237	0x3da9b86b	0.08287128
238	0xbe853966	-0.26020354
239	0x3e50a1e7	0.20374261
240	0x3e5dac00	0.21647644
241	0xbe0247e6	-0.1272274
242	0x3e894d08	0.26816583
243	0xbb9353e2	-0.0044960836
244	0xbe8619f9	-0.2619169
245	0x3e379e6c	0.17931527
246	0xbe582029	-0.21106018
247	0x3d63b2fd	0.05559062
248	0x3b216e24	0.00246323
249	0x3e3b2f94	0.18279868
250	0xbe8b4777	-0.2720296
251	0xbefe4a99	-0.49666288
252	0xbe205120	-0.15655947
253	0xbdd6910b	-0.104768835
254	0xbe4b8362	-0.19874337
255	0x3e4c6679	0.19960965

net.1.bias f4 [32]
0	0x3e5191bc	0.2046575
1	0x3e634e78	0.22197902
2	0xbd55fc79	-0.05224273
3	0xbe147f33	-0.14501648
4	0x3c1d37c6	0.009595817
5	0xbb418040	-0.0029525906
6	0x3e12c74f	0.14333843
7	0x3e4ac918	0.19803274
8	0x3d9963fa	0.07489772
9	0x3e946bf2	0.28988606
10	0x3d1025af	0.035192188
11	0xbc49eb75	-0.012324204
12	0xbe2e1edd	-0.17003961
13	0xbcb915dd	-0.022593433
14	0xbd0eeaed	-0.03489201
15	0x3ddd66da	0.10810633
16	0xbc64e0b3	-0.013969588
17	0xbe1b9ba2	-0.15196088
18	0xbc96e7ec	-0.018421136
19	0xbe0933f8	-0.13398731
20	0x3e67c92b	0.22635333
21	0xbdb5cc70	-0.08876884
22	0x3d1da767	0.038489725
23	0xbd3e95d6	-0.046529613
24	0x3e356114	0.17712814
25	0xbe1f4f67	-0.15557633
26	0xbe9dca8e	-0.308186
27	0x3d91172e	0.07084499
28	0x3e0cdab2	0.137553
29	0x3e97120f	0.29505965
30	0xbcf7b23d	-0.030236358
31	0xbcd37fec	-0.025817834

net.3.weight f4 [32, 32]
0	0x3e916bec	0.2840265
1	0x3de61078	0.1123361
2	0x3d95c13c	0.07312247
3	0xbf319842	-0.6937295
4	0xbe98ffdd	-0.29882708
5	0xbda6ea8d	-0.08150206
6	0x3dc32efc	0.09530446
7	0x3cac2fa8	0.021018818
8	0xbcdf6127	-0.027268006
9	0x3e0e9098	0.13922346
10	0x3e3a3859	0.18185557
11	0x3ea03c26	0.3129589
12	0xbe083be7	-0.13304101
13	0xbd9a5d82	-0.075373664
14	0xbbe47a4f	-0.006972588
15	0x39fc7cdc	0.00048158213
16	0xbdd3c903	-0.10341074
17	0x3ebd177a	0.36931974
18	0x3e01e49a	0.12684861
19	0xbdbe1c38	-0.09282726
20	0xbd252ab4	-0.040323928
21	0x3e343aa6	0.17600498
22	0xbe60a2bb	-0.21937077
23	0x3e06b083	0.13153271
24	0x3e7663f8	0.24061573
25	0x3dc43946	0.095812365
26	0xbe95aeb1	-0.2923484
27	0x3e98d983	0.29853448
28	0x3dd7ac10	0.10530865
29	0xbf0543f3	-0.5205681
30	0x3f0cf955	0.5506795
31	0x3d9312cd	0.0718132
32	0xbd93f950	-0.07225287
33	0xbe97502b	-0.2955335
34	0x3e6e57b0	0.23275638
35	0x3f7d8ae3	0.9904005
36	0x3eafb27e	0.34315866
37	0xbe1a97a6	-0.15096912
38	0x3c510647	0.012757844
39	0x3eab242e	0.3342604
40	0x3df1ef30	0.118131995
41	0xbdc26dac	-0.094935745
42	0xbafbd4a7	-0.0019213156
43	0x3dec6c48	0.115440905
44	0x3e8660a2	0.262456
45	0x3e1ebec5	0.1550246
46	0x3e361680	0.1778202
47	0x3bbab79e	0.0056981584
48	0x3f49b873	0.7879707
49	0x3ea3a6df	0.3196325
50	0x38044e02	3.1543903e-05
51	0x3da0036a	0.07813151
52	0x3ddb2a59	0.107014365
53	0x3f1d8af1	0.6154013
54	0xbc3bf2e1	-0.011471481
55	0xbd05ce5c	-0.032667503
56	0xbe24a3eb	-0.16078155
57	0x3ed49b40	0.41524696
58	0x3f688a88	0.9083638
59	0xbd4d717a	-0.050157048
60	0x3d3c1f8d	0.045928527
61	0x3e900d25	0.28135028
62	0xbda0e262	-0.07855679
63	0x3ec433bd	0.38320723
64	0xbf8085de	-1.0040853
65	0x3e2101a2	0.15723279
66	0xbf0f3f58	-0.5595603
67	0x3e8fe0b0	0.2810111
68	0x3e1f5b25	0.15562113
69	0xbdcc1715	-0.0996534
70	0x3c904edf	0.017615734
71	0xbdc88084	-0.097901374
72	0x3d1dce2f	0.03852671
73	0x3d6a2b9f	0.057170507
74	0x3c6c55b0	0.014424726
75	0x3f23bcab	0.6395976
76	0x3e375ee9	0.17907299
77	0x3e5355d8	0.20638216
78	0x3e0a6ed0	0.13518834
79	0xbe908d97	-0.28233024
80	0x3fa6f6b8	1.3044043
81	0x3f036457	0.5132498
82	0x3e931b32	0.28731686
83	0xbd6885aa	-0.056768097
84	0xbeff54b6	-0.49869317
85	0x3d3f5563	0.04671229
86	0xbd82a752	-0.0637957
87	0x3e04e1b6	0.12976727
88	0xbde0d23c	-0.10977599
89	0x3f22a6c9	0.63535744
90	0x3f7a13f5	0.976867
91	0xbe1eb06c	-0.15496987
92	0xbeb1be82	-0.34715658
93	0x3deccc6d	0.115624286
94	0x3d0b9821	0.03408063
95	0x3e537022	0.20648244
96	0x3e50ca10	0.2038958
97	0xbf959b24	-1.168797
98	0xbe9029a5	-0.28156772
99	0xbf1d76dd	-0.61509496
100	0xbe5d0396	-0.21583399
101	0x3ce01de8	0.02735801
102	0x3e5f05f6	0.21779618
103	0xbfe0baf2	-1.7557051
104	0x3d4de186	0.050263904
105	0xbe52b31b	-0.20576136
106	0xbf2c4905	-0.6729892
107	0xbdcfcae4	-0.1014612
108	0x3dbd8e1a	0.09255619
109	0x3e138449	0.14405932
110	0xbed3302a	-0.41247684
111	0x3e334d8c	0.1751005
112	0xbe7f6945	-0.24942501
113	0xbf9490d7	-1.1606702
114	0x3ef261bb	0.47340187
115	0xbdca9974	-0.0989255
116	0x3e7a2726	0.24428996
117	0x3f069544	0.5257151
118	0xbe32231f	-0.1739621
119	0x3de24492	0.11048235
120	0x3e31df65	0.17370375
121	0xbe8f79dc	-0.2802266
122	0xbee04cdc	-0.4380864
123	0xbec49553	-0.38395175
124	0x3e7cc059	0.2468275
125	0xbf443bec	-0.76653934
126	0xbf776d48	-0.96651125
127	0xbf6e2df4	-0.9303887
128	0x3ebf9840	0.37420845
129	0x3ecdca4d	0.40193406
130	0x3d1378e7	0.036003973
131	0xbf2b1eb6	-0.66843736
132	0xbe3a040a	-0.18165603
133	0xbdef6ef7	-0.11691087
134	0x3e0bb93c	0.1364488
135	0xbe99a927	-0.30011865
136	0x3c892517	0.016741319
137	0x3eb2b4cc	0.34903562
138	0x3d5e15d9	0.054220054
139	0xbe1aea16	-0.15128359
140	0xbd0e3cf6	-0.034726106
141	0x3d7f16f1	0.062277738
142	0x3e1c0a23	0.15238242
143	0x3dad47b5	0.08460943
144	0xbf73446a	-0.95026267
145	0xbe5f40d1	-0.21802069
146	0xbe275250	-0.16339993
147	0xbe2a5533	-0.16634063
148	0xbd6b9389	-0.057513747
149	0xbeda07eb	-0.42584166
150	0x3ea8691b	0.3289269
151	0x3cd8e695	0.026477138
152	0x3e963f5d	0.29345217
153	0xbec58c7e	-0.3858375
154	0xbf334556	-0.70027673
155	0x3d0b1cf2	0.03396315
156	0x3e1addc2	0.15123656
157	0xbee5558f	-0.4479184
158	0x3f07b30e	0.5300759
159	0xbe0cac2a	-0.1373755
160	0x3df15fe6	0.11785869
161	0xbdcf1e28	-0.10113174
162	0x3def8a8d	0.11696348
163	0x3e272b4d	0.16325112
164	0x3e5b4909	0.2141458
165	0xbe05758e	-0.13033125
166	0xbe96b255	-0.29432932
167	0x3d771317	0.06032094
168	0x3e1454a7	0.14485417
169	0xbe2eb68b	-0.17061822
170	0x3f090f22	0.53538716
171	0xbd925308	-0.07144743
172	0xbca4ef3c	-0.020133607
173	0xbdd1692a	-0.102251366
174	0x3d8fa978	0.070147455
175	0xbc8815aa	-0.016611893
176	0x3e9afc37	0.3027055
177	0x3f24b240	0.6433449
178	0xbdf26b79	-0.11836905
179	0xbd9454cb	-0.072427355
180	0x3c2abe8a	0.010421405
181	0x3f0900b8	0.5351672
182	0x3e64c947	0.22342406
183	0xbdc8a547	-0.09797149
184	0x3d881e59	0.06646413
185	0xbe0eb3f3	-0.13935833
186	0x3fb32aec	1.3997474
187	0xbe8fc41f	-0.28079316
188	0x3e8b985b	0.27264675
189	0x3d966634	0.073437124
190	0x3dfe4c08	0.124168456
191	0x3f81ec3c	1.0150218
192	0xbf0cad57	-0.54951996
193	0xbd81eb7e	-0.06343745
194	0xbf278355	-0.6543477
195	0xbe378cb8	-0.17924774
196	0xbd4c0de5	-0.04981794
197	0x3d213b7c	0.03936337
198	0xbdcbdde2	-0.0995443
199	0xbe894bc6	-0.26815623
200	0x3cbf4241	0.023347022
201	0x3e16e371	0.147352
202	0x3ead7876	0.33880967
203	0xc0100ecf	-2.2509038
204	0x3bf40ca7	0.0074477973
205	0xbd359834	-0.044334605
206	0x3e2f615e	0.17126986
207	0xbea1a156	-0.31568402
208	0xbbbe62fd	-0.00581014
209	0x3e837eeb	0.25682768
210	0xbf477189	-0.77907616
211	0xbe21e933	-0.15811615
212	0x3ead346e	0.33829063
213	0xbf710423	-0.9414694
214	0x3e85907a	0.2608679
215	0xbd68cb6c	-0.056834623
216	0xbe3ad7b7	-0.18246351
217	0xbfcc4898	-1.5959654
218	0xbe96bb92	-0.2943998
219	0x3eb4c93d	0.35309783
220	0xbed3c9f9	-0.4136503
221	0x3d605569	0.054768953
222	0xbf975c75	-1.1825091
223	0xbdb2ee97	-0.08736914
224	0xbd82cb5f	-0.06386446
225	0x3e0fb4c7	0.14033805
226	0xbe1b5a7f	-0.1517124
227	0xbdd9c1a8	-0.1063264
228	0xbe255d32	-0.16148832
229	0xbe1f4414	-0.15553313
230	0xbd4d4810	-0.050117552
231	0x3b4dbe00	0.0031393766
232	0xbde3f87e	-0.111313805
233	0x3d21a0a4	0.03945984
234	0x3d47e550	0.048802674
235	0xbd0ffca4	-0.035153046
236	0x3cffd2f0	0.031228513
237	0x3cf65060	0.030067623
238	0xbe1b06e4	-0.15139347
239	0xbd825ca5	-0.06365327
240	0x3e015683	0.12630658
241	0xbe1204d7	-0.14259659
242	0xbc9cc258	-0.01913564
243	0x3db1609a	0.086610034
244	0xbd86c8ca	-0.06581266
245	0x3d3cdc28	0.046108395
246	0xbda9bec0	-0.08288336
247	0x3dde8692	0.10865511
248	0x3e0c3599	0.13692321
249	0xbd0472ac	-0.032335922
250	0xbd20b2a0	-0.03923285
251	0x3d75b4c0	0.05998683
252	0xbe0dba91	-0.138407
253	0x3dce602e	0.100769386
254	0xbd8dba2b	-0.06920274
255	0xbd0f33d0	-0.03496152

net.3.bias f4 [32]
0	0xbd2924e8	-0.041294962
1	0xbdf14abf	-0.11781835
2	0xbe576090	-0.2103293
3	0xbda3e57d	-0.08002756
4	0x3df6db95	0.12053601
5	0x3e02cd88	0.12773716
6	0x3ee69d3f	0.45041844
7	0xbde9368d	-0.11387358
8	0xbd871aad	-0.06596885
9	0x3e15a9b6	0.14615521
10	0x3e016c36	0.12638935
11	0xbd7e0e11	-0.062025134
12	0x3e35da65	0.17759092
13	0xbdf96720	-0.12177873
14	0x3cb6d0f1	0.022316428
15	0x3e3d4d2e	0.18486473
16	0x3e95e5e7	0.29276964
17	0x3daf5dfd	0.08562849
18	0x3c3999c2	0.011328163
19	0x3e0e7b7a	0.1391429
20	0x3d0ccad3	0.034373116
21	0xbd672f2b	-0.056441467
22	0xbe8054c3	-0.25064668
23	0xbdaa55c1	-0.083171375
24	0xbd45ca00	-0.048288345
25	0xbe332f65	-0.17498548
26	0x38aa2842	8.11373e-05
27	0xbe189c00	-0.1490326
28	0x3de2ddc3	0.11077454
29	0x3e3c7da7	0.18407308
30	0xbc8e8d59	-0.017401384
31	0x3ddf3f8e	0.10900794

net.5.weight f4 [32, 32]
0	0x3e39ce0a	0.18145004
1	0x3ddb2936	0.1070122
2	0x3f653031	0.8952666
3	0xbf4fafd4	-0.8112767
4	0xbe8d1459	-0.27554587
5	0x3e375707	0.17904292
6	0xbef94a80	-0.4868965
7	0x3e0c925f	0.13727711
8	0x3db6fe45	0.08935217
9	0x3f0bcf36	0.54613054
10	0x3ed0bcab	0.40768942
11	0x3e6e0e6e	0.23247692
12	0x3dc4a49b	0.096017085
13	0x3dd886fb	0.105726205
14	0x3f31bc4a	0.6942793
15	0xbe817be6	-0.2528984
16	0xbf5ac0ce	-0.85450447
17	0x3e8280cd	0.25488892
18	0xbd97855f	-0.073984854
19	0x3e45abbc	0.19303793
20	0xbe259068	-0.16168368
21	0x3d0ad366	0.03389301
22	0x3e857e77	0.26073048
23	0x3c1b8331	0.009491728
24	0x3e0e74c7	0.13911735
25	0x3dbdbaa9	0.09264118
26	0x3f12c675	0.5733407
27	0x3f93c252	1.1543677
28	0x3c7bbbea	0.015364626
29	0x3d120e35	0.03565808
30	0xbdfabb5d	-0.12242768
31	0xbdcf2bbb	-0.10115763
32	0x3e02175d	0.12704225
33	0x3defaf25	0.11703328
34	0xbec7f26b	-0.39052138
35	0xbfa5229f	-1.290119
36	0x3ec46388	0.38357186
37	0x3ec9dc3a	0.39425832
38	0xbfde33ef	-1.7359599
39	0x3d98b04e	0.074555025
40	0x3e04f020	0.12982225
41	0x3e31d043	0.17364602
42	0xbed02a37	-0.40657207
43	0x3e9913ba	0.29897863
44	0xbe34aaae	-0.17643234
45	0x3d3eadf9	0.046552632
46	0xbe3eee8d	-0.18645687
47	0x3e5d0a30	0.21585917
48	0x3ea5f724	0.32415116
49	0x3e45bc02	0.1931
50	0x3df7cc2f	0.12099492
51	0x3e31e16a	0.17371145
52	0x3e981c12	0.29708916
53	0xbc1331b4	-0.008984018
54	0x3d8f4686	0.06995873
55	0xbe16bf60	-0.14721441
56	0xbf3e1a21	-0.7425862
57	0xbe1d4b16	-0.15360674
58	0xbf5adc50	-0.8549242
59	0xbf4662ed	-0.774947
60	0xbefaaf7e	-0.48962015
61	0xbe3f2cb1	-0.18669392
62	0xbc0b6bbe	-0.008509574
63	0x3e3a3522	0.18184331
64	0xbe01f524	-0.1269117
65	0x3cbceaa9	0.023061113
66	0x3d75ddeb	0.06002609
67	0xbe1d70a8	-0.15375006
68	0xbdfd7579	-0.12375922
69	0xbe1e7867	-0.15475617
70	0x3d95f9d3	0.07323041
71	0xbd8a5837	-0.06755107
72	0xbe24dc1f	-0.16099595
73	0xbe4e13c8	-0.20124733
74	0x3db889a8	0.09010631
75	0xbdae1bf7	-0.085014276
76	0x3d8c0322	0.06836535
77	0x3ddc7b12	0.10765661
78	0x3d265074	0.04060407
79	0xbd7fb8c0	-0.06243205
80	0x3d91f927	0.071276
81	0xbd89c2f7	-0.0672664
82	0xbb6a03b6	-0.0035707778
83	0xbd32fcdd	-0.04369818
84	0x3ca66799	0.020313071
85	0xbe0c73bd	-0.13716026
86	0xbe07d49a	-0.13264695
87	0x3d310d3c	0.043225512
88	0xbda79c47	-0.081841044
89	0xbe052bd1	-0.13004996
90	0xbde098d9	-0.109666534
91	0xbe5fe9e4	-0.21866566
92	0x3dd5b96f	0.10435759
93	0x3deda155	0.11603037
94	0x3dea464c	0.11439189
95	0x3d02b1f8	0.031908005
96	0xbdb0d2df	-0.086339705
97	0x3e8df000	0.27722168
98	0x3f783e0f	0.96969694
99	0xbf3847bb	-0.7198445
100	0xbe9ebe20	-0.3100443
101	0x3d4c6ea0	0.049910188
102	0xbedaa954	-0.42707312
103	0x3dd333ae	0.103125915
104	0x3e9d58f4	0.30731928
105	0x3e903524	0.28165543
106	0x3cc8af23	0.024497574
107	0x3e6fe38b	0.23426645
108	0x3ddadc04	0.10686496
109	0x3da96233	0.08270683
110	0x3f615d65	0.88033134
111	0xbe816aaa	-0.2527669
112	0xbf2b3743	-0.668812
113	0xbd97f842	-0.07420398
114	0xbd95a90a	-0.07307632
115	0x3e6a126c	0.2285859
116	0xbe0e7b72	-0.13914278
117	0xbe019af4	-0.12656766
118	0x3e90ada4	0.28257477
119	0xbe249b5b	-0.16074888
120	0xbc86155f	-0.016367612
121	0xbc75cc9f	-0.015002399
122	0x3ebce531	0.3689361
123	0x3f6de149	0.9292188
124	0x3dce51e8	0.10074216
125	0x3e494b41	0.19657613
126	0xbc536e37	-0.012904695
127	0xbd87cbe3	-0.06630685
128	0xbe41cf13	-0.18926649
129	0x3de2e07f	0.110779755
130	0x3f4e7af4	0.8065636
131	0xbf3b2fe0	-0.73119926
132	0xbe97dec6	-0.2966215
133	0x3eabce7c	0.33555973
134	0xbec3e6fd	-0.38262168
135	0xbe21443f	-0.1574869
136	0x3edd4ad8	0.43221164
137	0x3eec8f67	0.46203157
138	0xbd48d36b	-0.04902975
139	0xbd90bff9	-0.07067866
140	0x3e945b5f	0.2897596
141	0xbe05949a	-0.13044968
142	0x3f41fd62	0.75777256
143	0xbed2d79a	-0.41180116
144	0xbef7006f	-0.48242518
145	0x3e278967	0.16361009
146	0xbd883e0e	-0.06652461
147	0x3e86c150	0.2631936
148	0xbd88abaa	-0.06673367
149	0xbe0a0572	-0.1347864
150	0x3ec3a8b3	0.38214645
151	0x3d88dbea	0.0668257
152	0xbd786567	-0.06064358
153	0xbd25f387	-0.04051545
154	0x3ebf46a1	0.37358573
155	0x3f833364	1.0250058
156	0x3e2562e8	0.16151011
157	0x3d38e73a	0.04514239
158	0x3c821466	0.015878867
159	0x3e37352c	0.17891377
160	0x3d3e09fc	0.04639624
161	0x3ea3a06c	0.3195833
162	0x3f4f60d7	0.8100714
163	0xbeef50d5	-0.46741357
164	0xbebadb31	-0.36495355
165	0x3e852fdf	0.26013085
166	0x3e5597d3	0.20858698
167	0x3cbe3f08	0.023223415
168	0x3ef9469f	0.48686692
169	0x3e1a9640	0.15096378
170	0x3e87c4a4	0.26517212
171	0xbdb3ed9a	-0.08785553
172	0xbd87c822	-0.06629969
173	0xbe320486	-0.17384538
174	0x3ef70027	0.48242304
175	0xbf029317	-0.5100569
176	0xbe0c37f6	-0.13693222
177	0x3e5a377a	0.21310225
178	0x3d0317d6	0.032005154
179	0x3e196f14	0.14983779
180	0xbe3f5584	-0.18684965
181	0xbe2aae4e	-0.16668054
182	0x3e6c96ef	0.23104452
183	0x3de478db	0.11155864
184	0x3bfe723c	0.0077650826
185	0x3e33214d	0.17493172
186	0x3ec42fd9	0.38317755
187	0x3facaf21	1.3490945
188	0x3d423e8b	0.047422927
189	0x3d59c2e8	0.053164393
190	0x3ea347e9	0.318908
191	0x3e0bdacb	0.13657682
192	0x3d68fc6a	0.056881346
193	0x3e8706c9	0.26372364
194	0x3f333894	0.70008206
195	0xbf43889d	-0.7638033
196	0xbeabc5fc	-0.33549488
197	0xbd6ff41e	-0.058582418
198	0xbf5e7def	-0.8691091
199	0xbdadb23b	-0.084812604
200	0x3ecf73c8	0.40518022
201	0x3e084bc4	0.13310152
202	0xbd8c3e4d	-0.068478204
203	0xbd130f15	-0.035903055
204	0x3d8ed30e	0.06973849
205	0x3cd7d7fd	0.026348108
206	0x3f5f3739	0.8719364
207	0xbea80855	-0.32818857
208	0xbf31bd01	-0.6942902
209	0x3c5c3a30	0.013441607
210	0x3d47d431	0.048786346
211	0x3dd1c316	0.10242288
212	0x3d8e5f4f	0.069517724
213	0x3d85ddd5	0.06536452
214	0x3e967af4	0.2939068
215	0xbdcaa106	-0.09893994
216	0x3e55d939	0.20883645
217	0x3daea676	0.08527844
218	0x3e1a59aa	0.15073267
219	0x3f907207	1.1284798
220	0x3e873537	0.26407787
221	0x3dad0c39	0.08449597
222	0xbe380a0f	-0.17972587
223	0x3ddf23cd	0.108955
224	0x3cb4f1b7	0.022087915
225	0x3c310038	0.010803275
226	0x3f3a3c0d	0.7274788
227	0xbf19a83c	-0.6002233
228	0xbc889a99	-0.01667528
229	0x3e7dfe79	0.24804105
230	0xbeb87549	-0.3602698
231	0x3e276e6d	0.16350718
232	0x3f8ed73b	1.1159433
233	0x3ee6fd94	0.4511534
234	0xbdc4e1e4	-0.09613398
235	0x3e8df143	0.2772313
236	0x3e1482ff	0.14503096
237	0x3df4cb36	0.11952822
238	0x3fa47831	1.284918
239	0xbe8b72d8	-0.27236056
240	0xbe65830d	-0.22413273
241	0x3c611f9a	0.013740445
242	0x3e4c6d05	0.19963463
243	0x3ebc74bd	0.36807814
244	0x3db2216b	0.0869778
245	0x3e09608f	0.1341574
246	0x3eb7013d	0.35743132
247	0xbe332304	-0.17493826
248	0xbd390fc5	-0.045181055
249	0xbe0e8016	-0.13916048
250	0x3ddf563e	0.10905121
251	0x3f83182f	1.0241755
252	0x3e8cedf3	0.2752529
253	0x3e9e4d8f	0.30918548
254	0xbdc92bf8	-0.098228395
255	0x3edb1f00	0.4279709

net.5.bias f4 [32]
0	0x3e146673	0.14492206
1	0xbe84dfb1	-0.25951913
2	0xbe3590ca	-0.17731014
3	0xbc8cfe85	-0.017211208
4	0xbc12c596	-0.008958241
5	0xbe29d986	-0.16586885
6	0x3e6ee083	0.23327832
7	0xbe002ca3	-0.12517028
8	0xbe4d35dc	-0.20040077
9	0xbe12c7a3	-0.14333968
10	0xbdb8e92e	-0.090288505
11	0xbd0f8f89	-0.035048995
12	0x3e19512f	0.14972375
13	0xbda490bc	-0.080354184
14	0xbddddf57	-0.10833614
15	0xbcf4acf8	-0.029867634
16	0x3e385a19	0.1800312
17	0x3ea5ee21	0.3240824
18	0x3eb6e3d8	0.35720706
19	0x3e622efc	0.22088236
20	0x3c882de6	0.016623449
21	0xbe54a7a1	-0.2076707
22	0xbdcb546e	-0.09928213
23	0x3d56c55a	0.052434303
24	0xbd36babc	-0.044611678
25	0xbe31cbb5	-0.17362864
26	0x3d7989ac	0.06092231
27	0xbcc1a557	-0.02363841
28	0xbe25df44	-0.1619845
29	0x3d5b9eb0	0.053618133
30	0x3df26f3e	0.11837624
31	0xbb096600	-0.0020965338

net.7.weight f4 [8, 32]
0	0x3f05cc1b	0.52264565
1	0xbf7982e7	-0.97465366
2	0xbd8b5a19	-0.06804294
3	0x3f264cdb	0.6496102
4	0x3f1e5e34	0.6186249
5	0x3eb7b142	0.35877424
6	0x3ed873bd	0.422758
7	0x3db9f8b6	0.09080641
8	0x3d179ea3	0.037016522
9	0x3f0ed145	0.5578807
10	0xbd807c0f	-0.06273662
11	0x3eb6a495	0.3567244
12	0xbd1cd483	-0.038288604
13	0x3f233608	0.6375432
14	0x3dba972e	0.091108665
15	0x3e900b77	0.28133747
16	0x3ee84644	0.45366108
17	0xbe941a5a	-0.28926355
18	0xbec86bb4	-0.3914467
19	0xbd76b83f	-0.060234305
20	0x3df49a2f	0.11943471
21	0x3ed3cafc	0.41365802
22	0xbe873719	-0.26409224
23	0x3ea08007	0.31347677
24	0xbdc3910d	-0.095491506
25	0xbc62c865	-0.013841723
26	0x3e8ea0d8	0.2785709
27	0xbdfb9823	-0.12284877
28	0xbdc42d6b	-0.09578975
29	0xbed1f03c	-0.41003597
30	0xbd83a170	-0.06427276
31	0xbda3e3d4	-0.08002439
32	0xbe8e12b3	-0.2774864
33	0x3f830083	1.0234531
34	0x3db0154e	0.085978135
35	0xbeef0894	-0.46686232
36	0xbf1b38e9	-0.60633713
37	0xbeb05883	-0.3444253
38	0xbeb02ffd	-0.34411612
39	0x3d0d0b12	0.034434386
40	0x3d2b2943	0.041787397
41	0xbe11649f	-0.1419854
42	0x3eb81103	0.3595048
43	0xbe31c902	-0.17361835
44	0x3e5cb578	0.215536
45	0xbe22ed45	-0.15910824
46	0x3d720628	0.059087902
47	0x3d7e95b0	0.062154472
48	0xbf229a87	-0.6351704
49	0xbfa06735	-1.2531496
50	0xbf8aa1bf	-1.0830611
51	0x3dbcfcdb	0.09227916
52	0xbf17c278	-0.5928111
53	0x3ed1d07a	0.40979367
54	0x3eae4531	0.34037164
55	0xbeacaf67	-0.3372757
56	0xbe04a247	-0.12952529
57	0x3e19a6bc	0.1500501
58	0xbef659f4	-0.48115504
59	0xbb96677b	-0.0045899726
60	0x3e039dab	0.12853114
61	0x3ea6ea6b	0.32600722
62	0xbb9b9b59	-0.0047487435
63	0xbd456fa5	-0.048202176
64	0x3e82dd96	0.25559682
65	0xbee47d1c	-0.446267
66	0x3d9f5cd5	0.07781378
67	0xbe0d3fef	-0.1379392
68	0xbe2b0405	-0.16700752
69	0x3e88fcf8	0.267555
70	0x3df3e3d6	0.11908691
71	0xbd75b6c2	-0.059988745
72	0xbe04ce78	-0.12969387
73	0xbf9dcd1c	-1.232822
74	0xbe2fb741	-0.1715975
75	0xbe5fe833	-0.2186592
76	0xbe8f8a65	-0.28035274
77	0xbf5627c5	-0.83654433
78	0xbf25b7fe	-0.64733875
79	0x3e25bcd2	0.1618531
80	0x3f094a0b	0.53628606
81	0x3fa46167	1.2842225
82	0x3f690e9a	0.91037905
83	0xbf438d75	-0.7638772
84	0x3eddf040	0.4334736
85	0xbfa9fe6f	-1.3280772
86	0xbe186110	-0.14880776
87	0x3e58e4e6	0.21181068
88	0x3cda8e37	0.026679141
89	0x3d9c434b	0.076300226
90	0x3ee671b4	0.45008624
91	0xbde0d610	-0.10978329
92	0xbe429b6c	-0.19004601
93	0x3e33296b	0.17496268
94	0x3df5e348	0.12006241
95	0xbe52e3cc	-0.2059471
96	0xc02ec046	-2.7304854
97	0xbf5d0b3f	-0.86345285
98	0x3d3892be	0.04506182
99	0xbfc88f9c	-1.5668826
100	0xbf845a07	-1.0339974
101	0xbf8ab86c	-1.0837531
102	0x3eab97d3	0.3351427
103	0x3e1e2751	0.15444686
104	0x3d1a490c	0.03766732
105	0xbfba645c	-1.4561877
106	0x3df4084c	0.11915645
107	0xc016b5df	-2.3548505
108	0x3efec179	0.49756983
109	0xc023e669	-2.5609381
110	0xbdf30fd5	-0.11868254
111	0xbf61b2d9	-0.88163525
112	0xbf8ba3d7	-1.0909375
113	0xbf304636	-0.68857133
114	0x3e574fd5	0.21026547
115	0x3f430ca3	0.7619116
116	0xbf69e2ed	-0.91361886
117	0xc06b7c57	-3.679464
118	0x3e86103a	0.26184255
119	0x3ed4801a	0.41503984
120	0xbe143ed4	-0.14477092
121	0xbd9b04c7	-0.075692706
122	0xc06aa023	-3.666024
123	0x3d95ebd5	0.07320372
124	0x3e0b4ad6	0.13602766
125	0x3dd54cd9	0.10415048
126	0xbc2d84c1	-0.010590733
127	0xbde5c1a5	-0.112185754
128	0xbf0a2188	-0.53957415
129	0xbffe21cf	-1.9854068
130	0xbe2f4ca2	-0.17119077
131	0xbee2c3c5	-0.44289985
132	0xbf3e188e	-0.7425622
133	0xbfb1767c	-1.3864284
134	0xbe9ae3d3	-0.3025194
135	0xc04854ef	-3.130184
136	0xbe17fbc1	-0.1484213
137	0xbebb75a1	-0.3661318
138	0xbfa0552d	-1.2525994
139	0xbed05bfa	-0.40695173
140	0xbffe8ab8	-1.9886084
141	0xbe16e8d7	-0.14737259
142	0xbec9a0f0	-0.39380598
143	0xbf3dd72f	-0.7415647
144	0xbf2bcd2a	-0.6710993
145	0xbfc52e96	-1.5404842
146	0x3f12a165	0.5727752
147	0x3e311fc5	0.17297275
148	0xc02856b2	-2.6302915
149	0xc06713c0	-3.6105804
150	0x3e3177a2	0.17330793
151	0xbf0c6853	-0.54846686
152	0x3d8ec3a9	0.06970913
153	0x3dad3caa	0.084588364
154	0x3e937a13	0.28804073
155	0x3d8b4f40	0.06802225
156	0xbe468dfa	-0.19390097
157	0x3ce0433b	0.027375808
158	0xbddfb4a8	-0.10923129
159	0xbdaa952f	-0.08329236
160	0xbdcd529b	-0.10025521
161	0xbfb3876b	-1.4025701
162	0xbe53a416	-0.20668063
163	0xbe91573f	-0.28386876
164	0xbdd48322	-0.10376574
165	0xbe65b025	-0.22430475
166	0xbddb4e93	-0.10708346
167	0xbfaed48f	-1.3658618
168	0x3b4a3dc0	0.003085956
169	0xbea1732c	-0.31533182
170	0xbe925bcb	-0.28585657
171	0xbd85a097	-0.06524771
172	0xbdc86bc2	-0.09786178
173	0xbe8270a8	-0.25476575
174	0xbdc70e59	-0.097195335
175	0xbeb54ff1	-0.35412553
176	0xbde7e34a	-0.11322649
177	0x3ca16a3d	0.019703979
178	0xbeae2d7a	-0.3401907
179	0xc00a0929	-2.156809
180	0xbf857c3b	-1.0428537
181	0xbff348c9	-1.9006587
182	0xbf3aa124	-0.7290213
183	0xbe96ecae	-0.29477447
184	0x3cbfedec	0.02342888
185	0x3e251157	0.16119896
186	0xbfe7103e	-1.8051832
187	0xbce81952	-0.028332386
188	0xbdd29263	-0.10281827
189	0xc01c11e0	-2.438591
190	0x3e1242e1	0.14283325
191	0xbd8ce3ce	-0.06879388
192	0xbe017170	-0.12640929
193	0xbfc6d3e4	-1.5533414
194	0xbd329cd9	-0.043606613
195	0xbe494f3e	-0.19659135
196	0xbde0baf4	-0.109731585
197	0xbea5a3e2	-0.32351595
198	0xbe66d687	-0.22542773
199	0xbfae7246	-1.3628623
200	0xbcebbd88	-0.028776899
201	0xbc8019dd	-0.015637333
202	0xbe4aba0e	-0.19797537
203	0xbe69cef8	-0.22832859
204	0xbec02b83	-0.37533197
205	0xbd8dd2fe	-0.06925009
206	0xbe10fb47	-0.14158355
207	0xbe88854a	-0.2666419
208	0xbe6b46f6	-0.22976288
209	0xbde8e093	-0.11370959
210	0xbf1fe585	-0.62459594
211	0xc0046bb2	-2.0690732
212	0xbf8b3376	-1.087508
213	0xbfe4fabe	-1.788902
214	0xbeff3a04	-0.4984895
215	0xbeaff9aa	-0.34370166
216	0x3c395cee	0.01131366
217	0x3d235bf8	0.03988263
218	0xbff32fed	-1.8999001
219	0xbd9915a4	-0.07474831
220	0xbe1ccf54	-0.15313464
221	0xc0203a8e	-2.503574
222	0x3e11c679	0.14235868
223	0x3e1a816c	0.15088433
224	0xbf7625d1	-0.96151453
225	0xc06289c5	-3.5396588
226	0xbe251496	-0.16121134
227	0xbe8d99fd	-0.27656546
228	0xbf3060a5	-0.6889747
229	0xbf4f36d1	-0.8094302
230	0xbea73004	-0.3265382
231	0xc0801eb9	-4.0037503
232	0x3dfa744a	0.12229212
233	0xbe64d067	-0.22345124
234	0x3e2a88fb	0.16653816
235	0xbf4192ed	-0.75614816
236	0x3b8f6c92	0.0043769563
237	0xbe93592e	-0.28778976
238	0x3d9beee9	0.07613928
239	0xbfa2595f	-1.2683524
240	0xbf061dd9	-0.52389294
241	0xbf8e80d3	-1.1133064
242	0x3ee67151	0.4500833
243	0x3f1c3f7e	0.6103438
244	0xc0a24bc1	-5.0717473
245	0xc05b05f0	-3.4222374
246	0xbe0aeef5	-0.13567717
247	0xbf535c31	-0.8256255
248	0x3dd1dbb7	0.102469854
249	0xbd9bcd35	-0.076074995
250	0xbf07fab6	-0.5311693
251	0x3dd34806	0.10316472
252	0x3e0bd018	0.136536
253	0x3d95df2a	0.07317956
254	0x3c39c867	0.011339284
255	0xbdde7d58	-0.10863751

net.7.bias f4 [8]
0	0xbeb83044	-0.35974324
1	0xbe102057	-0.14074837
2	0x3e344a40	0.17606449
3	0x3f608361	0.8770047
4	0x3e5c9b29	0.21543564
5	0xbe975af8	-0.2956159
6	0xbe424e6e	-0.18975231
7	0x3e4a6e0f	0.19768547
