volume/checkpoints/latent2volume_best.pt (torch, 8281 bytes, 5 tensors)

net.0.weight f4 [32, 4]
00000000: eeaf 52be 220d c9be f04d 31be 01f7 f7bd
00000010: 4832 5abd 7cae 01be 26ab 42be 4177 6dbc
00000020: c4ee ac3e 5d6b c23d c3c1 4339 0203 f43e
00000030: 0e4a 22bf af80 f73e 3e1d 3d3e f5c7 8fbe
00000040: 9fd8 efbe 7948 1d3e f58d 0cbe 069b ff3d
00000050: e184 513e 78cd 9abe fbfa 153f ed8f 7e3e
00000060: 7e07 abbd 435c 98be b0c1 503e c129 163f
00000070: 7234 96be 0abf df3e bcc4 23bf 8594 d5be
00000080: f0a1 1abe 8105 44be 7867 9dbc 55bc 683e
00000090: 1973 2a3e 46a6 bf3d 35cc e0be e03c d53e
000000a0: ca75 38be a303 d03e 63f1 e9bd 06a7 33bf
000000b0: 7a2e 0a3e 3c61 e93e 9045 53be 52e4 88be
000000c0: fa7f eabe d80e 0b3f 0d0f 5b3e e11b 263e
000000d0: e083 283e 3955 713e 5bd6 133e 005c 11bf
000000e0: eb69 043e 9176 d03e aa7f 853e aa5a 2ebf
000000f0: 20cb bd3e eb59 54be 0cb7 84be 9055 e03d
00000100: 9ad1 b53e a023 adbd 862d b13e 064c 023f
00000110: e83d 5e3e 92ad ae3e 80af 063f 55fe 80bd
00000120: 9718 de3e ce3c 3f3e 112f 643b d8b6 e73e
00000130: 7256 873e c7fe c43e 6d53 543e 6a66 28bf
00000140: 44f2 aa3e ae3a c4be d593 9bbe 7e26 91be
00000150: b11a 1ebf 847e c03e bc2a fdbe d9e3 e3bd
00000160: 1142 abbc 66a3 533e a761 333f 89ec 2b3f
00000170: eeef 9dbd d784 0e3e ba27 303f 8067 aa3e
00000180: 96fb 04bf c2a3 c23e 9ba6 b93e 2ad2 e9be
00000190: e4e2 383e 8c2f 8bbe 0af3 34be d916 21bf
000001a0: 3eee fa3d f6d7 33be cac6 863e 2d87 38bc
000001b0: 9b8c 8f3e 7e11 603e 6f99 063e 82bb 933e
000001c0: 9d90 dd3a 082f f83c 8992 063f 3399 093f
000001d0: 7ab9 bebe 5795 ca3d d3e4 803d abd2 de3e
000001e0: b2af 46be 5370 b6be 7a37 043f e5d9 08be
000001f0: 3821 8cbe 2b85 b23e efaf e8be ce20 0bbf
-0.20574924 -0.39267832 -0.17314887 -0.12107659 -0.05327061 -0.12664217 -0.190106 -0.014493764
0.33775914 0.09493134 0.00018668831 0.47658545 -0.6339425 0.48340365 0.18468186 -0.28082243
-0.46844956 0.15359677 -0.13726027 0.1248074 0.20460846 -0.30234885 0.5858609 0.24859591
-0.083510384 -0.2975789 0.20386386 0.5865746 -0.29336888 0.4370044 -0.6397207 -0.41714874
-0.15100837 -0.19142725 -0.019214377 0.22728093 0.16645469 0.09357886 -0.43905798 0.41648006
-0.18013683 0.40627775 -0.11422994 -0.7017673 0.13494292 0.45581996 -0.20632005 -0.26736695
-0.45800763 0.54319525 0.2139246 0.16221572 0.16456556 0.23567666 0.14437239 -0.56781006
0.1293103 0.4071546 0.26073962 -0.6810709 0.37069035 -0.20737426 -0.25920904 0.1095382
0.35511476 -0.084540606 0.34605044 0.5089725 0.21703303 0.341168 0.5261154 -0.0629851
0.43378136 0.18675539 0.0034818093 0.45256686 0.2643314 0.3847563 0.2073495 -0.6578127
0.3338796 -0.3832602 -0.30386224 -0.2834968 -0.6175948 0.37596524 -0.49446666 -0.11127443
-0.020905526 0.206678 0.7007088 0.671578 -0.077117786 0.13917862 0.6881062 0.3328209
-0.5194639 0.38015562 0.36259922 -0.45668155 0.18055302 -0.27184713 -0.17670837 -0.6292549
0.12252472 -0.17562851 0.2632354 -0.011262697 0.2803696 0.21881673 0.13144468 0.28853995
0.001690406 0.030295864 0.52567345 0.5374939 -0.37250882 0.098917656 0.06293645 0.43520102
-0.1940296 -0.35632572 0.5164715 -0.1336437 -0.27369094 0.34867224 -0.45446727 -0.5434693

net.0.bias f4 [32]
00000000: 0056 ac3e a822 f73d ee7e 363e e8c9 93bd
00000010: 1bd0 c7bd c841 a63e fc4f fd3e 5d0b 1cbe
00000020: 03cf 22be 5be7 5c3e 115c cfbe 50e2 afbe
00000030: e500 c3be 6698 4f3e 5d2c 1ebe a6d0 c03e
00000040: de2f 84be 3f9c ed3e 0165 2d3d b102 8c3e
00000050: 0c45 86be 97fe 7b3e 38df f33e 2a96 883b
00000060: 58bd 0ebf 1e90 1ebe df02 1a3b 32c8 5e3e
00000070: 4101 a6be e144 92be 626f 553c 629f a63e
0.33659363 0.12067157 0.17821857 -0.07216245 -0.0975649 0.32472062 0.49475086 -0.1523871
-0.15899281 0.2157263 -0.4049993 -0.3435235 -0.3808662 0.20272979 -0.15446611 0.37659186
-0.2581777 0.4640827 0.042332653 0.27345803 -0.26224554 0.24608837 0.4763124 0.0041682916
-0.55757666 -0.15484664 0.0023500246 0.21756056 -0.32422832 -0.28568175 0.013027044 0.32543474

net.1.weight f4 [32, 32]
00000000: 957f 09bb 2b79 dd3d d579 86be ffa5 1f3d
00000010: 72e1 6d3d 2a41 80be 78d9 abbd 82ed 243e
00000020: ba8c 283b cc83 e13c a901 e03d e2cf 693e
00000030: d045 d53d 98d4 8b3d e585 283e dfd8 1bbd
00000040: 0d95 16be 8e78 b9bd dd5e 4cbe 698b 4c3e
00000050: 8936 fbbd ce74 223e 2c5b 22be 32f7 41be
00000060: a48c ef3d e375 cfbc 340b 37be fbfd 6dbe
00000070: 7e22 0abe 44dd edbd 8218 5cbb 4c54 613e
00000080: e6b6 f23c fa5b 283e a1e7 06be 3412 fd3d
00000090: 16b8 7dbd e5da 11bd 4524 293b 6fcd 0d3e
000000a0: 04c5 86bd 09c8 1a3d 0a2f a1bd 064e 14bd
000000b0: 15db 36bd 9d78 ccbc b681 e2bd 7a4d 2fbe
000000c0: a0a9 18be e791 52bd 7ffa 963d d1f3 1b3e
000000d0: 74ed 22bd 5893 1dbe c60e e1bd 25d2 af3c
000000e0: 8b97 bf3d 6934 8d3d 186f 993d e511 78bc
000000f0: 0d49 e5bd a3a1 bc3d b687 caba ce86 22be
00000100: 839c 29bc d78c 4f3d 2b67 97be 2283 033e
00000110: 0cf8 db3d 170f b5bc 1555 59bd 6345 8f3e
00000120: ba5d aa3c c962 a9bd 1076 fabc 7c5a 213e
00000130: 1e21 ea3d efda f6bd 847e 593e 6120 fa3d
00000140: 37c6 2dbe 8936 323d 882a 18be 8e56 1c3e
00000150: 7ee3 80bd f8b1 f03d 7831 05be 31e5 b9bc
00000160: d523 8d3d 7ea8 123e 8df4 593d cedc b13d
00000170: d24a 3dbe cb51 0f3d 0f59 d6bd 393c 013e
00000180: 2219 f63d e6d1 9abd e851 15be 8b41 32be
00000190: abb2 263e 8f54 193e 734f adbd 5b27 2e3e
000001a0: 86bd de3d 9954 b7bd 63e6 05be 20bb e03c
000001b0: 8eab c93d 1167 0dbe 8d99 0f3e 907a c13c
000001c0: c84c 8e3c fb44 0fbe e2a9 973d 5cf2 493d
000001d0: 44d4 0e3d 4736 133e 4a58 a03d b5a5 0ebe
000001e0: 3fd2 293e bf57 013e 127f e83d d232 a43d
000001f0: 8850 0abe ecca 6e3d c9f4 1ebe 7ac2 bbbd
00000200: 9323 70be a005 9d3d 686b dfbe 4092 5f3d
00000210: 7f09 d2ba cf63 583d e2e3 18be a804 b63c
00000220: 267c a1bc 234d 37be 4a0a e93e 55f5 4a3e
00000230: a382 5a3e ef6b e03c a59c c23e c2bc 26bd
00000240: a111 0dbe c8e7 d63d 3dae 6bbe 0345 b13d
00000250: e620 01be dc90 2a3d ece9 01be fa92 ef3d
00000260: 1b00 d63e 8416 7c3e befd 423e 4e4c 0ebe
00000270: d0bb bb3d 4dd4 b2bd 078b 153e 4bb1 533c
00000280: f5df 27be ebf3 e33d fce1 3ebd 6f63 ad3d
00000290: 14bc 49bd cd27 ea3c 8b74 c1bc bc61 263e
000002a0: 7b89 013d 70f1 28bb a587 bd3d 0e3a dd3d
000002b0: a811 9cbc 1a2b 1ebe f26b b2bd 70b7 95bd
000002c0: c435 cfba e9ed 40be 9087 d7bd 017d a8bd
000002d0: f6f3 e7ba 6511 86bd 2bcf 0f3e 1a8b 213d
000002e0: 1434 e4bd 24e1 c8bc a73e a13d bf63 ecbd
000002f0: 4a65 47bc 6772 07be 1b79 1b3d 656f e0bd
00000300: 401b 9abd dcab 153e ea4e e8bd 9f9b c03c
00000310: 2e70 113e 4b07 f6bd a4a0 16be 9bc7 27be
00000320: ae1a 193e f590 a13c e0de 8bbc d89b 66bd
00000330: 541b 133e f73d b73d 0b33 e83c aa2d 24bc
00000340: f673 6b3d 5d2e 173d 94f0 ee3d 023a 4cbd
00000350: d962 13be 8c9c f7bd 4690 89bd afa0 f3bc
00000360: 31a4 e73c cff9 bd3d a189 053e 652b adbd
00000370: 85a2 ba3d 75ec 36bd 7036 eebd 0f8f b6bc
00000380: d43b 59bd 6e11 3eba 3789 183e 6e26 263d
00000390: 1c5d 1cbe bc21 ad3d 883b 083e 7341 a5bd
000003a0: 506c 2c3e cb11 2bbd a6ad 80bd 5502 363e
000003b0: 506b 9d3d 8ecb dcbd 9d26 b93d 150e 323d
000003c0: 2cd3 15be 6b6a d7bd 100b a8bc ef9a 6b3d
000003d0: 8c9e 86bd 1b48 f03d 3cb3 d0bd 9102 213c
000003e0: be59 0a3c 1d2d 393d 6af5 113e 1bf0 6fbc
000003f0: 29ff 063e 8ceb 323e 2105 6f3c 1fba 03be
-0.0020980586 0.108141266 -0.26264825 0.038976666 0.05807633 -0.25049716 -0.08391088 0.16106227
0.0025718645 0.027528666 0.10937817 0.22833207 0.10413706 0.068276584 0.16457327 -0.03804862
-0.14705296 -0.09056197 -0.19958062 0.19975056 -0.12266261 0.1586487 -0.15855092 -0.18941954
0.11696747 -0.025324767 -0.17875367 -0.23241417 -0.1348972 -0.11614469 -0.0033583944 0.22004813
0.029628228 0.16441336 -0.13174297 0.123569876 -0.061943136 -0.035609145 0.0025808972 0.13847898
-0.065805465 0.037788425 -0.078703 -0.03620722 -0.044642527 -0.024959857 -0.11059897 -0.17119399
-0.14908457 -0.051408675 0.07371997 0.15229727 -0.039777234 -0.15388238 -0.10989146 0.02146251
0.093550764 0.06894762 0.074918926 -0.015140985 -0.11195574 0.09210517 -0.0015451822 -0.15871736
-0.010352257 0.050671425 -0.29570898 0.12842992 0.107406706 -0.022101922 -0.053059656 0.27982625
0.020796645 -0.08270795 -0.030573875 0.15757173 0.11432098 -0.12053477 0.21239668 0.12213207
-0.16970144 0.04350904 -0.14859974 0.15267393 -0.06293391 0.11752695 -0.13007152 -0.022692295
0.068916 0.14322087 0.053211737 0.08684693 -0.18485573 0.034990113 -0.10466205 0.1262063
0.120165125 -0.07559566 -0.14582026 -0.17407815 0.16279094 0.14973663 -0.08462419 0.170072
0.108759925 -0.089516826 -0.13076167 0.027432978 0.098471746 -0.13808848 0.14023419 0.023618013
0.017370597 -0.13991158 0.074054495 0.049303398 0.0348704 0.14376174 0.0782934 -0.139304
0.16584109 0.12631129 0.11352362 0.08017506 -0.13507283 0.05829899 -0.15523066 -0.09167953
-0.2345107 0.076670885 -0.43636632 0.054582834 -0.0016024559 0.05282956 -0.1493068 0.022219017
-0.019712519 -0.17900519 0.45515662 0.19820149 0.21338896 0.027395217 0.38010135 -0.040707357
-0.13776256 0.104934275 -0.23015685 0.08655741 -0.12610206 0.041642055 -0.1268689 0.116979554
0.41796955 0.24617964 0.19042107 -0.13896295 0.09166682 -0.087318994 0.14603816 0.012920688
-0.16394027 0.11130508 -0.046602234 0.08466231 -0.04925163 0.028583432 -0.023615142 0.1624822
0.031625252 -0.0025778674 0.09254388 0.10802089 -0.019051388 -0.1544613 -0.08711995 -0.073103786
-0.001580887 -0.18840756 -0.10523903 -0.082269676 -0.0017696607 -0.065462865 0.14043872 0.0394393
-0.111427456 -0.024521418 0.07873278 -0.115424626 -0.012170145 -0.13227235 0.037957292 -0.10958747
-0.07524729 0.1461634 -0.11343177 0.023511706 0.1420295 -0.1201311 -0.14709717 -0.16384737
0.14951584 0.019722441 -0.017074049 -0.056300968 0.14365894 0.08947366 0.028344652 -0.010020653
0.057483636 0.03690945 0.116669804 -0.049860008 -0.14393176 -0.12090406 -0.06716971 -0.029739706
0.028276535 0.09276163 0.13040783 -0.084555425 0.091130294 -0.044659097 -0.11631477 -0.022285013
-0.053035572 -0.0007250522 0.14896093 0.040563993 -0.15269893 0.084537 0.1330396 -0.08069124
0.16838193 -0.041765016 -0.06283121 0.17774327 0.07686484 -0.107810125 0.09040568 0.04347046
-0.14631337 -0.105183445 -0.020513088 0.057520803 -0.06573209 0.11732503 -0.10190436 0.009827272
0.008444248 0.04520904 0.14253774 -0.014644648 0.13183273 0.17472667 0.014588625 -0.12863968

net.1.bias f4 [32]
00000000: db6d eb3d 0316 20be 59eb 91bd 746e 16be
00000010: 47a0 a63c 47f8 2f3d 87e4 483c b584 36be
00000020: 8631 c33d ca09 c9bd 6456 d8bd 0b02 4b3d
00000030: b0e7 b4bc 9a02 30be b221 c8bd d300 26be
00000040: c040 d9bb 1d62 f4bd e988 41bb 1388 48be
00000050: 0895 68bd 53de 163d 4fd6 b33a eec0 b2bd
00000060: 59d0 263d 592c 06be 09a8 a0bd 1891 3ebc
00000070: 9c90 2439 27c5 d9bc ab88 c33d 3d4a c3bc
0.11495563 -0.15633397 -0.07124967 -0.14690572 0.020340098 0.042961385 0.012261516 -0.17824061
0.0953093 -0.0981632 -0.10563353 0.049562495 -0.022083133 -0.17188492 -0.09772052 -0.16211252
-0.0066300333 -0.11932776 -0.0029531068 -0.19583158 -0.056782752 0.03683312 0.0013720485 -0.08728205
0.04072604 -0.13102855 -0.0784455 -0.011631273 0.0001569413 -0.026583267 0.09547552 -0.02383911

net.4.weight f4 [1, 32]
00000000: 0293 ac3d 9da4 23be 3062 2e3e 62eb cf3d
00000010: 8ef7 9bbe 711f 2cbc acac 53bd 4f8b 0f3e
00000020: e046 8bbd 37c3 043e a208 ae3d 9be9 0c3e
00000030: 650d 173e 12b6 0abe 3e9a d4bc 0594 083e
00000040: 6914 d2be 52aa 54bc df01 a8be a370 9fbd
00000050: 560b ccbc c649 ebbd 5529 323e 181a 883e
00000060: e169 b4bd 6377 b3be 57bf debe 655a 1ebe
00000070: b120 093e adfc 293e 058d d93d a02d c0be
0.08426477 -0.15980764 0.17029643 0.101523176 -0.30462307 -0.010505543 -0.051678345 0.14017986
-0.06800628 0.12965094 0.0849774 0.13760988 0.14751203 -0.13546017 -0.025952455 0.13337715
-0.41031197 -0.012980061 -0.32813928 -0.077851556 -0.02490775 -0.114886805 0.1739858 0.26582408
-0.08809257 -0.35052022 -0.43505356 -0.1546417 0.13391377 0.16600294 0.106226005 -0.3753481
