volume/checkpoints/latent2genera_best.pt (torch, 206802 bytes, 10 tensors)

net.0.weight f4 [128, 2]
000000 ed 96 f8 3b c3 d2 cc be c7 21 36 3e 60 3e 1b 3f
       0.007586351 -0.40004548 0.17786323 0.6064205
000010 9f 41 24 3f 81 82 0d 3f b0 6d bb be 13 d6 24 be
       0.6416263 0.5527726 -0.36607122 -0.16097288
000020 3a 6a 21 bf 39 0a ab bc 8b d0 33 3f e6 ca 16 3f
       -0.63052714 -0.020878898 0.70240086 0.5890335
000030 53 cf 19 3f e0 90 19 bf 2a e0 06 bf d6 ec 94 be
       0.60081977 -0.59986687 -0.526858 -0.2908694
000040 1d 7c 35 3f 06 de 27 bf 3f 2a 3d be 94 99 d1 be
       0.70892507 -0.65573156 -0.18473147 -0.40937483
000050 c9 c5 23 3f ec 80 ab be 8d cb 52 3e 35 19 b1 3e
       0.6397367 -0.33496797 0.20585461 0.34589544
000060 b4 c8 63 3e 04 18 dc 3d 55 7d 15 bf 5b 26 10 3f
       0.22244531 0.10746768 -0.58394367 0.56308526
000070 66 31 22 bf 2c a1 49 bf 3d f8 53 bf 7e 0f df be
       -0.63356626 -0.78761554 -0.82800657 -0.43566507
000080 77 d0 59 3f a1 11 12 be 27 b5 56 3f a6 10 29 bf
       0.8508372 -0.14264537 0.83870167 -0.6604103
000090 8d f7 18 3f 1e d5 28 be 5d 45 63 3f a0 04 1e bf
       0.5975273 -0.16487548 0.88777715 -0.6172581
0000a0 54 6b d0 3e f5 57 00 3d bf db 25 3f a2 59 aa be
       0.40706885 0.031333882 0.6478843 -0.3327151
0000b0 5b 28 15 bf 76 20 94 3e f1 a9 30 3f 5c 69 9d be
       -0.582647 0.28931016 0.6900931 -0.30744445
0000c0 de 01 95 3e f5 7c 56 bf 52 2f eb be 95 b6 04 bf
       0.29102987 -0.8378442 -0.4593454 -0.518411
0000d0 37 51 43 3f 67 a7 40 3f 57 2f 48 3f 17 28 7e 3e
       0.762958 0.75255436 0.78197235 0.2481998
0000e0 64 f8 08 bf ad ed ee 3e fa 03 0c 3f 79 87 d0 3e
       -0.53504014 0.46665707 0.5469357 0.40728357
0000f0 65 43 92 be 30 15 2b 3f 12 45 31 bf 78 df f6 3d
       -0.28567043 0.66829205 -0.6924602 0.12054342
000100 9d 43 8b 3e f6 53 39 3f 78 26 4e 3e 67 90 23 3f
       0.27200022 0.7239374 0.20131862 0.63892215
000110 b1 1b 3f 3f a7 49 43 bc c0 82 1f 3f a2 c2 17 bc
       0.7465163 -0.011919416 0.62308884 -0.009262713
000120 a5 76 9e be 6f 3f 8f be 23 81 1d 3f 5c 90 96 3e
       -0.30949894 -0.27978083 0.6152517 0.29407012
000130 5b e3 f1 3e fa d6 19 3e 8f bf 27 bd 24 15 63 bf
       0.4724377 0.15023413 -0.04095417 -0.88704133
000140 33 46 01 3f ff 43 2f bf c8 8a 89 3e 43 bd 63 3f
       0.5049774 -0.6846313 0.26863694 0.88960665
000150 30 41 b2 3e bc bf 88 3c 5c 07 8b be ad 6b 64 bf
       0.3481536 0.016692989 -0.27154052 -0.892268
000160 f2 0c e3 be c7 92 0a bf ce e9 7f 3e c9 b3 e5 be
       -0.44345814 -0.54130214 0.24991533 -0.44863728
000170 37 78 97 be de 40 07 bf 5d 56 18 3f b5 cf 4d 3f
       -0.29583904 -0.52833354 0.5950678 0.8039506
000180 c8 fa 28 3f a1 04 d4 3e ba f7 d6 bc 1a b5 6a bf
       0.6600766 0.41409782 -0.026241172 -0.9168259
000190 67 cf e0 3e f4 9c 03 bf 0e ee 6c be fa 1d 83 3e
       0.43908235 -0.51411366 -0.23137686 0.25608808
0001a0 f8 7d 20 3f 6d 23 0f 3f a7 13 0d be da 99 3b 3e
       0.62692213 0.5591343 -0.13777028 0.18320408
0001b0 5e 72 a4 be 75 56 30 3e ad 08 25 3f 61 a6 11 3f
       -0.32118505 0.1722048 0.64466363 0.568945
0001c0 4f 49 14 bf 52 14 22 3f 80 93 51 3f 12 12 78 3e
       -0.5792436 0.63312256 0.8186569 0.24225643
0001d0 65 a6 22 bf fe 15 34 3f ee 81 51 3f f8 db b7 3d
       -0.6353515 0.7034606 0.8183888 0.089775026
0001e0 be 76 28 bf a1 76 0e 3f f6 9f 22 bf 53 80 ff 3e
       -0.65806186 0.55649763 -0.6352533 0.4990259
0001f0 4e 02 04 3e d1 30 fe 3d 58 35 9d 3d a9 5b 8a be
       0.12891504 0.12411655 0.0767619 -0.27023056
000200 aa fa 17 3f cf 58 90 be 89 44 4f 3f 14 45 6a 3f
       0.5936686 -0.28192756 0.8096395 0.91511655
000210 72 f4 29 bf 2e b2 52 bd 76 c9 46 3f 82 cc 01 bf
       -0.6638862 -0.051439457 0.77651155 -0.5070268
000220 2e a4 f6 be 87 bf 26 3f fb 68 f0 be fd 1d 19 3f
       -0.48172134 0.65136 -0.46955094 0.59811383
000230 0f e9 9a be 05 75 66 3f a5 5c 16 be 6b 04 47 bf
       -0.30255935 0.9002231 -0.14683779 -0.77741116
000240 38 23 65 bf 7e 7a bc be 3b 3a 02 be f3 63 b1 bd
       -0.89506865 -0.36812204 -0.12717526 -0.08661642
000250 bb a1 d7 be f0 df 37 bf 34 45 44 3f 75 5a 14 3f
       -0.42115578 -0.71826077 0.76668096 0.57950526
000260 35 f4 42 3f 2b 5d d7 be 7a 42 59 bf 53 a5 f7 3e
       0.7615388 -0.4206327 -0.8486706 0.4836832
000270 c0 e5 0f 3f 4c 13 fe 3e b5 01 3d bf 26 31 11 bd
       0.56209946 0.49624097 -0.7383073 -0.035447262
000280 da c8 9c 3e 5e fc b6 be ab e1 f3 3e af a6 50 bf
       0.30621988 -0.35739416 0.47633108 -0.8150434
000290 28 74 80 bf 87 f2 19 3e c5 95 3e 3f 7b 77 0c 3f
       -1.0035448 0.15033923 0.7444728 0.5486981
0002a0 3f d5 88 be 2f ab f7 be 20 39 e3 3e ec f1 b8 be
       -0.26725194 -0.4837279 0.4437952 -0.36122072
0002b0 b6 c4 71 3e 85 d8 73 be 85 a6 72 3e 13 34 e1 be
       0.23610196 -0.23813064 0.23696335 -0.43985042
0002c0 25 d2 80 3e 6f d2 33 bf 5a 38 7f 3e 0e 52 8f 3e
       0.25160328 -0.7024297 0.2492384 0.2799229
0002d0 67 27 44 3f 7e c7 9c 3e 6f 20 30 3e f1 e9 10 bf
       0.76622623 0.3062095 0.17199872 -0.56606966
0002e0 83 41 d3 be d7 65 00 bf c8 30 12 bf 0f 88 eb bc
       -0.4126092 -0.50155395 -0.57105684 -0.028751401
0002f0 df 16 9d 3c ea 50 f3 3e c0 5d d9 be dc a0 eb be
       0.019175945 0.4752267 -0.42454338 -0.46021163
000300 fd 7d 97 be 93 c1 3c bf 39 af 44 3f 69 9c a1 3c
       -0.2958831 -0.7373287 0.7682987 0.019727902
000310 91 b1 7e 3e 68 9a 19 bf 72 7e 5b 3f f5 e1 66 3f
       0.24872424 -0.6000123 0.85739815 0.90188533
000320 e4 55 5e 3f 00 7e f9 be 13 1a 3f 3e 19 71 3e 3f
       0.8684981 -0.48728943 0.1866229 0.74391323
000330 14 97 db 3e 0c 47 42 bf c3 5c 55 bf 58 dc 78 be
       0.428887 -0.7588966 -0.8334467 -0.24302804
000340 ca 1a 3d 3f fa 67 ac be b0 a9 92 3e 59 d8 0b bf
       0.73869 -0.33673078 0.28645086 -0.54626995
000350 de 64 14 3e 71 75 8e be d1 e2 35 bf 09 a8 cc 3e
       0.14491603 -0.27823976 -0.7104922 0.3997195
000360 7e e4 2c 3f 56 08 ca be 76 b9 16 bd 28 cb 55 3f
       0.6753615 -0.39459485 -0.036797963 0.83513117
000370 ad 60 9b be 27 d8 9e be 91 22 13 be af 89 fc 3e
       -0.30347195 -0.31024286 -0.14368655 0.49323794
000380 e5 ae c8 3e af 4e 17 3d ba f3 03 3f e4 8b 39 3f
       0.39195934 0.036940273 0.5154377 0.7247908
000390 09 0b 0c bf a5 f8 30 bf 78 c9 45 3f b2 72 a1 3e
       -0.5470434 -0.691294 0.7726054 0.31532818
0003a0 e4 d6 19 be be 1e 09 3f 50 df 16 bf 3b 1b 95 3d
       -0.1502338 0.53562534 -0.589345 0.072805844
0003b0 b3 9a 0a bf dd d0 35 bf 4b 4a fc be 3f d1 71 bf
       -0.541423 -0.71021825 -0.4927543 -0.9445991
0003c0 79 39 19 bf 93 3c 93 be 65 30 0c 3e c8 35 24 3d
       -0.5985332 -0.28757152 0.13690336 0.040090352
0003d0 25 df 2b 3f ad fb 91 be 09 9f 0e bf fa c7 22 bf
       0.67137367 -0.28512326 -0.5571142 -0.6358639
0003e0 b5 74 37 bf 89 42 29 be 57 04 0e 3f c5 ac cd be
       -0.71662456 -0.16529287 0.5547537 -0.40170875
0003f0 85 5f 9d 3e 4d 21 46 be 88 fd c2 bd 43 c4 9e 3e
       0.30736938 -0.1934864 -0.095210135 0.3100911

net.0.bias f4 [128]
000000 8f 42 5c 3e a1 bd a1 3e 56 40 eb bd 89 c6 dc 3d
       0.21509765 0.31589988 -0.114868805 0.10780055
000010 c0 b2 be 3d 8b ac 54 3e 5a ec a3 be f3 1a 8a 3d
       0.093114376 0.20768945 -0.3201626 0.067434214
000020 96 2a d9 3e f1 04 15 3e 2c fc e6 3e ed 2c ad bd
       0.42415303 0.14552666 0.45114267 -0.084558345
000030 b8 3b d2 bd d8 3a 73 be bf 32 83 3e 36 0a 85 3d
       -0.10265297 -0.23752916 0.25624654 0.06496088
000040 6a 10 b1 be 37 cf 1a 3e 82 40 3a be 2b 73 71 be
       -0.34582835 0.15118109 -0.1818867 -0.2357909
000050 a7 4e 89 bc de e1 a5 bd e5 96 9a 3d 73 f4 77 be
       -0.016761137 -0.08099721 0.07548312 -0.24214344
000060 6c 37 18 3f d1 cb fb bc a3 0e 27 be 96 82 af be
       0.5945957 -0.030736836 -0.16314177 -0.34279317
000070 8b 65 42 be f0 50 88 be 7a 5a 4c be f4 71 f1 3c
       -0.18984048 -0.2662425 -0.19956389 0.029473282
000080 97 3e e6 bd 85 2c bb be fe 4f 7a be b8 d2 a6 bd
       -0.11242407 -0.36557403 -0.24444577 -0.0814566
000090 3b 4f 53 be 4b 61 85 be fe 32 16 be ac ce eb 3e
       -0.20635693 -0.2605079 -0.1466789 0.46056116
0000a0 cd d5 80 bd 34 1c 1a bf 06 3b 9e bd 46 b1 80 3e
       -0.06290779 -0.60199285 -0.077261016 0.2513525
0000b0 52 db 4c 3d 60 37 86 3c 3a 74 86 3e 93 ed 06 bf
       0.050013848 0.016383827 0.2626055 -0.5270626
0000c0 7a 65 bd be 7c b6 64 3e 63 1f 2b be ed 01 b2 3b
       -0.36991483 0.22335237 -0.16711192 0.0054323585
0000d0 6c 7c a4 bd 7b 8e ce bc 3e b5 33 be 08 1a 26 3d
       -0.08031544 -0.025214424 -0.17549607 0.04055217
0000e0 e3 2c c2 be ca 01 c6 be 21 3c 9d be b2 f2 d7 be
       -0.3792487 -0.3867324 -0.30709937 -0.4217735
0000f0 f9 ab 63 3e 38 6e 5b 3e ae b5 78 bd ea fc ae bd
       0.22233571 0.21428764 -0.06072014 -0.08544333
000100 dd 8c 3a be 8a a1 20 bf 0e 89 ab be 7c 75 10 3e
       -0.18217798 -0.6274649 -0.33503002 0.14107317
000110 22 b3 06 3e 8b c7 be be 1e ce ed be d9 1a 1f 3e
       0.13154271 -0.37261614 -0.46446317 0.15537585
000120 95 7d e1 3e 5e 08 50 3d 9e 1d 1e 3c 11 22 c5 be
       0.44041124 0.05078923 0.009650616 -0.38502553
000130 12 35 15 be 5d 20 84 3d 10 3b c0 be 06 16 14 3e
       -0.14571026 0.06451485 -0.3754506 0.14461526
000140 b0 07 08 bd f7 0e 9d 3e 77 e4 d2 3e 51 c9 20 3d
       -0.033210456 0.3067548 0.4118993 0.03925449
000150 c0 4f 2a 3e 55 53 9a 3e c9 5b 99 3e 9d ce c5 3e
       0.16631985 0.30141702 0.2995284 0.38634196
000160 29 a9 ba 3e 40 5e bc bd 41 39 3c bd 76 d8 0c bd
       0.36457184 -0.09197664 -0.04595304 -0.03438612
000170 65 24 ef 3e c6 bb 40 3e 34 7d df bd 85 7d 4f be
       0.46707454 0.1882163 -0.109125525 -0.20262726
000180 d6 4a fd 3a 4d 73 83 be 3b fd 2d 3d eb 72 ec be
       0.0019324671 -0.25673905 0.042477828 -0.46181425
000190 de 2e 0e bd bb 61 10 bf 5f 78 16 be 03 3a 06 3f
       -0.034712665 -0.56399125 -0.14694355 0.5243227
0001a0 5f 18 f7 bc d2 3e 8a 3e 82 dd 7f 3e e6 cf 55 3e
       -0.030162988 0.27001053 0.24986842 0.20880088
0001b0 cb 63 cb 3e cf 50 3f bd 97 14 80 3e c7 fd 8d 3b
       0.39724573 -0.046707924 0.2501571 0.004333231
0001c0 dc b0 96 3e b6 a5 11 bf 3b f8 e7 3e f2 5b 9c be
       0.29431808 -0.5689348 0.45306572 -0.305389
0001d0 79 51 04 bd cd 38 e0 bd dc e6 e2 3e ea 5b 17 3f
       -0.03230426 -0.10948334 0.44316757 0.59124625
0001e0 37 d9 4b 3e e5 1c db bd 87 36 57 be b4 21 d1 3d
       0.1990708 -0.106988706 -0.21016894 0.102115065
0001f0 7c e6 84 3c cd 29 eb bd 25 f3 04 3e 04 2b b4 be
       0.016223185 -0.11482582 0.12983377 -0.35189068

net.1.weight f4 [128, 128]
000000 23 5d 95 3d 64 00 51 bd 56 92 8f bd d3 03 e8 bc
       0.07293155 -0.051025763 -0.07010333 -0.028322136
000010 07 21 85 bd 08 06 8e bd 35 6a c1 bc ee 38 07 bd
       -0.0650044 -0.06934744 -0.023610214 -0.033013277
000020 fe 9f 2e 3d fc b5 92 3d fa 65 99 bb cd 10 f2 ba
       0.04263305 0.07163617 -0.004681346 -0.0018468142
000030 fc 4d b0 bc 16 64 91 bd 19 35 18 bd b9 01 be 3d
       -0.02152156 -0.07099168 -0.037160013 0.09277672
000040 82 4a 5c 3b cd d5 37 3d 17 b7 86 3d f0 07 9b 3d
       0.0033613746 0.04488163 0.0657789 0.07569873
000050 5f 53 91 3d 44 f8 99 bd 4d 03 60 3d 7a df 98 bd
       0.0709598 -0.07518056 0.054690648 -0.074645
000060 bf bf b9 3c ad 10 42 bc 45 ef 11 3d 3d 2b 0b bd
       0.02267444 -0.011844796 0.035628576 -0.033976782
000070 ae 7d 04 3d 11 79 76 bd b7 ce 74 3d c1 f5 e4 bc
       0.03234642 -0.06017405 0.05976745 -0.027949216
000080 c5 8e 7b 3d c6 c6 51 bd 5b c1 0a bd cc ab 4f bd
       0.061415453 -0.051214956 -0.033875804 -0.050700948
000090 eb 7e 25 3d f1 04 ac 3d bd e9 5c bc 01 2b 33 bd
       0.04040424 0.0839938 -0.013483462 -0.043742184
0000a0 a6 0c 93 3d f8 92 13 ba 3a 7d e8 bb 86 28 3d bd
       0.07180147 -0.0005629505 -0.0070950063 -0.046181224
0000b0 2d 9f 91 3d c9 17 60 3d 01 5e 9f bd 86 f1 88 3d
       0.071104385 0.054710183 -0.07781602 0.06686692
0000c0 fe 2d bf 3d c4 05 a9 3c 9c f0 7a bd 4c 56 9d bd
       0.09334944 0.020632632 -0.06126462 -0.076824754
0000d0 d1 38 52 3d 64 db ab 3d 09 30 93 bd dd 83 b3 bc
       0.051323716 0.08391455 -0.07186896 -0.021913463
0000e0 aa 48 46 3d d4 4d 93 3d af b6 ae 3c dd 30 2a bd
       0.04840914 0.07192579 0.021327345 -0.041550506
0000f0 c9 65 aa 3c e6 eb 8b 3c 28 52 88 bd f8 14 1b bd
       0.020800488 0.017080259 -0.06656295 -0.037861794
000100 d2 2f e5 3b f4 9f 6c bd e9 39 79 3d 70 98 42 3d
       0.006994226 -0.05776973 0.060846243 0.047508657
000110 3b 65 f7 3b 94 90 88 bd d2 bd 6c 3d 38 3e e3 bc
       0.0075499094 -0.06668201 0.057798214 -0.02773963
000120 ee 68 87 bc c2 b5 d9 bc 7a 90 c0 3c b9 77 48 bd
       -0.016529527 -0.026575927 0.023506392 -0.0489423
000130 86 ea 12 3d 4e 37 33 bd 83 29 8e bd 4a 96 e2 bc
       0.03586819 -0.043753915 -0.069415115 -0.027659554
000140 43 b2 c5 3d 85 77 64 3d 26 10 45 bd 5a bf b1 3c
       0.09653141 0.055778045 -0.048111103 0.021697689
000150 ad 0c 2a bc c8 e1 ca bc c7 ec 49 3c 64 ae 9e 3c
       -0.010378999 -0.024765864 0.0123245185 0.019370265
000160 4f 92 25 bc e4 d5 52 bd 44 db b8 bd 57 c2 68 bd
       -0.0101056835 -0.051473513 -0.090261966 -0.056825962
000170 0d 4b 8d bd 64 82 51 bd 52 3c a1 bc 5a d7 36 3d
       -0.068990804 -0.05114974 -0.019682083 0.04463897
000180 6b 48 0d 3d 7c 82 7a bc 39 e7 27 bd bf 1f 43 bc
       0.03449289 -0.015289899 -0.040991995 -0.011909424
000190 ae 97 3b bc d3 0e 8b 3d 54 f3 bd 3d 90 46 60 bd
       -0.0114497375 0.06789937 0.09274927 -0.054754794
0001a0 45 e1 ac bd ed fb 8f bd 0c 81 30 3d d6 5d a1 bc
       -0.08441404 -0.07030473 0.04309182 -0.019698065
0001b0 5b 67 a5 bd 8f 92 20 3d bf 84 9d 3d b5 b5 a3 bd
       -0.08076354 0.03920227 0.07691335 -0.07993642
0001c0 b7 52 30 bd e6 bf 01 bd 6b b9 5b bd f4 42 9b bd
       -0.043047633 -0.03167715 -0.053643625 -0.0758113
0001d0 02 9b 83 bc 89 ea 18 3d 1a b9 5a 3d 75 52 4c bd
       -0.016065124 0.037333045 0.053399183 -0.049883325
0001e0 ae 3b 4d bd cf e0 4b bd a8 84 0a 3d 0f 1f 7c 3d
       -0.050105743 -0.04977494 0.033817917 0.061553057
0001f0 80 d3 3b bc 63 18 50 3d ae 4b 07 3d 7e fc f5 bc
       -0.011464 0.050804507 0.03303116 -0.030027624
000200 db 2b 5e 3d a4 43 33 be 4b 81 a0 be 48 71 d9 3e
       0.054241043 -0.17506272 -0.31348643 0.4246924
000210 2c aa a5 bc 97 5d 23 be ad d1 09 3e 6b dc 3d 3e
       -0.020222746 -0.1595367 0.13458891 0.18541114
000220 02 b9 4b 3d 89 09 ce 3d 51 a7 25 3d 1f 48 a8 be
       0.049736984 0.100604124 0.04044277 -0.32867524
000230 de 96 a6 3d fe c4 cc bd 96 0b 29 3f a2 f8 a8 3d
       0.081342444 -0.09998511 0.66033304 0.08250548
000240 1f cf df 3d 0f a9 75 3e 08 ac d0 3d 87 60 35 3e
       0.10928177 0.23990272 0.10189062 0.17712604
000250 ee a8 ae bd e0 92 46 3e 43 c0 3e be a4 0d 05 3e
       -0.085283145 0.19391966 -0.1862803 0.12993485
000260 e9 d9 90 3d 8c 6a 76 3e af d9 86 be 45 70 04 3c
       0.07072813 0.24064082 -0.26337954 0.008083408
000270 3a dd 71 3c 46 74 9c bc 9b a8 67 be 6d cd 85 3d
       0.014762217 -0.019098412 -0.22622912 0.065333225
000280 9b 50 36 bf 3d 5c 0b be 1f 64 e0 3d a0 92 00 bc
       -0.71216744 -0.13609405 0.109565966 -0.007847458
000290 da 20 1f 3e 3f 14 b3 bd 3f 41 8b 3c f5 b2 4c 3e
       0.15539876 -0.08744096 0.016998885 0.19990142
0002a0 0f 5e f6 3e 04 4a f8 bd f1 d0 b6 bd 7c f6 e3 3e
       0.48118636 -0.12123492 -0.08926571 0.4452399
0002b0 08 2a 88 3e 01 88 c8 3e 15 fe 47 3e 1f 9f 0c be
       0.26594567 0.39166263 0.19530518 -0.13732575
0002c0 c8 94 81 3d fc 64 ef 3e e6 d5 66 3e f0 b3 69 be
       0.06327206 0.46756732 0.22542533 -0.22822547
0002d0 8d 0b 3f be d9 2c be bd 57 8a a5 3d b1 18 44 be
       -0.1865675 -0.09285898 0.08083027 -0.19150044
0002e0 b2 58 d9 bd b4 04 a8 bc c3 9c 88 bd 5a 98 2d 3d
       -0.106126204 -0.020510055 -0.06670525 0.042381622
0002f0 c0 33 fc bd b4 79 a4 bd 46 8f 30 be ea 64 62 3d
       -0.12314558 -0.080310255 -0.17242154 0.05527202
000300 32 2b 9a 3d d4 0d 86 bd 5c ea 14 3c 9e 14 c6 3d
       0.0752777 -0.06545606 0.009089079 0.09671901
000310 af 3b b0 be 3e 77 c9 3c 31 04 7a bd f1 b2 2f 3f
       -0.34420535 0.024592992 -0.061039153 0.6863242
000320 18 d9 65 3d cf 99 33 3d f4 6d 81 3e 74 ba 3c be
       0.05611524 0.043847855 0.252792 -0.18430501
000330 b8 ad a5 3e 6b d3 90 be 6a c2 41 3c 49 5e 23 bc
       0.323591 -0.282863 0.011826137 -0.00997121
000340 f4 c9 8f 3e e1 b5 ed 3d ea 5c af bd 1a ab a9 bd
       0.28083766 0.11606956 -0.08562644 -0.08284588
000350 24 f0 ca 3e d4 ff 81 3d 2b 0d 2a bc 03 68 9d bd
       0.39636338 0.063476235 -0.010379116 -0.07685854
000360 a8 aa 02 3e 74 6f c6 be d7 d8 33 be 5a 44 8d 3e
       0.12760413 -0.38756907 -0.17563187 0.2759121
000370 86 c6 e5 3c 79 d0 60 bd d6 51 d2 be b9 8a dd 3d
       0.028048765 -0.054886315 -0.4107806 0.10817475
000380 94 f0 73 3e 31 e3 f2 3c 8c c7 0e 3f 75 4d 69 be
       0.23822242 0.029649349 0.55773234 -0.22783454
000390 41 4f 9a 3e bd 0f 22 bc b7 d9 43 3e d7 6b 74 bd
       0.3013859 -0.009891448 0.1912602 -0.059673157
0003a0 23 1b 5c 3e a0 52 bc bc d1 d0 03 3d 1d fd 01 be
       0.21494727 -0.022988617 0.032181565 -0.12694211
0003b0 b7 31 1f 3d 6a 41 58 bf 25 4b 60 3d 05 78 b3 be
       0.03886577 -0.84474814 0.054759163 -0.35052505
0003c0 5b 6f b2 bc 24 24 dc 3c e0 bb a1 3d 4d 5d b6 bd
       -0.021781614 0.026872702 0.078971624 -0.089045145
0003d0 1c 63 2d bf 6b 80 ec 3c 97 bb 38 3e e7 66 44 3d
       -0.67729354 0.028869828 0.1804031 0.047949698
0003e0 64 14 83 3e 12 98 23 3d 6c 49 b2 3d a3 fd 94 3e
       0.25601494 0.039939947 0.0870541 0.2909976
0003f0 61 c1 56 3d 81 50 17 3e 74 ae 8d 3c f7 dc c6 bc
       0.052430514 0.14776804 0.0172951 -0.024275286

net.1.bias f4 [128]
000000 3c c9 b4 bd 7c 8c 68 bd 78 b2 7d bc bf 1c cd bd
       -0.08827445 -0.0567746 -0.015484445 -0.100152485
000010 e8 7c 49 3d 84 19 a2 bd 19 e5 c1 3d ac dc 30 bd
       0.049191386 -0.07915023 0.09467525 -0.0431792
000020 72 61 82 3d fb 50 54 bd 8f 23 8f bd f4 21 a1 bd
       0.063662425 -0.05183504 -0.06989204 -0.07867804
000030 75 8b 70 3c 54 5d 98 bd 91 d6 84 3d 73 37 bb bd
       0.014681687 -0.07439676 0.06486238 -0.091414355
000040 95 d7 b1 bc e8 b0 a0 3b ba f7 46 bd ec 94 a0 3d
       -0.021709243 0.0049039014 -0.048576094 0.078409046
000050 91 14 22 3e c1 83 72 bd 5d 31 2d 3d f3 8d bc bc
       0.15828158 -0.05920768 0.042283405 -0.023016905
000060 ae 93 dd bd a5 98 b1 bd ce ea 89 3c de b6 fb bd
       -0.10819183 -0.08671693 0.016835596 -0.122907385
000070 0a ac 82 bd ea 96 a8 bd ec ab 8f ba b2 01 a3 bc
       -0.0638047 -0.082319096 -0.0010961271 -0.01989827
000080 6c ce ff 3d 1f 6a 96 3d 67 69 48 3c 50 40 0d 3d
       0.12490544 0.0734446 0.012232161 0.03448516
000090 1d 61 7f bd 22 23 93 3d 97 b2 32 3d d8 11 71 3d
       -0.062348474 0.071844354 0.043627348 0.058854908
0000a0 99 19 27 bc 65 30 0f be 8d b4 3c bd 94 65 c7 3c
       -0.010198974 -0.13983305 -0.046070624 0.024340428
0000b0 96 0b cf 3c 28 7e a4 bd f0 5f 93 3d be 2b fe bd
       0.02527408 -0.08031875 0.07196033 -0.12410687
0000c0 a6 bf 6a 3d 00 0f e1 bd ab bd 12 3d e6 ef 34 3d
       0.057311676 -0.10989189 0.035825413 0.044174097
0000d0 95 9a ed bd de 65 8b bc f6 0c 21 be 50 d8 5c ba
       -0.1160175 -0.017016347 -0.157276 -0.0008424567
0000e0 c3 0f 4d bd e4 cf 0a 3d 0e 76 4a bd 43 f4 38 bd
       -0.05006386 0.033889666 -0.049428992 -0.04515482
0000f0 1a 38 b3 bd 37 ce 8e bd 38 e3 61 bd 60 56 6c bd
       -0.08750935 -0.06972926 -0.055148333 -0.05769956
000100 94 59 c3 bd 3f 0a 6e 3d ea eb a1 3c 36 92 03 bd
       -0.0953857 0.05811524 0.019765813 -0.03212186
000110 69 18 d6 bd 0c 19 96 bd 6c ac 82 bc 58 dc 7b bd
       -0.104538746 -0.07328996 -0.015951358 -0.061489433
000120 30 e5 8c bd 4b 4c 51 3d 37 e1 a6 bd 48 84 f6 bd
       -0.068796515 0.05109815 -0.08148425 -0.120369494
000130 ca b6 e7 bc 7f 1a d0 3c fe 5a 59 3d 01 38 05 3d
       -0.028285403 0.02540326 0.053065293 0.032524113
000140 78 a9 3f bd 5f 14 66 bd 9e 9c 47 3d 4f 0b 78 3d
       -0.046792477 -0.05617177 0.048733346 0.06055766
000150 ab c7 71 bb f7 04 1b bd bf e2 4f bd 16 64 e3 bd
       -0.0036892693 -0.03784653 -0.05075335 -0.11103074
000160 59 18 95 bd 9b 1d f6 bd 58 8e 03 3c 12 32 a1 bd
       -0.072800346 -0.120173655 0.008029543 -0.07870878
000170 cb 3b f4 3d 63 43 b5 bd 7e 17 31 3d 2d 92 12 3e
       0.11925467 -0.088507436 0.043235295 0.14313574
000180 df fb 36 bd df e4 25 3c cd 43 de bc 80 db f5 ba
       -0.044673797 0.010125368 -0.02713194 -0.0018757433
000190 3a ea b8 ba d1 a6 4d bd 51 56 97 3d 84 10 b3 bd
       -0.0014107891 -0.050207917 0.073895104 -0.087433845
0001a0 7f 38 93 3b 00 51 93 3d a4 1e 9b bd b2 80 90 bd
       0.004492819 0.07193184 -0.075742036 -0.07055797
0001b0 5e 2a 64 bd 23 62 22 3d 68 3d 00 3d 01 8d 95 bd
       -0.055704467 0.03964437 0.03130856 -0.07302285
0001c0 93 d2 9e bd 22 da a3 3c 58 0a 6b bd 65 a6 15 3d
       -0.077550076 0.020001475 -0.05738291 0.03653564
0001d0 8a 03 88 bc 48 f6 76 3d 13 25 03 bd 58 75 b1 bd
       -0.01660325 0.060293466 -0.03201778 -0.0866496
0001e0 81 f5 6b 3d 45 d0 49 bd 0b a2 0c bd 92 6f 34 3d
       0.057607178 -0.049270887 -0.034334224 0.044051714
0001f0 7f 3b 01 bd 4d 30 7b bc 5f d1 f7 ba fd 52 08 3b
       -0.03155088 -0.01533134 -0.0018907002 0.0020801418

net.3.weight f4 [128, 128]
000000 45 10 7f bd f5 4c 46 3e 0d 0b 69 bd 79 4e e2 be
       -0.062271375 0.19365294 -0.056895304 -0.44200495
000010 fc 51 9b bd 28 46 34 bc 73 d1 df bd 48 df 6b 3d
       -0.07583997 -0.011003055 -0.10928621 0.057585984
000020 39 a0 5e 3d f0 4a 77 bd 9d 80 34 bd 48 b3 05 3c
       0.05435202 -0.0603742 -0.044067968 0.00816042
000030 41 c3 c8 3d bc ec 7c bc de 64 6c 3a 90 be 67 3d
       0.09802867 -0.015437301 0.0009017716 0.05657822
000040 29 33 13 be 58 90 4c bd 15 8e 5b ba 14 79 cc 3c
       -0.14374985 -0.049942344 -0.0008375359 0.024960078
000050 9f 8f b9 3c 0b 69 ed bd af 9d d1 bd 7b 83 37 3a
       0.022651492 -0.11592301 -0.10235154 0.0007000488
000060 5b 45 4c 3d b0 9d 7e bd f7 e3 e3 3d 84 4b c7 be
       0.04987083 -0.0621621 0.11127465 -0.389248
000070 17 3f 54 bc c1 91 31 bd a0 ea 7a bb 58 e7 1c bd
       -0.012954495 -0.043351892 -0.003828682 -0.038306564
000080 07 cb 87 bc 8d 95 ea 3d 55 60 c3 3b 12 34 ed bc
       -0.016576303 0.11454306 0.0059624114 -0.028955493
000090 8e 0d cd bc 40 09 d1 3a 2a de 54 bd 63 8a 85 bd
       -0.025030877 0.0015948191 -0.051969685 -0.06520536
0000a0 3e ba e4 3c db 29 b1 3e a4 3c d1 3d bf b5 ad bd
       0.027920838 0.34602246 0.102166444 -0.08481931
0000b0 47 b4 0f be cd cc 00 bd 48 95 35 bc 21 37 4e bd
       -0.14033614 -0.031445313 -0.011082955 -0.050345544
0000c0 3b 6c a9 bd 58 48 7c bd a9 b2 b9 bd f2 9f 83 3c
       -0.082725964 -0.06159243 -0.0906728 0.016067479
0000d0 f5 1a 73 3c 67 a4 2e 3d ea f6 d1 3d 6c ef ab bc
       0.01483797 0.042637255 0.10252173 -0.020988189
0000e0 ab c6 9e bd a3 b5 36 be 55 a4 07 3e b0 93 06 be
       -0.07752737 -0.17842726 0.13246281 -0.13142276
0000f0 32 86 f2 3d 44 8a 31 bd 5d 31 a3 bd 50 28 85 bd
       0.11842002 -0.04334475 -0.079684 -0.065018296
000100 35 48 03 bd 98 95 e8 bc c1 9b 9b bd c0 fd cd bd
       -0.032051284 -0.028391644 -0.07598067 -0.100581646
000110 8f 3b ff be c8 c5 f9 bd cb b0 8a bd 20 7b 6b 3d
       -0.49850127 -0.12195927 -0.06772002 0.057490468
000120 18 0a 02 3d 79 bf f2 bd f8 42 50 3d d3 65 b6 bc
       0.031747907 -0.11852927 0.050845116 -0.02226535
000130 ff bd 3a bd c0 e4 ac 3c bf 75 eb 3d 05 4c 83 3d
       -0.04559135 0.02110517 0.11497068 0.06410984
000140 ab bc cd bc 49 51 13 be 19 14 00 bd ba c8 89 bc
       -0.025114378 -0.14386477 -0.031269167 -0.016819347
000150 68 59 f7 bd c6 22 6c 3d 96 d5 e7 bd 50 02 08 be
       -0.120776 0.05765035 -0.11320035 -0.13282132
000160 08 0d 6e bd 8b ac 19 3e a4 f8 f0 3c 27 1e af 3d
       -0.058117896 0.15007226 0.029415436 0.08550673
000170 4b 0e bc bd bf 21 51 bd cb 76 81 3d fd f0 2e 3d
       -0.09182414 -0.051057573 0.06321486 0.042710293
000180 ec 43 30 3d 4c bc 81 bd 4f 50 9f bd 58 b7 1f 3c
       0.043033525 -0.06334743 -0.077789895 0.009748302
000190 ae 01 86 3d 9a 6d 01 3d dd 96 9b bc de 7c a9 3d
       0.06543289 0.031598665 -0.018992836 0.0827577
0001a0 f7 b9 0d bd 92 5a 9d bd ea ad 6f 3d a1 48 53 be
       -0.034601178 -0.076832905 0.058515467 -0.20633174
0001b0 76 20 65 bd 4a 62 78 3d 05 0a 94 3d 56 3e 0c be
       -0.05593916 0.06064061 0.072284736 -0.13695654
0001c0 a1 61 94 3d c1 e9 47 3d 1d 8d a1 3d 4d 19 97 3d
       0.07245184 0.04880691 0.07888243 0.073778726
0001d0 3f d3 c4 be 9d 77 92 3d a9 83 5f 3c c5 63 1c 3d
       -0.38442418 0.07151721 0.01364223 0.038181085
0001e0 43 85 35 bd fa f7 a9 bd 45 01 89 bd 12 39 5e 3d
       -0.04431654 -0.08299251 -0.06689695 0.054253645
0001f0 ca e3 be bc 74 85 be bd 23 f6 9a bd 03 70 bc bc
       -0.023301978 -0.09302798 -0.07566478 -0.02300263
000200 dd 2c a3 bd c1 06 88 3b 8b f6 b4 bd 31 69 33 bc
       -0.07967541 0.0041511958 -0.08836087 -0.010950373
000210 45 4c 8b 3d db 94 37 bd b7 a8 1f 39 f1 53 84 bd
       0.06801657 -0.044819694 0.00015226273 -0.06461323
000220 36 5b 40 bd ae bb 84 bb 7a e9 a9 bd 74 d0 a5 bc
       -0.046961986 -0.0040506935 -0.08296485 -0.020241
000230 d3 9b 9f 3d 05 e6 8b 3d 67 e0 a4 3b 96 26 1d 3d
       0.07793393 0.06830982 0.0050316337 0.038366877
000240 70 a3 38 3b 5e 2f fe bc 27 f2 d0 bc cc 5f 80 3c
       0.0028173588 -0.031028446 -0.025506092 0.01567068
000250 a8 91 91 bd ab 18 b0 bb 98 33 e7 bd f2 db a8 bd
       -0.0710786 -0.0053740344 -0.112891376 -0.08245076
000260 83 34 54 bd 81 04 8d bc 75 29 b7 3d 2a 0b fb bd
       -0.05180789 -0.017214062 0.08943454 -0.12257989
000270 c0 ce 99 3d 17 76 82 bd 00 94 bf b9 30 3c 03 3d
       0.075101376 -0.0637018 -0.00036540627 0.03203982
000280 9a 19 18 bb 59 20 5e 3d 6f 37 30 bd a3 8d 97 3d
       -0.002320862 0.054230068 -0.043021616 0.07400062
000290 50 b6 8d 3c 40 d2 1e bb 04 c1 6c bd 0e 6d 9e ba
       0.017298847 -0.0024234205 -0.05780126 -0.0012086944
0002a0 21 9d ec bb a1 15 c9 3d 64 8b 85 3c 62 06 2c 3d
       -0.0072208797 0.098185785 0.016301818 0.041998275
0002b0 32 6b 37 be 9b 4c 55 bb 03 7d a0 3d 15 f6 e5 3c
       -0.17911986 -0.003254688 0.07836344 0.028071443
0002c0 aa b7 65 3d 71 cf c3 bd a6 4a 88 bd 22 bd 6e 3c
       0.05608336 -0.09561051 -0.06654863 0.01457146
0002d0 37 77 50 3d d3 ea b7 bd c4 bc ee 3c 66 82 f9 bd
       0.050894942 -0.08980336 0.029142745 -0.12183075
0002e0 30 6b c2 3c f2 b6 f1 bd 10 68 9b bd 77 7d 3b bc
       0.023732752 -0.11802472 -0.07588208 -0.011443487
0002f0 36 33 10 bb eb 67 36 bd db 93 ef 3c b1 01 0d bd
       -0.002200318 -0.044532698 0.029245308 -0.03442544
000300 6b eb a1 bd c4 6f 6b 3b 02 de 07 bd 8a 96 8c 3d
       -0.079062305 0.0035924772 -0.033170708 0.068646505
000310 68 fd 20 bd 88 5f 3c 3c ce b6 48 3d 8d 72 1c bc
       -0.039304167 0.011497386 0.04900246 -0.009548795
000320 89 be 07 be 30 1a 4a 3c 8d 0d c3 3a f2 9d ae bd
       -0.13256277 0.012335345 0.0014881358 -0.085262194
000330 08 c5 06 bd fc d8 85 bd 16 0c ea 3c 75 b7 23 bd
       -0.032902747 -0.06535527 0.028570216 -0.03996988
000340 db c0 35 bd 95 a9 1e be 0a ff 91 3c 41 b1 94 3d
       -0.044373374 -0.15494378 0.017821807 0.07260371
000350 b5 92 c0 bb f5 d6 b1 3d 8c ec 30 bd b5 2e 21 bc
       -0.005876864 0.08683578 -0.04319434 -0.009837796
000360 cb ad b5 bd e7 25 62 3e 60 12 92 3b de 4d 76 3d
       -0.08871039 0.22084771 0.004457757 0.060132854
000370 54 51 ab 39 5f bb 5f 3d a2 1c 63 bc 2b 55 db bd
       0.00032676256 0.05462205 -0.013861807 -0.10709604
000380 cd b1 c2 bc 5b ff 0f 3c 28 6b 48 bd 00 8a 87 bb
       -0.023766423 0.008788909 -0.048930317 -0.004136324
000390 37 e8 13 bc ee ef 5b 3d c7 05 9d bd da 5e 2d 3e
       -0.009027532 0.05369561 -0.076671176 0.16930714
0003a0 7a 1f 36 3d f3 ca e8 bc c8 51 19 3c 30 cc cb bd
       0.044463612 -0.028417086 0.009357877 -0.09951055
0003b0 21 cc 0c 3d 98 2d 01 be 22 eb 13 3d 45 49 4c bd
       0.03437436 -0.12615049 0.036112912 -0.049874563
0003c0 6a 75 f2 bc 90 68 e4 3c 88 1d 2b bd 0c 1d d5 3b
       -0.029597003 0.02788189 -0.04177621 0.006503707
0003d0 f4 5f 23 be 0a 4e a7 bd 93 d2 ea 3c fa 52 38 bd
       -0.15954572 -0.08169182 0.028664863 -0.045001008
0003e0 4e 4f 4d bd 20 3a 30 3c 61 c4 cd 3b 29 79 06 bd
       -0.05012446 0.010756046 0.0062795137 -0.03283039
0003f0 5a ed 6f 3d 25 54 81 3d f4 9b 4c 3d f9 9c 3a 3d
       0.058575965 0.063148774 0.049953416 0.045559857

net.3.bias f4 [128]
000000 f6 e5 c5 bd ab 41 78 3c 14 41 7e bd 4b a6 f4 3d
       -0.09663002 0.015152375 -0.062073782 0.1194578
000010 41 4c 82 bd c3 51 5a be a5 3e b3 bd c4 b0 c1 bb
       -0.063622005 -0.21320252 -0.08752183 -0.0059109647
000020 76 bd 4f bd ef 6e 4d bd 75 75 97 3b a3 ab f5 bd
       -0.050717793 -0.050154623 0.0046221563 -0.11995628
000030 52 2b de bd e5 86 fc 3d 3b 94 04 bd c3 04 78 3d
       -0.108481064 0.123304166 -0.032367926 0.060551416
000040 e0 69 87 bd 9c 6c 24 bd fb 7c f0 3d 0e d5 9b 3c
       -0.06611991 -0.04014264 0.11742588 0.01902249
000050 2a fd 1d 3d 79 e9 fe bc 88 69 71 bd a8 84 bd bd
       0.038571514 -0.031117188 -0.058938533 -0.09253818
000060 e7 aa 93 bd 4d 35 4a 3e af cd f3 3c 46 e5 4d 3d
       -0.072103314 0.19746895 0.029761164 0.05026748
000070 32 30 04 be 91 2f 6a 3b e6 9f b2 3c d5 c7 9c 3d
       -0.1290901 0.0035733918 0.021804761 0.076553024
000080 0c 82 9a be 9a a3 82 bc 05 e7 dc bd 26 fa c3 bd
       -0.30177343 -0.015947152 -0.10786251 -0.095691964
000090 91 90 2c bd c9 e1 34 3d e2 c5 38 39 2a fc 86 bd
       -0.042130057 0.044160638 0.00017621325 -0.06591065
0000a0 b0 ad 01 3d 16 e5 79 3c 69 27 dd 3d 6c 68 49 bd
       0.031659782 0.015252372 0.107985325 -0.04917185
0000b0 47 8a 4b 3b ce 97 b2 3b 83 af 9d bd 89 30 d8 bd
       0.0031057762 0.0054502254 -0.07699492 -0.10556132
0000c0 cc 29 34 3d 85 65 3a bd 92 e6 99 bd a3 9b a5 3c
       0.043985173 -0.045506973 -0.07514681 0.020215815
0000d0 12 b7 d8 bb 06 56 3b bd 1b f7 32 3e 9e 5e 7f bd
       -0.0066136206 -0.045736335 0.17477076 -0.062346093
0000e0 41 82 18 bd b1 61 8a bd d9 90 f1 3c e4 38 b1 ba
       -0.037233595 -0.067569144 0.029488014 -0.0013520983
0000f0 c8 26 24 be a7 15 d2 bd a6 c8 d5 bc 1d 2c 66 be
       -0.16030419 -0.10258036 -0.026096653 -0.22477765
000100 51 98 9f 3d 3b 9a 91 3d 13 94 96 3d e0 d9 3b bd
       0.07792724 0.07109495 0.07352462 -0.04586208
000110 26 49 11 bb c1 7e b7 bd da 51 84 3e 24 9b 03 3e
       -0.0022168844 -0.08959723 0.25843698 0.1285215
000120 fa 50 84 bd 61 43 1e be 4f e8 56 bb c9 e9 d2 3d
       -0.064607576 -0.1545539 -0.0032792275 0.10298497
000130 e3 1b d1 bd 31 f3 8e bb 98 68 2d be 4c 9c c7 bd
       -0.10210397 -0.004362487 -0.1693443 -0.09746608
000140 a0 ec 4a 3e 64 ee 2c bd 10 43 84 3c 79 03 03 be
       0.19816828 -0.042219535 0.01614526 -0.12794293
000150 e2 4b e7 bd 48 64 0b be 0d b6 b5 3c 74 a2 fd bc
       -0.112937704 -0.13612473 0.022181535 -0.030961253
000160 66 cb af bb 9c 6f c7 bd ed 2c 60 3d 48 df 9e 3d
       -0.005364823 -0.09738085 0.054730345 0.07757431
000170 85 97 d8 bc 35 62 0e 3c a3 f4 a6 3d d9 5f e6 bd
       -0.026439438 0.008690407 0.081521295 -0.1124875
000180 ab e5 93 bd 69 6a 83 bd ac ae 0d 3e 17 e4 8f 3d
       -0.0722154 -0.064167805 0.13836163 0.070259266
000190 62 14 e2 3b 5f cf a5 bd 4a f8 32 bd cd 48 45 3d
       0.0068994025 -0.080961935 -0.04369382 0.04816513
0001a0 20 91 f3 bc 7a b1 9e bb 0f 78 40 3d c8 92 80 3c
       -0.029732287 -0.004842934 0.046989497 0.01569499
0001b0 c6 07 05 be b5 a8 dc bd a9 1f 86 3d 2a 2b 5d 3e
       -0.12991247 -0.10774366 0.065490074 0.21598497
0001c0 57 a6 b7 bd 25 7b b8 bd 8f c1 7f bd 2a 38 b7 bd
       -0.08967274 -0.09007863 -0.06244045 -0.08946259
0001d0 72 b6 90 bd 60 c1 86 bd 53 e5 60 bd 18 42 55 be
       -0.07066049 -0.06579852 -0.0549062 -0.20825994
0001e0 f9 14 f4 bd 07 8c 65 3c 2b f3 5b be 80 61 05 3d
       -0.11918063 0.014010436 -0.2147948 0.032563686
0001f0 84 73 cc bd e1 80 82 3e 59 bf 1b bd f0 3c 28 be
       -0.0998297 0.25488952 -0.03802428 -0.16429496

net.5.weight f4 [128, 128]
000000 47 e7 49 bb 11 56 8f 3d a7 9c a9 3d dc 22 e5 3c
       -0.0030808018 0.06998838 0.08281832 0.027970724
000010 c8 2f c9 3c b2 c1 4c bd 5a 37 d2 bd f3 f2 a9 bd
       0.024558917 -0.04998941 -0.10264464 -0.08298292
000020 b8 cd 49 bc 17 5b a3 bc c6 06 04 3d 60 5a 51 3c
       -0.012317114 -0.019940896 0.032233022 0.012777895
000030 93 9c b1 ba cb bc b9 3c 10 35 9e 3c fc c8 1e 3d
       -0.0013550691 0.022673031 0.019312412 0.038765892
000040 b4 d5 aa bd a1 a3 d1 3c cd d4 61 bd 17 3a 23 bd
       -0.08341542 0.02559072 -0.055134583 -0.03985032
000050 4c 50 e7 bc cb 34 23 bd b9 bd 0b bd 2a 4d 4e 3c
       -0.02823653 -0.03984527 -0.03411648 0.0125916395
000060 b5 4c e3 bb 94 3d e0 bc 9d 45 9a 3c bf d9 46 bd
       -0.0069366344 -0.027373113 0.018832022 -0.048547503
000070 0e a2 34 bd 6d 54 ad bc 52 7b 3b bd 76 71 c4 bd
       -0.04409986 -0.021158421 -0.045771904 -0.095919535
000080 6e 53 6c 3d e1 25 b1 bd 68 ee 2c bd 76 4c 2d bd
       0.057696752 -0.08649803 -0.04221955 -0.042309247
000090 f6 ee bf bd d5 5c 24 bb 6c 32 a5 bd c0 a0 84 bd
       -0.0937175 -0.0025079746 -0.08066258 -0.06475973
0000a0 71 e3 79 3c fa cf ea 3c 4f 59 17 bd 50 8d 44 bc
       0.01525198 0.028663624 -0.036950406 -0.011996582
0000b0 b5 5b 84 bd c0 b5 02 bd 08 45 00 3d e1 b6 84 bd
       -0.06462804 -0.03191161 0.031315833 -0.06480194
0000c0 56 c7 5a 3c c1 af 21 3c fe fb 92 bd 7a 65 5f 3d
       0.013353189 0.009868563 -0.0717697 0.054540135
0000d0 d6 20 7c bc 2e da a8 bd 6f 39 93 bc 34 80 b7 bc
       -0.015388688 -0.082447395 -0.017971722 -0.0224
0000e0 47 30 d7 bd 80 51 15 bb 4c e4 9a bc ba e6 66 3b
       -0.10507255 -0.0022784173 -0.018907689 0.0035232739
0000f0 26 86 4c 3c db ee d5 bd 12 66 9d bd 2e 7a bf bd
       0.012483155 -0.10445949 -0.07685484 -0.09349476
000100 08 7d bc bd 2c 3e b6 bd 70 f1 68 3c 12 28 47 bd
       -0.09203535 -0.08898577 0.014217719 -0.0486222
000110 2c 0d 29 3d dc 2a 63 bd 22 31 d4 bc 94 0a 06 be
       0.041272327 -0.055460796 -0.025902335 -0.13089973
000120 77 de 23 3d 03 1c cf bc 2c 3e b6 bd 9d 62 bc b9
       0.04000708 -0.025281912 -0.08898577 -0.00035931627
000130 65 96 94 bd fc f8 9f bd 10 bd 35 3d cb ee 6c 3c
       -0.07255248 -0.07811162 0.044369757 0.01446123
000140 1b 1d 4b bd bc a4 dd 3b a3 91 3f 3d 9b fc ae bd
       -0.049588304 0.0067640226 0.04676975 -0.085442744
000150 26 22 75 bc d7 4e 9e bd 7c 38 c2 bc 50 86 b4 bd
       -0.014961755 -0.07729881 -0.023708574 -0.088146806
000160 5b f6 f6 bb 56 bc 7d 3c 25 b9 bb bd 1e e0 e0 bd
       -0.007536692 0.015486797 -0.09166173 -0.10980247
000170 36 94 b1 bd 8b 0e 79 bd 99 a0 0f bd fd 4f 2f 3d
       -0.08670847 -0.060804885 -0.035065267 0.042800892
000180 6c 8e 43 bc 10 1f 83 bb 81 f6 5d bd 41 e1 49 bd
       -0.0119358115 -0.0040015057 -0.054190163 -0.049287084
000190 ba 42 08 bd c6 32 57 3c f0 23 b9 bc be 74 be 3c
       -0.03326676 0.013134664 -0.022600144 0.023249026
0001a0 1b fa 73 3c b5 65 9e 3c ca 09 95 bd be 53 1b bd
       0.014891173 0.019335607 -0.07277258 -0.03792166
0001b0 c8 17 23 bd 2f be 95 bd a8 9e a1 bd 72 40 dd bd
       -0.0398176 -0.07311665 -0.078915894 -0.108033076
0001c0 88 4c c9 bc 52 40 16 bd 3d 04 5f bd 20 5f a7 bd
       -0.024572626 -0.036682434 -0.0544474 -0.081724405
0001d0 87 cd 89 3d 77 dd d7 bb cf 49 5e bd 12 82 9f bd
       0.06728654 -0.00658768 -0.054269608 -0.07788481
0001e0 e7 62 a3 3d 43 da 2d bd 4b ad c3 bd e2 a7 11 3d
       0.079778485 -0.04244448 -0.095545374 0.035560496
0001f0 ab 45 5e bc 64 d5 c0 bb 69 a5 01 be 42 a2 14 3d
       -0.013566415 -0.005884813 -0.12660755 0.036287554
000200 22 11 5d 3d e6 a2 40 bd e0 6f 9f bd 8a 4e 9f bd
       0.053971417 -0.047030352 -0.0778501 -0.07778652
000210 28 74 7c 3c 4b 0b ea bd a5 4a d1 bd b2 d1 8b bd
       0.015408553 -0.11427935 -0.102193154 -0.068271056
000220 00 d8 21 3a fa d1 f5 3c 3e 10 41 bd a0 23 d3 3b
       0.0006173849 0.030007351 -0.04713463 0.006443456
000230 d6 71 4b bc 92 8f ee bc 66 22 86 bd a0 d7 74 bd
       -0.012417277 -0.029121194 -0.0654953 -0.05977595
000240 6d 40 9e 3d d9 b8 07 bd 6f e3 00 3d 2a 52 0c 3d
       0.07727132 -0.03313527 0.031466898 0.034258045
000250 29 5d fa bb f5 42 b3 bc ea e6 f8 39 90 0a de 3c
       -0.0076405 -0.021882514 0.0004747429 0.027104646
000260 25 ba c7 bc 3e 2a 1b 3d cd 14 e6 bc 34 83 b1 bd
       -0.024380753 0.037882082 -0.02808609 -0.08667603
000270 08 15 0a bd c3 b7 9d 3d ac c8 c9 bc 47 cf 01 bd
       -0.033711463 0.077010654 -0.02463182 -0.031691816
000280 40 ac a2 bd 37 fb 49 bd 0c 77 03 3d 64 ee 8c bd
       -0.0794301 -0.049311843 0.032095954 -0.06881407
000290 b0 45 44 3c 9b 8f 5a bd cb 5f 8e 3d b8 cb 3e bd
       0.011979505 -0.05335961 0.06951865 -0.046581
0002a0 59 c8 69 3d 68 17 9a bc 10 de 15 bc 82 63 08 3d
       0.057075832 -0.01880999 -0.009147182 0.033298023
0002b0 09 a3 6f 3d 05 38 8c 3d 28 e7 a2 bc 8e 63 b8 bd
       0.05850509 0.068466224 -0.019885615 -0.090033635
0002c0 fc 8c 30 bd ce 28 66 bd 81 65 46 bd 1b d5 37 3d
       -0.043103203 -0.056191258 -0.048436645 0.044880968
0002d0 d1 e9 b4 bd 44 f9 85 bd 3c f3 83 3d ec 45 d6 bc
       -0.088336594 -0.06541684 0.06442878 -0.026156388
0002e0 a0 68 0d 3d a0 f6 dc 3b 5c f5 e9 3c 21 63 50 bd
       0.034523606 0.006743267 0.02855938 -0.050875787
0002f0 73 f0 5b 3c 69 1b 8f bd a4 3a e8 3c 16 ab f5 bc
       0.013424027 -0.0698765 0.028348275 -0.029988807
000300 2b b3 20 3d 30 7d 63 bd c0 98 98 3b 9a 77 cf bd
       0.039233368 -0.05553931 0.004656881 -0.10130234
000310 5b 58 d9 3b bc 56 cd bc 78 62 91 bd e0 15 1b 3b
       0.0066328472 -0.025065772 -0.070988595 0.0023664162
000320 d2 cc b1 bd ea af 45 3d 61 2e a4 3d a3 86 3d bd
       -0.086816445 0.048263468 0.080166586 -0.046270978
000330 e0 99 8f 3b cf 71 b7 bd 6b 35 41 bd c2 b7 74 bd
       0.004382357 -0.08957254 -0.047170084 -0.059745558
000340 d7 22 aa bd be 5c 29 bd 1d 31 94 3d 64 49 4c 3d
       -0.083074264 -0.04134821 0.0723593 0.04987468
000350 74 b2 8e bd 66 94 01 bd 89 53 7f bd f8 84 0b 3d
       -0.06967631 -0.031635664 -0.062335525 0.034062356
000360 92 ec 7b 3d 53 96 46 3c c9 05 a2 3d 06 85 a4 bd
       0.061504908 0.012120801 0.0791126 -0.08033185
000370 d2 a5 51 3d 9d b5 49 bc 82 cd 48 bd 3e 2f 8b bd
       0.05118353 -0.012311366 -0.049024113 -0.0679612
000380 f0 83 b7 3b eb 1e 82 3d e1 55 0d bd f9 74 9f 3d
       0.005600445 0.063535534 -0.03450573 0.07785983
000390 82 02 d8 bc 58 dc 39 bc 07 47 8c 3d d3 1d a2 3d
       -0.026368383 -0.011344038 0.06849485 0.07915845
0003a0 12 e8 5d 3d be c1 38 3c 75 16 9f bd 8b 77 86 3d
       0.054176398 0.0112766605 -0.07767955 0.0656577
0003b0 b6 7a 40 bb 72 88 33 bd e3 39 12 bd fe ae 4f bd
       -0.0029370016 -0.043831296 -0.035699736 -0.050703995
0003c0 4b 0d b0 3d de b5 18 3d 42 7f 00 bd f8 af d1 3c
       0.085962854 0.037282817 -0.031371363 0.025596604
0003d0 14 be 42 bd 51 e2 8f bd 69 d4 a2 bd 11 01 80 bd
       -0.047544554 -0.07025588 -0.0795067 -0.062502034
0003e0 aa 75 6e 3d b8 03 28 bc 05 79 0f 3d ed a5 35 bd
       0.058217682 -0.010254793 0.035027523 -0.044347692
0003f0 be 19 26 3b f2 46 11 bd 48 fd c1 bd 26 68 d8 3c
       0.0025344933 -0.03546805 -0.09472138 0.02641685

net.5.bias f4 [128]
000000 91 b9 56 bd 46 91 43 bd 33 9f 8f 3d 89 d5 6b be
       -0.052423064 -0.047745965 0.07012787 -0.23030676
000010 85 fc 1c 3c e3 0b 65 3b 84 52 c1 bd 5e 34 f9 bc
       0.00958169 0.0034949712 -0.09439567 -0.030420478
000020 80 09 dc bd 74 a6 a9 bb 9f 6f 90 bd 5c 9c 42 bd
       -0.107439995 -0.0051773135 -0.0705254 -0.047512397
000030 8f c2 50 3d 20 56 8a be 3b 96 c4 bd f8 05 4e be
       0.050966796 -0.27018833 -0.09598967 -0.20119464
000040 81 b5 89 3d 30 22 d5 3d d2 9f d7 3c 04 15 ff 3d
       0.06724072 0.104069114 0.026321325 0.1245518
000050 97 c0 9e bc f3 ce 4a be ae cc 03 3d 2e aa 55 bd
       -0.019378943 -0.19805507 0.03217762 -0.05216425
000060 fc 63 69 3d 5e c6 09 bd 06 42 b3 bd 79 26 63 bd
       0.05698012 -0.033636443 -0.08752827 -0.055456612
000070 f5 ae 1e be 3a e2 74 3e 4d 68 14 3e c7 d7 ef 3b
       -0.15496428 0.23914424 0.14492913 0.007319424
000080 5d 00 30 3e 10 b3 58 3d 02 cf 1e bc 23 3b d7 3d
       0.17187639 0.052905142 -0.009692909 0.10509326
000090 c8 60 dc bc 23 2d d8 bd 0d 23 46 be db 37 03 be
       -0.026901618 -0.10555484 -0.19349308 -0.12814276
0000a0 4c d9 fd bd 81 db 0c be 9d 03 71 3e 34 d1 1f bb
       -0.12394962 -0.13755609 0.23536535 -0.002438617
0000b0 93 fd 1a 3e 18 b8 8a bd e6 ac 32 bc 61 2a 03 bd
       0.15135793 -0.06773394 -0.01090548 -0.032022838
0000c0 28 59 0d 3d 92 b5 cb bd 0a 27 15 3e ff 40 cf bd
       0.034508854 -0.09946741 0.14565673 -0.10119819
0000d0 5f df c5 bc 12 dc 02 be f7 0f 86 bd d4 44 26 3d
       -0.024154363 -0.12779263 -0.06546014 0.040592983
0000e0 b5 50 c2 bd e4 7b 16 3e 56 1e 89 bd 58 19 4f bc
       -0.0948805 0.14695698 -0.06695239 -0.01264032
0000f0 ed f4 b3 bd 10 0a 18 be c0 dc 7c bc e1 96 aa 3d
       -0.0878695 -0.14847589 -0.01543349 0.08329559
000100 fc 60 30 3e 5d 69 51 3e 6f db 3d 3d 20 d6 f2 bd
       0.17224497 0.20450349 0.046351846 -0.11857247
000110 a4 52 a4 3d a1 ab fa bb 79 44 92 3d 65 51 6f 3b
       0.08023575 -0.0076498543 0.071419664 0.003651702
000120 c2 0e d8 3c 46 ae 35 3d 70 6e 8f bd 30 cb 2d bd
       0.026374225 0.044355653 -0.07003486 -0.042430103
000130 df cb 98 3d d3 d0 88 3b c6 f2 34 be bb 79 ae bc
       0.0746076 0.0041752844 -0.17670736 -0.02129828
000140 a8 bf 80 3d 6a 9f 90 3d b4 96 7a b9 2c 4e a5 3d
       0.062865555 0.07061656 -0.00023897999 0.08071551
000150 a6 fb a5 bd b5 f6 7e 3e d0 5e be 3c 5a ad 52 3d
       -0.08104639 0.24898799 0.02323857 0.051434852
000160 e9 6c a0 bd cf f8 25 3d a4 cb dc 3d bf 73 ba bd
       -0.07833273 0.040520485 0.10781029 -0.09104108
000170 cb 07 83 3d b0 cc bd bd 8e c4 87 bd 8e d4 f3 3d
       0.06397971 -0.09267557 -0.06629287 0.11905776
000180 25 5d 06 3d 9e 64 3d 3e 95 67 26 be d5 2c bb bd
       0.032803673 0.18495414 -0.16250451 -0.091394104
000190 00 b7 fd 3d 29 03 d8 bd 97 d7 58 3c ed 00 31 be
       0.1238842 -0.10547478 0.013234994 -0.1728551
0001a0 78 2f ed 3d 05 f4 32 3a a0 41 7d bc 81 ce 8f bd
       0.115813196 0.0006826523 -0.015457541 -0.07021809
0001b0 73 52 fc bd f0 b3 ee 3d 1e d4 cd 3c ce 6a d2 bd
       -0.123204134 0.11655414 0.02512556 -0.102742776
0001c0 7e a0 46 3d f0 d9 b2 3d 4c e5 b2 bd 42 43 dc 3c
       0.0484929 0.087329745 -0.08735141 0.02688754
0001d0 f0 00 1e 3a e1 d4 f5 3d 80 50 cb bc 91 b6 19 3e
       0.00060273614 0.12003494 -0.024818659 0.1501105
0001e0 c8 dc c0 3d 77 80 78 3c de 1b ef 3d 06 06 fd 3d
       0.09417111 0.015167347 0.11675237 0.123546645
0001f0 01 b2 49 3d 94 bb 14 3c 8a 1e 17 3e df 96 18 bd
       0.049242023 0.009077925 0.14757743 -0.037253257

net.7.weight f4 [6, 128]
000000 a8 ee 15 3c 03 4d a1 bc a8 4c 37 bf c8 b9 fe bd
       0.009151138 -0.019690042 -0.71601343 -0.12437779
000010 84 98 0f 3d c8 81 38 bc 2b 24 b4 be b4 82 35 be
       0.03505756 -0.011261411 -0.35183844 -0.1772564
000020 e3 19 e5 bd 64 a9 25 bd ba 26 0a bd 75 f7 7b be
       -0.11186578 -0.040444747 -0.03372834 -0.24606116
000030 15 36 d3 bb 91 6d 46 be af 18 e9 bd 17 ac 3d be
       -0.006445656 -0.19377734 -0.11381661 -0.18522678
000040 0b 38 bc bf 5b ec 13 3c 29 2d f5 bd 4b be fe be
       -1.4704603 0.0090285195 -0.11971504 -0.49754557
000050 d3 63 01 bf d9 e9 04 be 14 3a 60 3d 1b 9a a3 bd
       -0.50542945 -0.12979831 0.054742888 -0.07988378
000060 d6 6a f6 bc 81 b5 9d 3d 89 9c 57 bb 76 70 e2 bf
       -0.03008024 0.07700635 -0.0032899699 -1.769057
000070 49 1a a2 bf df 39 b6 3d 65 22 3c bf 57 36 b0 3d
       -1.2664272 0.08897757 -0.7348998 0.086041145
000080 43 f5 d7 bf 24 e4 91 bd 2c 3f 33 3d e0 11 2a bc
       -1.6871723 -0.071235925 0.043761417 -0.010380238
000090 df 0d 27 bd dc 53 14 bd fd db 5e bf 3a 7f 84 be
       -0.040784713 -0.036212787 -0.87054425 -0.25878316
0000a0 ed f7 58 3d 45 48 08 be 7c a2 c9 3d 97 57 fb be
       0.052970815 -0.13308819 0.098454446 -0.49090263
0000b0 5a 58 9d bd fc 56 12 be ae 1d b5 bd 07 b1 36 3d
       -0.07682867 -0.14290994 -0.088435516 0.04460242
0000c0 47 16 90 bd 0d 5a 25 bd 17 03 f6 3d 59 36 0d bc
       -0.07035499 -0.040369082 0.12012308 -0.0086189145
0000d0 57 41 87 3d 20 ab bb bd 25 88 76 3c c7 82 9f bf
       0.066042595 -0.09163499 0.015047108 -1.2461785
0000e0 be fb 55 bd ea 7b 24 bf 0a a7 e5 bd cd b0 08 bd
       -0.052242033 -0.6425158 -0.11213501 -0.033371735
0000f0 74 66 25 3c fd 55 8b bf 96 8c 95 3c 05 c5 94 be
       0.0100952275 -1.0885617 0.018255513 -0.29056564
000100 6f 63 7b be 00 a2 0b bf 96 fa 09 be e0 57 82 bd
       -0.2454965 -0.5454407 -0.13474497 -0.06364417
000110 76 67 d3 3d 33 22 40 3d 09 82 cb bd 00 8b dc be
       0.10322468 0.046907615 -0.099369116 -0.430748
000120 4b 73 d1 bc 9c 8f 61 bc ba 95 de 3a d1 4c 1b bd
       -0.025567671 -0.013767149 0.0016981878 -0.037915055
000130 2a 66 a3 3d d0 a6 46 3c 73 f4 8d bb 50 61 ae bf
       0.079784706 0.012124732 -0.004332119 -1.3623447
000140 4f 80 a2 bc 45 ef 02 bf ca 98 0a bd 83 0c 53 be
       -0.019836573 -0.51146346 -0.033837117 -0.20610242
000150 2c b2 af 3c f3 80 3c bf 88 f1 18 3c d6 e8 76 be
       0.021447264 -0.7363426 0.009334929 -0.24112257
000160 70 ab d5 be a7 5b 22 bf 17 73 c2 3d de da 82 3d
       -0.4173236 -0.634211 0.09494608 0.06389402
000170 a1 03 e3 be f1 4a 7a 3c cf 0c ab 3a f0 ce d5 bc
       -0.44338706 0.0152766565 0.0013050082 -0.026099652
000180 cb f3 42 3d af 1c 99 3e 19 e7 09 be d2 f5 84 3d
       0.04759578 0.29904696 -0.13467063 0.06492199
000190 97 b6 a2 bf 88 e5 02 bd fd 3a f8 be c1 c7 bf bd
       -1.2711972 -0.03195718 -0.48482504 -0.09364272
0001a0 f6 94 04 bd f8 dc 18 3d 1b c4 f4 3b 33 14 3b bd
       -0.032368623 0.037320107 0.0074696667 -0.04567356
0001b0 29 b7 5b be 5a e2 a7 bf b3 a1 3d bc eb 6c 10 bd
       -0.21456589 -1.3115952 -0.011574197 -0.035260122
0001c0 d7 39 0a bf ac 5e 30 3e 2b 83 b0 bd 8f 3c cc bf
       -0.53994507 0.17223614 -0.08618768 -1.5955981
0001d0 99 a9 37 bf 9a 4e 1e 3d 05 bc 3b bf b4 36 21 3e
       -0.7174316 0.03864918 -0.7333377 0.15743524
0001e0 80 99 93 be f5 8f 21 bd 51 c5 3a 3e 9d a4 a0 3d
       -0.2882805 -0.03944393 0.18239333 0.078438975
0001f0 ae 6f 35 bf 0a 32 9a 3c 3b a5 0d 3e 57 62 49 bb
       -0.70873535 0.018822689 0.13832562 -0.003072878
000200 04 8a 32 bc 2d 04 36 3d 8d d5 8c 3c 6a 56 d0 bb
       -0.010897163 0.044437576 0.017191673 -0.0063579576
000210 de 36 1e 3d 8e ff 42 3c db 51 f9 38 ed 51 24 bf
       0.038626544 0.011901749 0.00011888492 -0.6418751
000220 1a cd 7d 3a 1d 7c 06 bc 77 0b 80 3e 2b 6d c1 bc
       0.00096817466 -0.008208302 0.25008747 -0.023611626
000230 5c 6e 27 bd d8 9c 61 3d a5 b6 36 3d 0e 55 34 bd
       -0.04087673 0.05508122 0.044607777 -0.044026427
000240 46 57 45 3e d8 6c d0 be de 30 b4 bd c3 c1 db 3d
       0.19271573 -0.4070804 -0.08798383 0.107303165
000250 b0 a1 aa 3d 38 21 86 bb d0 24 7d 3d 9a 3d da 3e
       0.08331621 -0.0040933155 0.061802685 0.42625123
000260 04 85 c6 be a6 ff bf 3c bc 57 36 bd 54 fc 57 3b
       -0.38773358 0.023437332 -0.044517264 0.0032956796
000270 11 de 21 bd 06 00 b6 3d 5a 34 be 3d ed 75 b9 bc
       -0.03951842 0.08886723 0.09287329 -0.02263924
000280 e3 15 1c 3d d6 1b 6b 3e 24 b6 a5 bd 05 5d 92 be
       0.03810681 0.22959837 -0.08091381 -0.28586593
000290 bc 4e af 3d 7f c4 18 3c 94 93 23 bc ee 5c b5 3d
       0.08559939 0.009324192 -0.009983916 0.088556156
0002a0 78 7a 97 bc a4 97 e8 bd 6f 5c 5a 3d dc 22 91 bc
       -0.018491015 -0.11357048 0.053310808 -0.017716818
0002b0 bc a5 78 3d f0 5e 91 bd a3 86 9b 3c 8b e6 71 3d
       0.06070493 -0.07098186 0.018985098 0.059057754
0002c0 00 1e e5 bb 67 bf 0f 3d d0 7a c9 be ec c6 2d 3c
       -0.0069921017 0.035094645 -0.3935151 0.010606509
0002d0 71 3c d4 3d 97 0a 81 bd ba 90 78 bd 81 d7 c4 3d
       0.10363091 -0.06300848 -0.060684897 0.096114166
0002e0 02 86 02 bc 5e 92 f3 3d f5 4c 84 bd 7e 5e cc 3d
       -0.00796652 0.11893152 -0.06459991 0.099789605
0002f0 bb 12 97 bc 7a 15 92 bc 4f b6 10 bb 5c 86 a0 3d
       -0.018441549 -0.017832506 -0.002208132 0.07838127
000300 5e 14 04 3e 23 11 be 3d b8 fd 5a 3d 75 64 a4 3b
       0.12898394 0.09280612 0.05346462 0.005016858
000310 55 f6 f0 3d be 47 ac be a0 4e 12 3d 27 83 99 bd
       0.11765734 -0.33648485 0.035719514 -0.074957184
000320 fd 0d f7 3d fe bb a1 bd 4e 70 80 3c 29 a6 93 bc
       0.12063215 -0.07897185 0.015678551 -0.018023567
000330 1f 3a c2 3d 50 fb 2d bd b9 f0 2b 3c 35 ef 8c be
       0.09483742 -0.042476 0.0104944045 -0.2752625
000340 65 00 42 bf e0 08 c7 3d 78 03 9f 3d 1c 50 3e be
       -0.7578185 0.0971849 0.077643335 -0.18585247
000350 f5 f4 0b bd 01 9c 01 3e a0 01 7a bd 99 69 10 bf
       -0.034169156 0.12657167 -0.061036706 -0.5641113
000360 ce 90 cf bc ee ed 8c 3d 96 a8 b8 3d 8c 70 87 bd
       -0.025337603 0.06881319 0.0901653 -0.066132635
000370 a0 97 a4 3d 3b a3 63 bd 67 28 8d 3c c8 f2 07 3e
       0.08036733 -0.05557559 0.01723118 0.13276207
000380 89 a4 3b bd 29 9e d9 3d c2 40 c4 bc a5 52 de 3c
       -0.04581121 0.1062587 -0.02395666 0.027139017
000390 66 5d a2 3d e1 b4 e5 3b 8c 8a f7 be 54 73 22 3d
       0.079279706 0.007010088 -0.4834789 0.039660767
0003a0 22 23 e7 be 02 90 07 3d aa 3a ae 3d 6c c2 a2 bc
       -0.45143992 0.03309632 0.08507283 -0.019868098
0003b0 51 eb 9f 3d 46 b9 bf 3d 57 60 fb bc f6 eb 44 bd
       0.07808555 0.0936151 -0.030685587 -0.048076592
0003c0 05 f5 1e 3d 1a e9 8e be 8c 23 10 bd 75 71 7b 3c
       0.038807888 -0.27912217 -0.03519015 0.0153468745
0003d0 79 4c cf 3c ba 2d b1 be 7a 44 1d be 22 c6 b9 be
       0.02530502 -0.346052 -0.15358153 -0.36283976
0003e0 55 e9 92 3d 7d ee 2f bd 40 fb dd 3d 4c 32 c6 be
       0.07173411 -0.04295205 0.10838938 -0.38710248
0003f0 dd 10 b4 3d 06 9d 10 bd 92 0e cb 3d de 53 5d bc
       0.08792279 -0.035306 0.099148884 -0.013508765

net.7.bias f4 [6]
000000 b0 a3 53 3e 2c 8e 8b 3d 13 5f c7 bc b1 4e 69 bd
       0.2066791 0.068142265 -0.024337327 -0.05695981
000010 56 d5 fe bc 84 d1 67 3d
       -0.031107586 0.056596294
