volume/checkpoints/latent2volume_best.pt (torch, 204306 bytes, 9 tensors)

net.0.weight f4 [128, 2]
00000000: 03f6 1d3f d12f 313f 0570 443f 17d7 203e
00000010: 56fd bd3e f9ab 3fbe 4f48 bebe 8630 07be
00000020: 6038 7bbe 2007 053f ed01 76bf 4254 d8bb
00000030: 0001 273f 707b 5ebd c2e2 eabe fcda 43bf
00000040: e17d a0be 5d8a dcbe 278f 953e f773 123f
00000050: 6b09 25be 6c51 d4bd 3574 8f3e 2ee9 5e3e
00000060: 5f7a 343f d64e 40bf 8457 973d c7b2 463f
00000070: 8c7b eabe 1882 cbbe 6062 49bf b809 2abf
00000080: 1d83 053f 1f96 85bc 5b75 61bf 0259 a13e
00000090: 72ed 6cbe 4173 efbd 4ffa 1fbe 8977 0f3f
000000a0: 6af2 df3e 8652 2bbf 9f95 503f 8a48 6a3f
000000b0: b996 3a3f 39f4 053f b40c f83e 19b0 4d3e
000000c0: 00c8 43bf 92ee 53bc 7087 303e dfd5 7f3e
000000d0: ff09 4c3f 43f9 39bf 0b7d aebd 60e3 f93e
000000e0: 2aa8 5fbe 1f45 21bf bf85 2dbf 5b3e 9e3e
000000f0: 01ad 263f a9ca 553f 5ba8 e3bc 23ab a9be
00000100: ee78 9a3e a762 7b3e d0da 04be 766a 5cbe
00000110: 138c a1be 136d 3f3e e12e b43d 8edc 493d
00000120: f3c5 ebbd 80f9 643f fbed fd3e 8eaa 053f
00000130: 5517 1abf ad62 a13e 28e1 c63e 1db4 193f
00000140: 61b5 05bf 651a 213e 32fd 60bf 0072 f9be
00000150: 5de1 11bf e7c3 2c3e 8b17 51be d03f 3ebf
00000160: e653 643e b4f8 643f f03d 3e3f 07ce 513f
00000170: 5cf3 213f c888 1a3e 086c 973e 9051 ccbe
00000180: 6c98 26be 5780 26bd e61b 3ebf 335c 36bf
00000190: c6c3 a0be 768b 81be 7a10 c4be fb8e e9be
000001a0: 3d7e 903c ab35 53be a1af 133f 6930 833e
000001b0: b852 44bd 455c ecbe a9d6 41be 8adf b43d
000001c0: 1a54 d33e e02f 013f 2400 04bf 6c38 41bd
000001d0: 8df7 8bbc 8702 d8be 93ae 003f 29ce 8a3e
000001e0: 9827 753e 32ca 37bf a6d6 64bf 902e 2b3e
000001f0: 164b 6ebc e8c9 2dbe 0f72 3b3e 0cb8 8e3d
00000200: a2fa 1a3e 3452 abbe c515 283f 2869 be3e
00000210: 60c6 453f dddb ae3e 8721 cd3e 7289 25bf
00000220: 524d 203f ce7b 943e ce05 353f cecb 223f
00000230: a406 833d c14c 8cbe 1678 e1be 4ed8 873e
00000240: 0016 39bf 7952 1abf 0607 a23e 6ce9 cfbe
00000250: 1352 5e3f aa38 7ebe 9a6c 13be 0111 a33e
00000260: 6307 1a3f f0a5 ab3e b0b9 b03a 6fc0 a1bb
00000270: 245e 79be fd60 313f 6d9f e6be 20c8 8cbe
00000280: 95b7 0d3f 7f1f fabe c6e0 953e d370 8f3e
00000290: ff45 8abe f0a2 303e f5b9 453d 4557 4cbf
000002a0: eb51 383f 3e22 f2be 6fa9 123f f57c d23e
000002b0: 07c5 afbe d0fe 4ebf a167 8ebe 39ec 30bf
000002c0: 0ff3 df3d e19c 8fbe ba99 783e 6672 55bf
000002d0: 4f34 06bf c132 fabe 3103 27bf f0ad 55bf
000002e0: 9095 b3be cc7e 95be 1af7 f13e 7c92 60be
000002f0: bd26 2e3f 1d5b 2c3e 0694 bf3e 8067 dabe
00000300: 25fa 9abe 9e5a 073f 5987 183e f886 663c
00000310: e9bc 093d a828 4c3e 5d74 533f 3026 24bf
00000320: 00d7 bd3e 85c4 6c3f 7773 ef3e 1450 b5bd
00000330: 0c5e 36bf 9004 873d 811a c83e 8e69 263f
00000340: a236 c03e b174 403e 4b64 01bf 45af 44bf
00000350: 2619 66bf 9914 b83e 6e97 0dbf 4130 4bbf
00000360: de74 1bbe abe9 1fbd 1038 61bf b2c8 f03e
00000370: bdfe 49bf 08a8 683c bae0 a9bc f453 6abf
00000380: b678 03bf fa6a 15bf 791f 4f3e 487d d5be
00000390: 48cf f1bb 0c1e babe b0aa 2b3f 63c3 13bf
000003a0: 3f50 343e e529 4dbf 0554 243e b472 213f
000003b0: 64da 15bf d25a 67be c841 4e3f af2b 1fbf
000003c0: df10 01bf 67ba 3a3f fbbd e8bd 9f62 c6bd
000003d0: 168c f2bc ed86 393e a446 9dbd 722a 24bf
000003e0: 0ac7 243d 2ed3 0abf a6dd 513f 4654 553e
000003f0: 5932 0b3e e15e d43d 4052 123f 54d2 8d3e
0.6170351 0.6921359 0.7673343 0.1570705 0.37107342 -0.18717946 -0.37164542 -0.13202104
-0.24533224 0.51963997 -0.9609669 -0.006601841 0.652359 -0.054316938 -0.45876127 -0.7650602
-0.31346038 -0.43074313 0.2921078 0.572082 -0.16116874 -0.103670925 0.28018346 0.21768638
0.70499223 -0.75120294 0.07389739 0.7761654 -0.45797384 -0.3974769 -0.78665733 -0.6642108
0.5215319 -0.016306935 -0.88069695 0.3151322 -0.23137453 -0.11691905 -0.15622829 0.5604177
0.43739635 -0.66922796 0.81478304 0.91516936 0.72886235 0.5232578 0.48447192 0.20086707
-0.7647705 -0.012935298 0.17239165 0.24983929 0.7970275 -0.7264597 -0.08519944 0.48806286
-0.21841493 -0.62996095 -0.67782205 0.30906948 0.65107733 0.8351236 -0.02779024 -0.3313838
0.30170387 0.24549352 -0.12974095 -0.21524987 -0.3155218 0.18693952 0.08798004 0.049282603
-0.11512365 0.89443207 0.49595627 0.5221337 -0.6019185 0.31520596 0.38843656 0.60040456
-0.5222989 0.15732725 -0.87886345 -0.48719788 -0.569845 0.16871606 -0.20419137 -0.7431612
0.2229763 0.8944199 0.7431326 0.81955 0.6326196 0.1509124 0.2957461 -0.39905977
-0.16269082 -0.04064974 -0.7426132 -0.71234435 -0.31399363 -0.25301713 -0.3829382 -0.45616898
0.01763832 -0.20625941 0.57689863 0.25622872 -0.04793045 -0.46164146 -0.18929543 0.08831699
0.41275102 0.50463676 -0.51562715 -0.04717295 -0.017085815 -0.42189428 0.5026638 0.27110413
0.23940885 -0.717929 -0.8939003 0.16716981 -0.014544269 -0.16971552 0.18305229 0.06968698
0.15134671 -0.33461154 0.6565822 0.37189603 0.7725582 0.34152117 0.40064642 -0.6466285
0.6261798 0.29000705 0.7071198 0.6359223 0.06397751 -0.2740231 -0.4403693 0.26532215
-0.72299194 -0.60282093 0.31645983 -0.40607774 0.86843985 -0.24826303 -0.14396897 0.3184891
0.6016752 0.33525038 0.0013483074 -0.00493627 -0.24352318 0.6928862 -0.45043507 -0.27496433
0.5535825 -0.48852155 0.2927305 0.28015766 -0.27006528 0.17249656 0.048273046 -0.7982066
0.71999997 -0.4729175 0.57289785 0.4111096 -0.34330007 -0.80857563 -0.27813438 -0.6911045
0.109350316 -0.28049377 0.24277392 -0.83377683 -0.52423567 -0.48866847 -0.65239245 -0.8346853
-0.35075045 -0.291983 0.47258836 -0.2193088 0.6802786 0.16831632 0.3741762 -0.4265709
-0.3026897 0.52872646 0.14895381 0.014070265 0.033627424 0.19937384 0.8259943 -0.6412077
0.37078094 0.92487365 0.4676778 -0.08853164 -0.71237254 0.06592667 0.3908272 0.65004814
0.37541682 0.18794514 -0.5054366 -0.7682994 -0.89882123 0.35953215 -0.5530919 -0.79370505
-0.151813 -0.039041203 -0.8797617 0.47028118 -0.78904325 0.014200218 -0.02073704 -0.9153435
-0.51356065 -0.5836636 0.2022685 -0.41697145 -0.007379446 -0.3635105 0.67057323 -0.5772001
0.17608736 -0.8014205 0.16047676 0.6306565 -0.5853636 -0.22593239 0.80569124 -0.6217603
-0.5041637 0.7294068 -0.11364361 -0.09686779 -0.029607814 0.18117876 -0.07679489 -0.64127266
0.04022888 -0.54228485 0.81978834 0.20832929 0.13593425 0.10369659 0.57156754 0.2769953

net.0.bias f4 [128]
00000000: d16a f3be 6ff5 afbe d1b2 2e3d 1570 003e
00000010: 8ff7 603d 8c80 da3e 45d3 47be c314 e73e
00000020: f3cf 4b3e f6eb 89bd 6ca6 973d 09e5 e8bd
00000030: b974 8bbe 5148 70bd c4ad 593e a13f 063f
00000040: 2d48 87bd 0255 26bd 50a3 be3d e038 533e
00000050: 3218 ddbd e537 a9be 2e11 ccbe 4b1b 3cbe
00000060: 381f a73e 31ce c3bd 17a7 aa3e bafb ebbc
00000070: f0d5 ca3e 6a27 86bd b796 f0be ce67 493e
00000080: 3fed 95bc 1d59 0abe b7a9 b73d 7ae3 c9bc
00000090: 805e 39be 49ac a93e 2423 a7bd 3c25 9dbe
000000a0: 29e4 98bc f213 f83e c1d7 4b3e f407 c73e
000000b0: d6b9 07bf 3d92 efbe 7d40 1abe 2c44 a83b
000000c0: 5a25 403d f4d1 983e 9759 083e a6c3 4c3e
000000d0: a817 843d 577a 58be f02f b23e fc2f a0bc
000000e0: 76b9 70be 183e 823d 035c 333e 9e23 38be
000000f0: afbc 623e 6ebe ff3d 1963 283e a2fb 5c3d
00000100: f3c7 9a3e 51f6 98be f8fd 67be 5726 64bc
00000110: 6ecc 83be 3bb2 2ebe 6045 df3c c074 213e
00000120: f8ae b93e 2305 b33e a19d 8e3d be8b 09bd
00000130: c284 85be 4feb ff3b 2ffd bcbe 099f 3b3e
00000140: 9ccf 6c3e e098 fdbd 94fe adbd a276 823d
00000150: 97cf 503e 416e adbe 5a66 de3e 9c25 1b3e
00000160: ac66 2cbd d5ee b6bb cef9 4c3e 66a8 fc3e
00000170: b1cd 10be 9321 513e 09bd 76bd 69f0 93bc
00000180: 9836 92bc 4227 34bd 12dd 83bd 194c c4be
00000190: 6409 18bf 423b eebd 351b 903d bc5f 08be
000001a0: 8eca 06be 7ce1 f13e ecad aebd 0866 fc3e
000001b0: 675b 343d 03db 8d3e 3bc8 d03d 87b1 123f
000001c0: 8bbe 273e 3205 433e a6d5 053e b8b9 7bbe
000001d0: a8e3 f03d a23a c2be 7134 713e 3be7 8d3e
000001e0: f193 debe 9f64 5a3d 31c2 e43a 6516 a43e
000001f0: 386e 4ebd 624e b9be 7984 6ebd 5b5b 19be
-0.47542432 -0.34366938 0.042651 0.12542756 0.05492359 0.42676198 -0.19514187 0.45133027
0.19903545 -0.06734459 0.07404789 -0.1137181 -0.2723749 -0.058662716 0.21257693 0.5244084
-0.06605563 -0.040608414 0.09308493 0.20627165 -0.107956305 -0.33050457 -0.39856857 -0.18369786
0.32641006 -0.09560812 0.33330604 -0.028806556 0.39616346 -0.065504864 -0.46989986 0.19668505
-0.018301604 -0.13510557 0.089679174 -0.024644602 -0.18102455 0.33139256 -0.081609994 -0.3069247
-0.018663483 0.48452717 0.19906522 0.38873255 -0.5301794 -0.46791258 -0.15063663 0.00513508
0.04691062 0.29847682 0.13315426 0.19996509 0.064498246 -0.21140419 0.34802198 -0.01955413
-0.23508248 0.063595 0.17515568 -0.17982337 0.2214229 0.124874935 0.16444053 0.053950913
0.30230674 -0.29875425 -0.22655475 -0.013925157 -0.25741905 -0.17060177 0.02725476 0.15767193
0.36266303 0.34964857 0.06963659 -0.033580534 -0.2607785 0.0078100334 -0.36911914 0.18322386
0.23126072 -0.12382674 -0.084958225 0.06370284 0.20391689 -0.3387318 0.43437463 0.15151066
-0.042090103 -0.00558267 0.20017168 0.49347228 -0.14140965 0.20422964 -0.06023887 -0.018058972
-0.017848298 -0.04398275 -0.0643865 -0.38339308 -0.5938933 -0.11632396 0.07036439 -0.1331777
-0.13163206 0.47242343 -0.08529267 0.49296594 0.04403248 0.27706155 0.10194441 0.57302135
0.1638128 0.1904495 0.13069782 -0.24582565 0.11762172 -0.37935358 0.23555161 0.27715477
-0.43472245 0.053318616 0.0017452893 0.32048336 -0.05039808 -0.36192614 -0.058231805 -0.14976256

net.1.weight f4 [128, 128]
00000000: e937 0f3e eac0 383d 57e3 943d 4eda c1bd
00000010: 572e fa3c 2ddd 46bc e8c5 433d 1f70 1bbd
00000020: 569e 903b 78c5 66bd fe6a c2bd 3796 76bd
00000030: 9d6d be3d f77d f7bb 8f27 eb3c 7740 8cbc
00000040: d2fc 4ebd 0a8c a03c 177c 4d3d 22e2 923c
00000050: fa77 26bc a8fd fbbc 0d27 063d 11a0 15bd
00000060: 327e b8bc a71d 2bbd 12e4 f0bc 709e b6bd
00000070: ed52 34bd f523 adbd 5e31 8c3d 36be e7bc
00000080: 5532 91bd 13a4 673d a4cd 0bbc aa8b 753d
00000090: e7bd 6fbd 1928 01bd 959b cb3d 574a b33d
000000a0: 881e 193c 7eb8 6abc ac01 a43b ded9 e3bd
000000b0: f842 413d 2f43 a4bd c06a 473d 2eeb bd3d
000000c0: f0cf 153b 94b2 acbd d24d 41bd 40b6 bbbd
000000d0: e2b1 8a3c 30c4 ad3d 959f e9bd b3a6 c23d
000000e0: e30a ae3d 8e88 6d3d 3de3 10be a8b9 22bc
000000f0: d93b a33c fc41 03be 2888 b0bd 940d c3bd
00000100: 887a 15bd ea38 fa3d c553 0d3e bd43 203d
00000110: b91f 7a3c 0a0f 793d 7141 1a3d 1fd6 fe3a
00000120: 631c 91bd 620c 08be 36f4 50bb c2ec c0ba
00000130: dca3 e43d 6028 5abd f4c1 d9bc 6480 b93c
00000140: 4b64 9bbd c517 bbbc 1031 d43c 3b7d 443d
00000150: a7f9 74bd 53e0 713d bd40 2abd 47c8 813d
00000160: 8fe8 f13c c025 853d 7f1f eabd 05cd a6bc
00000170: d2cc 7c3c 46cf edbd 9847 cdbc 183c 33bc
00000180: 7760 173d 4251 da3d c9e0 42bd 8538 003c
00000190: c87e b13d e67d de3d 2d39 c4bd 21e6 a9bc
000001a0: a1e2 6bbd f7a5 39bb 5b4a 30bc 3479 46bd
000001b0: 28f2 cabb 9fd5 9cbc 0037 f7bd 8eff adbc
000001c0: 4d6a dcbc e199 c3bd e34c c8bc 8a98 a53d
000001d0: 5246 4a3b 009e 92ba f9d6 2abd 7280 843c
000001e0: 201f 243d 890f 9bbc a35d a13c a2aa 9dbc
000001f0: 3a54 003d bd74 f73b 790b 8c3d 7bee ac3d
00000200: e151 1fbd 4c4d 4a3d 2fd3 a83c d4af 29bd
00000210: 706e 453c d649 b5ba 0ca3 f7bc 01cb 473d
00000220: a097 75bb 64ed 703d a3d6 9fbd fbfd eb3c
00000230: fd15 4a3d dcbe 643d 6a6f bc3d 25bc 103a
00000240: 2bb1 10bd ca39 8ebd 0767 bcbc 5419 48bd
00000250: b855 953d 5218 a0bd 56af 803d 9e7b 793d
00000260: 3bba 8b3d da55 a0bd 0dc7 cbbd 35ce 823c
00000270: ae37 833d 9849 153d 66dd 3ebc 255a c7bd
00000280: 86ba ae3c 40d0 5abd 5ef8 7e3d ada3 c2bd
00000290: e440 bf3d a17b 4dbc 2eee 753d 63e3 763d
000002a0: 64bf 01bd f32f 323d 2831 c83d e741 e8bc
000002b0: 70cd 393d 2d6e 96bd aab9 5f3d 2d5e c9bd
000002c0: d4d4 b1bc 080c 0a3d 1c68 d23c bd92 a53c
000002d0: 52c0 7dbc 11b7 b13c 3a89 8ebd db6c 9b3d
000002e0: 224b 723d 29af 103d 6539 b8bd b22b b1bd
000002f0: 9931 503d e8f6 783d f8d0 263c 10e9 99bd
00000300: d813 a9bc ccc7 c2bd 357d 563d b3e9 433d
00000310: 9915 853d 896a 11bd f13f 96bd 7d29 5ebc
00000320: 1ed8 563d 35e3 8a3d e5ea bbbd 1ad2 fcbb
00000330: a93b acbd d18e 9a3d f2f0 01bd 6d19 a0bd
00000340: dd8a 1b3d 497f 36bd 29fd c93d d5d2 33ba
00000350: fe8d a13c 341d b2bb be73 8ebd 28a3 293d
00000360: 1a3d 7abc 28f5 713a ca4c 78bc 7fce a3bd
00000370: e910 2e3c a036 bfbd ecf6 883c 4271 c9bd
00000380: f0e2 a43c c7bd 46bb 9dc0 92bd b24b 813d
00000390: be40 85bd 2801 6e3d 23e0 ae3c ea30 823c
000003a0: 6d66 0c3d 511e f73b 2042 19bb 0c05 4dbd
000003b0: 8bd4 953d ec85 b539 891a 2c3d 0a2d 7ebc
000003c0: 0eff 003c b9bd 61bb 1109 7b3c 4ec4 853d
000003d0: 195a 2abc 9edf 51bd 00b0 893d 8d17 243d
000003e0: ebfa 62bd 16a8 3a3d 5c5d 863c 6b21 86bd
000003f0: d808 a33d 9cb9 91bc 7e35 3ebd 505e d0bd
0.13986172 0.045105852 0.07269924 -0.094654664 0.030539675 -0.012137693 0.04779616 -0.037948724
0.0044134064 -0.056340665 -0.094930634 -0.06020185 0.09298251 -0.007552858 0.028705386 -0.017120583
-0.050534077 0.019598026 0.05016717 0.017930094 -0.010160441 -0.030760601 0.032752085 -0.036529604
-0.022521112 -0.041776326 -0.029405627 -0.08916938 -0.044024397 -0.08454124 0.068453535 -0.028288942
-0.07089678 0.056552958 -0.008532915 0.059947647 -0.058530714 -0.03153238 0.09941784 0.087544136
0.009345658 -0.014326213 0.005005082 -0.11125539 0.047183007 -0.08020627 0.04868579 0.092733726
0.0022859536 -0.084324986 -0.047193356 -0.09165621 0.016930524 0.084846854 -0.11407391 0.095044516
0.0849817 0.057991557 -0.14149185 -0.009931959 0.019925999 -0.1281814 -0.0861972 -0.09524074
-0.036493808 0.12217887 0.13801487 0.0391271 0.015266352 0.060805358 0.037660066 0.0019442475
-0.070854925 -0.13285974 -0.0031883842 -0.0014718997 0.11164066 -0.05326116 -0.026581742 0.02264423
-0.07587489 -0.022838483 0.025902301 0.04797099 -0.0598084 0.059051823 -0.041565645 0.06337028
0.029529838 0.06501341 -0.11431789 -0.020361433 0.015429692 -0.116118 -0.025058553 -0.01093962
0.03695723 0.1066003 -0.047577653 0.007825975 0.0866676 0.10863857 -0.09581218 -0.020739617
-0.057589177 -0.0028327683 -0.010759915 -0.048455432 -0.006193418 -0.019144831 -0.12071037 -0.021240022
-0.026906157 -0.095508344 -0.024450725 0.08085735 0.0030864668 -0.0011186004 -0.04170892 0.016174529
0.040068746 -0.018928306 0.01969797 -0.019246403 0.031330325 0.007551758 0.06838126 0.08443924
-0.038896445 0.049390122 0.020608513 -0.04142745 0.012050256 -0.0013831209 -0.030229114 0.048777584
-0.0037474409 0.058820143 -0.078046106 0.02880763 0.049337376 0.05584608 0.09200938 0.00055212
-0.03532521 -0.06944616 -0.022998346 -0.04885228 0.0729174 -0.07817139 0.06283443 0.060908906
0.0682263 -0.07828875 -0.09950075 0.015967468 0.064071044 0.036447138 -0.011649465 -0.097339906
0.021329176 -0.05342126 0.06224858 -0.09503875 0.09338549 -0.012541682 0.0600416 0.060275447
-0.031676665 0.04350276 0.09775001 -0.028351737 0.045361936 -0.07345233 0.054620422 -0.09832416
-0.02170793 0.03370288 0.025684409 0.020211572 -0.015487747 0.021693738 -0.06959768 0.07589122
0.059153683 0.035323296 -0.08995322 -0.08650912 0.05082855 0.060782343 0.010181658 -0.07515156
-0.020639345 -0.095107645 0.0523655 0.047830295 0.0649826 -0.03550199 -0.073364146 -0.013559696
0.0524522 0.067816176 -0.09175662 -0.0077154757 -0.08409817 0.07546771 -0.031723924 -0.078173496
0.037974227 -0.044554982 0.098627396 -0.00068597245 0.019721027 -0.00543561 -0.0695567 0.041415364
-0.015273357 0.00092299515 -0.015155027 -0.079983704 0.010624149 -0.09336591 0.016719304 -0.09836055
0.020127743 -0.0030325518 -0.07165644 0.06313266 -0.06506489 0.05810657 0.021347111 0.015892465
0.03427737 0.007541456 -0.002338536 -0.05005364 0.0731593 0.0003462279 0.042017493 -0.015513668
0.00787331 -0.003444536 0.015321986 0.06531583 -0.0103974575 -0.05123865 0.067230225 0.040061522
-0.055415075 0.045570455 0.01640194 -0.06549343 0.07960671 -0.0177887 -0.046437733 -0.10174239

net.1.bias f4 [128]
00000000: 572f d03c 2c81 b8bd f503 c5bc ebfb 833c
00000010: 7e22 43bd 2582 8abd b058 79bc 1f2f e73c
00000020: 8e49 c9bd 793c 78bd ac00 603c e249 debd
00000030: 223c 82bd b305 473d c292 383d 9eb7 37bc
00000040: 0d3d 6ebd 11ac 083d 5f6a 26bd 637b 84bd
00000050: 4bce 9cbd 0686 7abc 4e5b e2bc c69f 803d
00000060: dde4 603c f61d 203d 308b c0bd 1dc9 cdbd
00000070: 3b5f 88bd fda2 3abd 5947 bbbd 0199 1ebd
00000080: de7d d9bc 38bc 253d 5e2f 573d 99fc a2bd
00000090: d931 b8bd 98af e5bd 3436 84bd 777d cc3c
000000a0: cb42 0abc b8b3 b13c a0f1 afbd 7e47 ffbc
000000b0: f685 2e3d 06ae 223d 7919 bdba ed2c 893d
000000c0: b24c c6bd cfa9 82bd 0c34 04bd 3aa3 93bd
000000d0: 141e 8ebd cf20 29bd b0ca a9bc ed81 13bd
000000e0: 529d 7dbc f943 a93c 3b0a 92bd 7fc3 b7bd
000000f0: f817 a8bd 7de3 81bd 58d6 bd3c 8151 17bd
00000100: f106 3c3c 53c3 90bd 0275 0cbe 022b 823d
00000110: f973 e8bd 19d7 b73b 9afe bdbd fd20 623c
00000120: 23a5 fbbd 5488 31bd 8e58 173d 190d d6bd
00000130: 7dda 5ebd 954a 1abe 2895 9abc 88e7 8bbd
00000140: d90b c23b 63e9 55bd 2e2e 16bd 3301 e6bd
00000150: bea6 9ebd 1225 cbbd d311 2f3c b6f6 13be
00000160: 8474 8ebd 7f24 c63b e00c bdbd 7d9d e03c
00000170: 1ea2 64bc b67d 0f3d 33a5 62bc 56a5 433c
00000180: 7885 b2bd 94d7 853d 42ed b7bb 172e 52bb
00000190: 89f6 413d e607 fdbc 508d ffbd 6ec5 9b3d
000001a0: 3303 19bd 2501 f5bc 8041 8dbd 0ccf 0cbd
000001b0: 5f0e 24bd f230 c4bd c33d a1bd dcd3 eabc
000001c0: d745 42be ebc7 63bd b535 08be d675 58bc
000001d0: 86a2 7ebd 77ad 64bd 9eaa 91bd b962 fdbd
000001e0: e0f5 9b3c 247e d8bd a445 f6bd 537a 05be
000001f0: 4ac3 0abd 3296 89bd 16c7 09be 2bd4 39be
0.025413198 -0.090090126 -0.024049738 0.016111335 -0.047640316 -0.06763104 -0.015218899 0.028220711
-0.098284826 -0.060604546 0.013672035 -0.10853936 -0.06359126 0.04858942 0.045061834 -0.011213211
-0.05816369 0.03336722 -0.040628787 -0.06468847 -0.07656535 -0.015290743 -0.027631428 0.06280474
0.01372644 0.039091073 -0.09401548 -0.10048125 -0.06658789 -0.045565594 -0.09144468 -0.038720135
-0.026549276 0.040462703 0.052535407 -0.079583354 -0.08993883 -0.112151325 -0.06455651 0.02496217
-0.008438776 0.021692142 -0.08591008 -0.03116202 0.042608224 0.039716743 -0.0014427147 0.06698022
-0.09682597 -0.06380045 -0.0322762 -0.07208867 -0.06939331 -0.041291054 -0.020726532 -0.03601258
-0.015479403 0.020662295 -0.071308576 -0.08972835 -0.08207697 -0.06342218 0.023173496 -0.036942963
0.011476264 -0.07068505 -0.1371651 0.06355859 -0.11350245 0.0056103584 -0.09277077 0.01380181
-0.12287357 -0.043342903 0.036949687 -0.10451717 -0.054407585 -0.15067513 -0.018869951 -0.068312705
0.0059218225 -0.052224528 -0.036665134 -0.112306975 -0.07746647 -0.0991918 0.010685402 -0.14449582
-0.06955817 0.006046831 -0.09230971 0.027418846 -0.013954667 0.035031997 -0.013833332 0.011941275
-0.087168634 0.06535259 -0.005613 -0.0032070929 0.047354255 -0.030887555 -0.12478125 0.07606016
-0.037356567 -0.029907772 -0.06897259 -0.034377143 -0.040052768 -0.09579648 -0.07873108 -0.028665476
-0.18971954 -0.05561058 -0.13301738 -0.013211688 -0.062166713 -0.05582949 -0.07112621 -0.123723455
0.01903814 -0.105709344 -0.12025002 -0.13034944 -0.03387765 -0.067181006 -0.13454852 -0.18147342

net.4.weight f4 [128, 128]
00000000: 18aa b43d 3049 953b b7c6 5ebd 491d 263d
00000010: b8bc 923d 0702 ad3d de99 4e3d 389d a2bd
00000020: ba74 e03d 3a14 01be b984 db3c f869 cc3c
00000030: 2eed adbd 33bd bcbd 669b 033d 6c29 c8bc
00000040: fe52 b4bd 0ce5 17bd 7b84 0dbd 7d3a 683d
00000050: 1059 80bb d7ec 68bd 3783 e5bd f07d 6ebe
00000060: f752 043d 5f45 863d 14dd 6dbd 56fe 66bd
00000070: 2edb 82bd 3bef 5f3d 6f0c 793b 635d c2bc
00000080: 0c98 c5bc 8ff3 b4bd eeb8 b2bd 521a 0dbe
00000090: cf2f 03bd 0a78 aa3c fdaf 6bbd f5bf 93be
000000a0: c44b d8bd c14b 68bd 171b b1be f321 fabd
000000b0: 408f 3abe 13b9 ad3d 5087 4cbd 47cc 22bd
000000c0: 6f66 86bd 345f 0b3e dd5d 1cbd 8b15 863d
000000d0: 5872 0f3d 40d5 f0bc 8079 03bc f86a cabc
000000e0: 141c 37bd 3c2b a7bd d6ea ff3b 7c1f 4cbe
000000f0: abc0 02be bf33 e0bd ab7e a83d 72fd 2fbc
00000100: 6559 8a3d 1d73 b03d 91b5 cfbd 43dd 9fbe
00000110: 1723 8b3d 8ee8 c23c 5279 433d a034 cc3c
00000120: 444d 66bd 2c7b 19bd 3475 053d 3468 61bd
00000130: b098 aabb ed54 ccbc a4aa bbbc edff 82bd
00000140: e0ca febb 0ee6 6c3c 189f b13c 8df8 56be
00000150: 37bc 673d e70d 91bd 8043 643a 3cff 48bd
00000160: fd2d 24be 2532 d5bd 52d5 a6bc 7982 0c3d
00000170: 53ac ad3d a8f8 93bc 49fd 96bd 7c28 b1bc
00000180: 109e 823d aee9 af3d e6d3 13be d951 7ebd
00000190: 2da7 d33c 60a9 a6bd 2c64 4dbd 0ad7 d8ba
000001a0: 31af 0fbd dd78 b43d ca8a 70bd 22a8 413c
000001b0: d2b5 e1bd abc6 3ebc 3c07 d63c 35e2 9e3d
000001c0: d4a5 0dbe 9918 bcbc 4b93 89bc afbf edbc
000001d0: 4b1c 87bd 2354 70bd bb82 bfbc 8a4c 573d
000001e0: d431 92bd 673f 77bd 3865 16bd eed3 0a3d
000001f0: 9e3a 853d 9704 813b e12d c9bb 5eec c33b
00000200: 51a2 b33b 0c49 b9bc 5645 76bc 8ae9 fdbd
00000210: 56f4 973d 3a0e 433d 81d8 8a3d 1da0 d9bc
00000220: 8440 833d 498f e3bd 7dc4 223d 405b 783b
00000230: 3185 913d 497d 12bc ff6e 95bd 00f5 91ba
00000240: d44f f0bd d4b4 8abc 3723 11be 8204 2abd
00000250: b3b6 9b3d 304b 11be 0eab 99be 4b5b 5abe
00000260: 3c3c a9bd 9d36 4a3d e13c 6fbd c110 72bd
00000270: cc3e 77bd cac8 98bc 06b8 82bb 11d1 aa3d
00000280: ac3c b9bc 7be1 2c3d 85c2 ab3d 1772 633c
00000290: b98e 653d 9069 9ebc 479d a23c c78a 9dbe
000002a0: 395c b5bd aaae 803d 8aa4 f2be 844c 7ebe
000002b0: 6f85 c5be a438 d33d 2ede 83bd 9e16 673d
000002c0: dfb5 de3b b9ef cfbd 3b30 023d f86b 4d3c
000002d0: adae c7bd 6c59 8b3d 11c9 983d 1421 8ebc
000002e0: 7f03 d23b 3bf0 d43d f370 143d 4f19 45bd
000002f0: e580 223d 8b3a 57be d0df e8bb eebd 723d
00000300: fd95 2dbe 942c f7bd 520b b3bd 00d8 0bbf
00000310: 163e 15bb 4c45 863d da5e b43d ddb8 d8bb
00000320: 130f cb3c a50b 61bd 83ad 923d 89bb dcbc
00000330: fde6 acbd 8819 39be 01cf 2dbd d64d 603d
00000340: 80f0 67bb c608 b5bd f85e 62bd 9179 dfbe
00000350: b210 81bd b24f 3dbd 6cd9 18bd cdcc 17be
00000360: af54 9fbe 6102 d6bd 760e 34be e0c1 0f3e
00000370: e3c2 f2bc e083 703d 3f30 0fbd c3a3 833d
00000380: b6bb 0f3b c38c 97bd 9283 7f3c 694e 2abd
00000390: 072d 6d3d dc25 a73d 7a27 08be 1810 a4bd
000003a0: f8f9 ab3d 557a 623d 738b 5d3d d000 cdbd
000003b0: 7b17 3bbc b512 fcbb c9f6 30bd 6293 713d
000003c0: bc1a b9bd 0f42 40bd 3b48 c4bc 2b35 723d
000003d0: c637 a33d 786f 84bd d025 d9bb 401c 7cbb
000003e0: badb 1c3d bcaf 7abb 622d f7bd 4582 a33c
000003f0: f954 81bd 38ba b9bd a03e 88be 2e60 45be
0.08821505 0.004555844 -0.054388728 0.040555272 0.071649015 0.08447652 0.050439708 -0.07940143
0.10959764 -0.12605372 0.026796686 0.024952874 -0.08492504 -0.092157744 0.03213062 -0.024433814
-0.08804892 -0.03708367 -0.03455017 0.056696404 -0.003916867 -0.056866493 -0.11206668 -0.23290229
0.032305684 0.065562 -0.058072165 -0.056394897 -0.063894615 0.054671507 0.0038001796 -0.02372617
-0.024120353 -0.088355176 -0.08726679 -0.13779572 -0.032028016 0.020809192 -0.057540882 -0.2885739
-0.10561326 -0.05671287 -0.3459098 -0.122135065 -0.18218708 0.08482566 -0.04993373 -0.039745595
-0.065625064 0.13610536 -0.038175453 0.06547078 0.035021156 -0.02939856 -0.008024573 -0.02470921
-0.04470451 -0.08162543 0.007809977 -0.19933885 -0.1276881 -0.1094737 0.08227285 -0.010741578
0.06755332 0.08615706 -0.10142053 -0.31223497 0.06793802 0.023792531 0.047723122 0.024927437
-0.05622603 -0.03747098 0.032582477 -0.055031016 -0.00520619 -0.02494284 -0.022908516 -0.0639647
-0.0077756494 0.014459146 0.021682307 -0.20993252 0.05657598 -0.0708273 0.0008707568 -0.049071535
-0.16033168 -0.10409955 -0.02036539 0.034304116 0.08480134 -0.018062904 -0.07372529 -0.02162575
0.06377804 0.08589493 -0.14436302 -0.062089775 0.025836552 -0.081377745 -0.05014436 -0.0016543579
-0.035079185 0.08812115 -0.05872611 0.011819871 -0.110210076 -0.011644046 0.026126496 0.07757989
-0.1383279 -0.022960948 -0.016793868 -0.029022066 -0.06597193 -0.05867399 -0.023377767 0.052563228
-0.0713841 -0.0603632 -0.036717623 0.03389352 0.06505321 0.0039373147 -0.0061395024 0.005979105
0.005481996 -0.02261784 -0.015031179 -0.1239806 0.0741965 0.04762099 0.06779576 -0.026565606
0.0640879 -0.11111314 0.039738167 0.0037896186 0.07105482 -0.008941003 -0.072965614 -0.0011135638
-0.11733976 -0.016931929 -0.1417359 -0.041508205 0.076032065 -0.14188838 -0.30013317 -0.21323888
-0.08263442 0.04936849 -0.058407668 -0.05909801 -0.060362622 -0.018650431 -0.0039892225 0.083406575
-0.022611938 0.042207222 0.08386711 0.013882182 0.056044314 -0.019337445 0.019850386 -0.3076994
-0.08855481 0.062833145 -0.47391158 -0.24833876 -0.38578364 0.10313538 -0.06438862 0.056418054
0.006796583 -0.10153145 0.031784277 0.012537949 -0.09750114 0.06804165 0.074602254 -0.017349757
0.006409108 0.10397383 0.03624053 -0.04811984 0.039673705 -0.21018426 -0.0071067587 0.059263162
-0.16951747 -0.120690495 -0.087423936 -0.54626465 -0.0022772602 0.06556186 0.08807154 -0.0066138343
0.024787461 -0.054942746 0.07162001 -0.026944892 -0.08442495 -0.18076146 -0.042433742 0.05476173
-0.0035391152 -0.08839564 -0.05526635 -0.43647435 -0.063020125 -0.04621858 -0.037316725 -0.14824219
-0.31119296 -0.104496725 -0.17583641 0.14038801 -0.029633945 0.058719516 -0.03495812 0.064277194
0.0021931953 -0.07399895 0.015595334 -0.041578684 0.05790427 0.08161518 -0.13296309 -0.08010882
0.08397287 0.055292446 0.054088067 -0.100099206 -0.011419172 -0.0076926597 -0.043204103 0.058978446
-0.09038302 -0.046938 -0.023960223 0.059132736 0.07969622 -0.064665735 -0.006626822 -0.0038468987
0.038295485 -0.0038251719 -0.12069203 0.019959578 -0.063150354 -0.090687215 -0.2661028 -0.19274971

net.4.bias f4 [128]
00000000: ef0e 863d d928 053e 2e8c 8f3d a433 86be
00000010: 1175 113e 7261 af3d df83 5f3d 0794 e23d
00000020: 763e 523d 3d29 c13d 5aa6 043d eb18 943d
00000030: 70a6 eb3d edf3 05be 8146 a1bc 03d0 f73d
00000040: 6943 5dbd afcc 093e 7825 eb3c 22a5 09b9
00000050: 294f b1bd 4030 7dbc 8d48 e93c ff96 f8bd
00000060: d191 f6bc 8034 34bd 284b e43d 64e4 e73d
00000070: d07b f63d 4443 cd3d d1b1 6d3d 50bd be3d
00000080: 45e1 043e 1d46 6cbe 1cb0 b8bd e886 9dbd
00000090: 9792 a2be a4b8 233b 5cbb 0fbe a188 b3be
000000a0: fa34 8ebd 929f 963d e6a5 0ebe c3a9 b1be
000000b0: 855a f73d a133 d53d d72a 88be f69c 20bd
000000c0: 47d4 073e 04ae 8dbd 0531 f13c 640a 28be
000000d0: 79c5 6db9 ea7d 57bd 0357 1b3d 9dbc bc3d
000000e0: e81f 0d3e 3af3 d53d 0880 e6bd 2a7b e33d
000000f0: 5b61 a4bb e4c2 bd3d f26d be3d 1ffc 94bd
00000100: e7ae a1bd 8395 c3bd 2703 0ebe 61f3 bb3d
00000110: 2906 c0bc d282 353d c4cf dbbc 960a bc3d
00000120: b3aa e13d 030a 433d 4e66 dc3d 9e63 0d3d
00000130: 396c ecbd eb09 a7be f1c9 43be 0a1d b3be
00000140: cd02 6abd 8ddd 9fbe ca52 1d3e a128 2dbe
00000150: ea73 193d 4867 5ebe e814 e838 3b57 19be
00000160: c54a b73d 57f6 443d b1fd a2bd 53ae 00be
00000170: 0513 833d 0d35 b23d b809 60be ded5 35be
00000180: d7c2 4b3d bb8a a13d d61f bb3c c847 043e
00000190: 796c 4e3d 3aff 433d 8dbf a03d d26c 063e
000001a0: 7851 ffbc bfe9 f43d d45e c43d d0f5 b93d
000001b0: e179 9dbc 3b19 e43d 23cc d63d 1df7 843d
000001c0: 4631 f9bd 83e2 36bd bbb5 09be a2d6 1d3c
000001d0: fa1f e53d 7156 2e3d 6dac 9ebe 679e 9d3c
000001e0: 1c48 833d 032c 8abe aa3c fa3d ba99 1fbe
000001f0: df10 203c 0de2 d13d 4f3a 0e3d 187e 043e
0.06545817 0.13003863 0.07009159 -0.26211274 0.14204814 0.08563508 0.05456912 0.1106339
0.0513291 0.09431694 0.032385208 0.07231315 0.11506355 -0.13081332 -0.01968694 0.12100222
-0.054019365 0.13456987 0.02870439 -0.00013126855 -0.08657677 -0.015453398 0.028476978 -0.12138175
-0.030098828 -0.04399538 0.111471474 0.11322859 0.12035334 0.100225955 0.058030907 0.09313452
0.12976559 -0.23073621 -0.09017965 -0.07691747 -0.31752464 0.002498188 -0.14036316 -0.35065177
-0.06943698 0.07354654 -0.13930473 -0.3469983 0.12077812 0.10410238 -0.26595184 -0.03921219
0.13264571 -0.069179565 0.02944232 -0.16410214 -0.00022675646 -0.052610315 0.037924778 0.09215663
0.13781703 0.104467824 -0.11254889 0.11107476 -0.0050164885 0.09265688 0.09298314 -0.07274651
-0.07894688 -0.095500015 -0.1386839 0.0917728 -0.023440437 0.044314213 -0.026832469 0.091817066
0.110188864 0.04761697 0.107617006 0.03451883 -0.11544079 -0.32624754 -0.19120003 -0.34983093
-0.057131577 -0.31223717 0.15363613 -0.1691003 0.03746406 -0.21719086 0.00011066516 -0.14974682
0.08949808 0.04808649 -0.07958544 -0.125665 0.06400112 0.08701525 -0.21878707 -0.17757365
0.04974636 0.07887789 0.022842329 0.12918007 0.050396416 0.047850825 0.078490354 0.13127449
-0.031166777 0.11958646 0.095883995 0.09080088 -0.019223155 0.11137625 0.10488155 0.064924456
-0.12167601 -0.044649612 -0.13448231 0.009633692 0.1118774 0.042562906 -0.30990925 0.019240571
0.06410238 -0.26986703 0.12218602 -0.15585986 0.009769647 0.10248194 0.034723576 0.12938726

net.7.weight f4 [128, 128]
00000000: cc3e 0a3d 28b8 f73d 338a 12bd df28 c9bd
00000010: 5da3 deba 004e 2abe 5e23 3d3d 493f ce3d
00000020: d8c6 123d b7b2 37be 9d1b c73d 7824 e2bd
00000030: 4bfd e43d d052 50bd b7e9 a5bc 9b7e 753d
00000040: 29d4 3c3c e714 b2ba 3c4a 4d3d 655c 3c3d
00000050: 9d56 82bd 639a 8d3d bf5a a53c 39f9 bbbd
00000060: 0a55 9e3d 1fe3 743d 0e5f 24be 405c 303d
00000070: 0170 43bb eb67 0bbe 38d1 80bd 7a34 32bd
00000080: 20be 683b 8329 acbd a618 903d 1cfd 2abd
00000090: 8e4b 72be e456 2f3c ba39 98bb 4df0 88be
000000a0: acd7 123d 6f60 c33b a866 123d 8ed2 21be
000000b0: 4ba7 cc3d d801 0f3e 1dcb 483d fc8f 3d3b
000000c0: 1305 633d d727 183d d2c2 0a3e e9d7 b13c
000000d0: 25c4 c8bc aaaf 74bd 4daf 19be a65d 083c
000000e0: 7785 de3d 91b5 a53d 0522 22bd 63ee d13d
000000f0: 8b2f 433d feb7 a63d 1001 15be fb20 1ebc
00000100: 3102 763d 6dbd 48bd 30c7 6f3d e949 293b
00000110: dcd9 00bd 41c4 16bd 3005 bebd bfd3 3f3d
00000120: 5392 1ebd 02d2 f13c 454d 89bc 9923 b8bc
00000130: 7234 90bd db71 86bd 7356 87bc e754 aabd
00000140: e129 5dbd 0162 84bd 6b18 0c3e e51d e23c
00000150: 7e31 a8bd 3e66 9abd fd5b 783c 43ce 88bc
00000160: 12d8 11be 19cc d23c eef7 b8bd 5160 7a3d
00000170: e4a7 07bd d3cc 0bbe 8d93 aabc 16a8 a43d
00000180: 3dac 583e ddf3 36be 7c94 683d c547 bb3c
00000190: 968d 07be c0bd a93d ea56 13be fc50 23bd
000001a0: 3438 193d 6557 38be 5422 4bbe 585f a83b
000001b0: aaa5 1c3d e606 6f3d 0ebb 46be 1037 143e
000001c0: e50f 963c 3c98 fcbc bfc1 37bd 314a 7abd
000001d0: a9e1 0fbd 5d6c 463e e3a8 693d 3f80 8d3e
000001e0: a1ea f53d 7181 5dbd b313 2abd 39ce 103d
000001f0: c458 c3be a852 a93d 2c77 853d a1f2 1e3d
00000200: 2937 ab3c 0be7 3b3e eaf8 b93b ae0b 19be
00000210: bb80 cd3d 3936 65be 22dd 7d3d 1d9f 223e
00000220: 45fa d23b 33e8 57be 0209 b53d e77a fdbd
00000230: 1f78 113e 5422 043d 2ba4 2dbe 44d8 8f3d
00000240: dc35 213d 2aea 163b c003 a43d 4959 043e
00000250: 137f dc3c 01c4 cb3c ded5 ec3d 9bbc 873d
00000260: e193 2c3d 8600 f03d 6368 68be 6ef2 ebbc
00000270: a02a b33d 8612 2ebe 2ec8 67bd 8c36 443d
00000280: 37a8 533c 6b0f a73d 8374 d0bc 14d0 493c
00000290: f055 adbe 961c cc3c 5325 4e3d 90a1 84be
000002a0: e10a d13c e900 933d aabc 5cbc ac7b 72be
000002b0: 6b3c 533d fc3c ac3d b09a 57bc 4ac4 df3d
000002c0: 4a6b 743d 25a8 aa3c 73c0 c63d 5f6e 853d
000002d0: 861c 6dbd 5d2b 02ba e8ce 57be 1906 533d
000002e0: afcd 993d 7cd4 b53d 7bb6 643c f836 b43d
000002f0: 3d6b 093e 382d 023e d428 56be 1f4b 9e3c
00000300: 99ae 363d b8bb d83c 1694 2d3d eb72 7b3d
00000310: 7fa7 c3bd cd3b 5a3d 42d7 5ebc 9333 13bd
00000320: b0f8 9a3d 3310 af3d b712 933d 5699 23bd
00000330: 8fbb f03b ad2b b93d 0dd0 913d 1315 47be
00000340: 633b 233c 71c9 64bd a450 233e 2c62 5ebc
00000350: e6fe 40bd 4a3c 01be 38cd 323d 88ce 7abd
00000360: 8bca 2bbe db8f dd3c 0f0a d7bb 5d2e 5f3b
00000370: 7670 b6bd 7064 1ebe 4ab8 0cbc 77cb 863b
00000380: 119b 813e 83e2 65be 0694 c23d 25ea 6b3d
00000390: 7aa8 1dbd 7b64 47bd f5fc 85be a884 2b3d
000003a0: 94c3 43bc cb8f 4ebe ae91 3abe 0449 243e
000003b0: 39ae b23d 4379 c93c 15ee 49be 94c7 153e
000003c0: 2191 253d b4f7 9abc a2ba 023d 9e94 8cbd
000003d0: 0ca7 c7ba 2cff 2c3e 4922 0ebc b343 933e
000003e0: 53ce c03c 38fc a93c 6c0d 83bc 2616 dc3d
000003f0: c1bd f8be e3ec ea3d 5367 c5bb 336e 693d
0.033751294 0.12095672 -0.03577633 -0.09822249 -0.0016985942 -0.16631317 0.046176307 0.100706644
0.035834163 -0.17939268 0.09722064 -0.11042112 0.11181124 -0.050860226 -0.020253045 0.059935194
0.011525192 -0.0013586552 0.050119624 0.04598655 -0.063641764 0.069142126 0.020184873 -0.09178395
0.07731064 0.059786912 -0.16051885 0.043056726 -0.0029821398 -0.1361386 -0.06289905 -0.043507077
0.0035513714 -0.08406355 0.07035951 -0.04174529 -0.23661634 0.010701869 -0.0046455534 -0.26745835
0.035850212 0.0059624235 0.035742432 -0.15802976 0.09992846 0.13965547 0.04902183 0.0028924933
0.05542476 0.03714737 0.1355088 0.0217094 -0.024507592 -0.05973784 -0.15008278 0.008323109
0.108653 0.08091272 -0.039583225 0.10250547 0.047652762 0.081405625 -0.14551187 -0.009651418
0.060060684 -0.049008776 0.05853957 0.0025831407 -0.031457767 -0.036808256 -0.09278333 0.046832796
-0.038713764 0.029519085 -0.016760478 -0.022477912 -0.07041253 -0.06564685 -0.016520714 -0.08316975
-0.053995017 -0.06464005 0.1368119 0.027602145 -0.08212565 -0.075390324 0.01515865 -0.016699916
-0.1424258 0.025732087 -0.09031664 0.06112701 -0.033119097 -0.13652353 -0.02082231 0.08039872
0.21159454 -0.17866464 0.05678223 0.02286137 -0.13237604 0.08288145 -0.14388624 -0.039872155
0.037407115 -0.18002088 -0.19837314 0.005138319 0.038243927 0.05835619 -0.19407293 0.1447413
0.018318126 -0.03083431 -0.044862505 -0.06110591 -0.035127316 0.19377275 0.05704583 0.27636907
0.120076425 -0.054078523 -0.041522693 0.03535292 -0.3815366 0.082677186 0.06516871 0.038805608
0.020900326 0.18349855 0.005675425 -0.14945862 0.10034319 -0.22383966 0.061978467 0.1588101
0.006438526 -0.2108467 0.08839609 -0.123769574 0.14205979 0.0322593 -0.16957156 0.07023671
0.039358005 0.0023027756 0.08008528 0.12924685 0.026916062 0.024873735 0.115642294 0.066277705
0.042133216 0.1171885 -0.2269607 -0.028802123 0.087483644 -0.16999254 -0.05658739 0.047903582
0.0129185235 0.081572376 -0.025446182 0.012317676 -0.33854628 0.024915975 0.050328564 -0.25904512
0.025517883 0.07177908 -0.013472715 -0.2367999 0.05157129 0.08410069 -0.013159439 0.10926111
0.05967263 0.02083213 0.097046755 0.06515192 -0.05788853 -0.0004965568 -0.21075022 0.051519487
0.07509934 0.08878419 0.013959522 0.08799547 0.13419814 0.12712562 -0.20914012 0.01932293
0.044600103 0.026456699 0.042377554 0.06138889 -0.09553432 0.053279687 -0.013601126 -0.035937857
0.075669646 0.08548012 0.07181304 -0.039941154 0.0073465775 0.090415336 0.07119761 -0.19441633
0.009962889 -0.055856172 0.1594873 -0.013573211 -0.04711809 -0.12620655 0.043652743 -0.06123212
-0.16776483 0.027046135 -0.0065624784 0.0034054734 -0.08908169 -0.15468001 -0.00858886 0.0041136104
0.2531362 -0.22449689 0.095008895 0.057596345 -0.03849075 -0.04867981 -0.26169553 0.041874558
-0.011948485 -0.2017204 -0.18219635 0.16043478 0.087246366 0.024593955 -0.19719727 0.14626914
0.04042161 -0.018916942 0.03191627 -0.06864284 -0.0015232279 0.16894215 -0.008675166 0.28762588
0.023535883 0.02075015 -0.015997611 0.10746412 -0.4858227 0.11470964 -0.00602428 0.05698986

net.7.bias f4 [128]
00000000: 3bba 2d3e 894d 443e d20e 223e 2112 2c3e
00000010: f1bc 373e 956d d0bd 60a0 383e cf0c 01be
00000020: 2c33 0abd f09a 123e 7cf0 f4bd 15ab 3c3e
00000030: c8aa dcbd 4ae2 eebd 3a3e d1be 1dce 203e
00000040: 8247 89bd 2f13 03bd d466 223e 4052 14be
00000050: a060 213e 435d 2e3e d765 84bd 9ead 03be
00000060: ff5b 383e a83f 483e 53a0 55bd 8b02 5fbd
00000070: 3884 293e d2ce 96bd 8cc5 1c3e 2f48 a1bd
00000080: 3608 493e 8390 383e a6bb c7bd da18 3c3e
00000090: c258 483e 0214 bebd c334 513e fb2a 333e
000000a0: f5d1 423e 84f3 51bd ef06 313e 22b9 03bd
000000b0: 3e89 493e cf6a 1e3e 9ae5 4f3e e823 513e
000000c0: 4382 8abd d0f8 04be e9e6 303e d7f2 2c3e
000000d0: 86d9 223e 2404 253e e57f c1bd 9a17 32bd
000000e0: eea9 b0bd b73a 303e e4ab 81bd ebbd e0be
000000f0: 9240 3c3e 6b26 77bd b6de 323e 9080 473e
00000100: 31dd 263e ecc1 c33d 38c2 303e e9a3 e1be
00000110: 660d 383e c930 bdbd dc72 283e c2e0 443e
00000120: 3197 1c3e da38 96bd f12e e1be 2ae4 263e
00000130: c0d7 4bbd a388 483e e35c 02be 4861 a9bd
00000140: 8037 acbd c348 353e 0f2d 2e3e c54f 4d3e
00000150: c8e4 3a3e b188 da3d daf6 42bd c87d 97bd
00000160: 9ca8 203e 1b77 353e f089 f6bd b1cb 0ebd
00000170: f43d 44bd b94c fbbd 84f6 73bd 7e23 373e
00000180: 97a5 45bd 1d3c 2f3e b94e 233e 9788 3d3e
00000190: 8862 3fbd c66d 19be 903e abbd bdc1 1fbe
000001a0: c47f c93d b369 4e3e f7b6 4a3e f288 bd3d
000001b0: bb3e 2639 bf60 283e 1982 39be cb09 ecbd
000001c0: 0d31 5bbd afb8 62bd 6d81 7abd 2755 95bd
000001d0: ae05 2d3e 8406 483e 0856 3ebd 7302 293e
000001e0: da60 213e 487c 3cbd 8f29 2e3e cfd9 363e
000001f0: 1923 523e 919d 2a3e aeb4 babd e11d bc3d
0.16965573 0.19170202 0.15825966 0.1680379 0.17943169 -0.10177151 0.18029928 -0.12602542
-0.033740208 0.14316916 -0.11959931 0.18424638 -0.107747614 -0.11664255 -0.40867788 0.15703626
-0.06703092 -0.032000717 0.15859538 -0.14484501 0.15759516 0.17027764 -0.06464737 -0.12859198
0.18003844 0.19555533 -0.05215485 -0.054445785 0.16554344 -0.073636666 0.15309733 -0.07875096
0.19632038 0.18023877 -0.09752588 0.18368855 0.19565108 -0.0928116 0.20430283 0.17496864
0.19025405 -0.051257625 0.17287801 -0.03215898 0.1968126 0.15470432 0.2030243 0.20423853
-0.06763127 -0.1298554 0.17275585 0.16889511 0.15903291 0.16114861 -0.09448222 -0.04347954
-0.086261615 0.17209898 -0.06331614 -0.43894896 0.18384007 -0.060339373 0.1746777 0.19482636
0.16295315 0.09558472 0.17261589 -0.44070366 0.17973861 -0.09237821 0.16450065 0.19226363
0.1529205 -0.07335062 -0.43981126 0.16297975 -0.049766302 0.19583373 -0.12730746 -0.08270508
-0.08409023 0.17703538 0.17009376 0.20049961 0.18251336 0.10670603 -0.047598697 -0.07397038
0.1568932 0.17721216 -0.12038028 -0.034862224 -0.047910646 -0.12270493 -0.059561267 0.17884633
-0.048253622 0.17112775 0.15947999 0.18509136 -0.046724826 -0.14983281 -0.08361542 -0.15601249
0.098388225 0.20157509 0.19796358 0.09254636 0.00015854363 0.16443156 -0.18116035 -0.11525305
-0.053513575 -0.05535191 -0.061158586 -0.07291632 0.16896698 0.19533736 -0.046468765 0.1650484
0.15759602 -0.04601696 0.17008041 0.17856525 0.20521201 0.1666167 -0.09116493 0.091853864

net.10.weight f4 [1, 128]
00000000: 3307 ae3d 7356 953d d696 963d 3060 a23d
00000010: 5770 a43d 1bab 74ba b232 963d 4648 89bb
00000020: 9b77 3c3d d46d ff3d 2672 93bc 3eb5 9b3d
00000030: eb2b e7bb 75bd 6bbc 85e9 0abf ad7c af3d
00000040: 98ec e13c 6fcd 78bd f17a bd3d de2c d13c
00000050: d496 a73d 7654 c03d dcc1 9abc 3d76 5abc
00000060: 747b 963d 13ee 963d fc09 26bd a822 77bb
00000070: d130 ba3d ad32 b2bc 1554 ed3d 499e e4bc
00000080: 01c9 a13d 0c1f a43d e709 073a 0534 a93d
00000090: 9e2b 943d 6aaa d63c 4f88 aa3d f1bc a63d
000000a0: 0bcb c93d 58dc 64bc 2dce b93d 28f4 a1be
000000b0: 634e b33d fec8 d33d 91e4 943d eabf a23d
000000c0: b8b4 773d 6dc9 a73c 3a7a b23d 38c9 bb3d
000000d0: dc7a e03d 0bba 933d f5b7 24bb af5e 533c
000000e0: f9f3 b7bc 6aef 853d 8590 0dba 0913 11bf
000000f0: ae8c 8a3d e94a 563b e524 aa3d 46a9 c33d
00000100: bcdf a63d 4861 df3d e9f7 9d3d 1a79 07bf
00000110: 4e0b aa3d 8b70 813c 70fa f43d f033 9c3d
00000120: 6ad1 b53d 27b2 59bc f1f5 17bf 3c24 993d
00000130: e966 673c 6b26 ab3d d0c9 c23c 0d3d cebb
00000140: b5b7 c53c a7cd a13d aa6e ab3d bddb a03d
00000150: 44a2 943d 5bda fe3d 5927 8b3c 6639 f03b
00000160: 7fb4 c63d 7fe5 c03d e733 e2bc 55f2 31be
00000170: bc34 99bc a7f0 bb3c d29f 8cbc 1a25 933d
00000180: ad5d 21be 9d1d c83d 0827 ae3d 0851 9d3d
00000190: 1733 883b 6bd5 b5bc b606 33bc fa6e a63b
000001a0: 28b7 e33d f7ed 9d3d 7a05 813d a790 da3d
000001b0: ca2b c739 c6d0 a43d e832 c83c 43d4 683c
000001c0: 1482 a8bb f82c 13bd 5caf febd 3a66 22bd
000001d0: ce2e 9a3d d52c 953d 1496 813c 2df6 9c3d
000001e0: 6788 a83d 51d3 cb3c 07ea a83d 1ce9 c73d
000001f0: 12fe 8f3d 8fc8 ce3d aa27 453c 903a e33d
0.08497467 0.072918795 0.073529884 0.079285026 0.080292396 -0.0009333358 0.07333888 -0.004189524
0.046012502 0.1247212 -0.017998766 0.076029286 -0.007054796 -0.014388432 -0.5426257 0.08568702
0.027578637 -0.06074279 0.09251965 0.02553409 0.08183065 0.0939111 -0.018891267 -0.013333854
0.073477656 0.07369628 -0.040536866 -0.0037709866 0.09091342 -0.02175268 0.11588303 -0.027907507
0.078996666 0.08013734 0.0005151317 0.08261875 0.07234882 0.026204307 0.0832678 0.081415065
0.098531805 -0.01396855 0.09072528 -0.3163159 0.087551855 0.103410706 0.07270158 0.07946761
0.06047508 0.02048179 0.08714719 0.09169239 0.109609336 0.07213219 -0.002513406 0.012900992
-0.022455202 0.06539805 -0.0005400258 -0.5666967 0.06765114 0.0032698459 0.08307818 0.09553771
0.08148143 0.10907227 0.07713301 -0.5291916 0.083029374 0.015800735 0.1196183 0.07627094
0.08877833 -0.013287104 -0.5935965 0.07477614 0.014123657 0.08356937 0.023777872 -0.006293899
0.02413545 0.07900553 0.08370717 0.07854412 0.07257512 0.12443992 0.016986536 0.007331061
0.09702396 0.09418773 -0.02761264 -0.17377599 -0.018701904 0.0229419 -0.017166052 0.07184811
-0.1575839 0.09771273 0.08503538 0.07681471 0.004156481 -0.022196492 -0.010926893 0.0050791474
0.11118919 0.07711404 0.06299873 0.106721215 0.00037988863 0.08047633 0.024438336 0.014210763
-0.0051424596 -0.035931557 -0.12435791 -0.039648272 0.075284585 0.07283942 0.015818633 0.07664142
0.08229142 0.024881037 0.08247762 0.09761259 0.07030882 0.10096847 0.012033382 0.11095154
