volume/checkpoints/latent2genera_best.pt (torch, 8793 bytes, 6 tensors)

net.0.weight f4 [32, 4]
0.27550185 -0.21311979 -0.28197828 0.096667685 -0.23102218 0.4704464 0.2781426 -0.44514444
-0.4007532 -0.30801967 -0.085310906 -0.40763518 -0.39454812 0.308792 0.40962067 0.403801
0.050168443 -0.07546183 -0.3124029 -0.08258455 -0.023809768 -0.047223475 -0.14471589 -0.1713592
0.009049653 -0.15380213 -0.3146719 0.1817267 -0.53094476 0.4131805 -0.3489898 -0.2567937
-0.045199234 -0.3843773 0.16921268 -0.3903728 -0.30531037 0.20671396 -0.013823881 -0.33073214
-0.12316595 0.47523353 0.25886872 0.2662447 -0.39362514 0.4723642 0.27407184 0.13575199
0.25038445 0.36787733 0.43281367 -0.40938863 -0.17439961 -0.27091956 -0.36088884 0.10147558
-0.16820629 -0.10652188 -0.15504982 -0.30524302 -0.21004674 -0.5080832 -0.14453697 -0.3219496
-0.31755042 0.058912795 -0.23914671 0.31334853 -0.13038258 -0.03775636 0.39259624 -0.16725317
0.4869508 -0.0007389839 0.1529199 0.0077347513 -0.23143674 0.2988002 0.3280243 -0.39112982
-0.24602251 0.15276235 0.43288472 0.20634544 0.44526213 0.26520085 0.5061925 0.25535554
0.10636184 -0.20086063 0.40126953 0.36754197 -0.41688034 0.15438782 0.0809644 -0.26319346
0.31084076 0.409586 0.13252765 -0.32893944 -0.4346245 0.18282107 0.29337505 -0.24606021
-0.2724925 0.5410908 0.4933114 0.5181633 -0.22351165 -0.4162983 0.2257518 -0.47533715
0.43828988 -0.05774845 0.25279856 -0.39492854 0.26084217 0.19072981 0.24673605 0.15157196
-0.020473922 0.49774945 -0.34816015 0.50770336 -0.11834657 0.39298302 0.44117615 -0.18412994
00000000: 940e 8d3e 133c 5abe 755f 90be b5f9 c53d
00000010: 1491 6cbe 5ade f03e b568 8e3e f9e9 e3be
00000020: 862f cdbe c1b4 9dbe 7cb7 aebd 8fb5 d0be
00000030: 3602 cabe fc19 9e3e cdb9 d13e 01bf ce3e
00000040: 6d7d 4d3d bb8b 9abd 46f3 9fbe 1722 a9bd
00000050: b40c c3bc 676d 41bd 6730 14be c978 2fbe
00000060: ff44 143c 4e7e 1dbe ad1c a1be 9016 3a3e
00000070: ffeb 07bf 658c d33e cbae b2be 777a 83be
00000080: d522 39bd 1acd c4be 1746 2d3e f2de c7be
00000090: a451 9cbe d3ac 533e 8f7d 62bc b955 a9be
000000a0: 6e3e fcbd cf51 f33e 718a 843e 3a51 883e
000000b0: 3c89 c9be b8d9 f13e 2553 8c3e 9202 0b3e
000000c0: 6432 803e 6b5a bc3e c199 dd3e 639b d1be
000000d0: d095 32be f8b5 8abe 6cc6 b8be 6ed2 cf3d
000000e0: 453e 2cbe 2528 dabd 61c5 1ebe d048 9cbe
000000f0: 7e16 57be be11 02bf 8001 14be 94d6 a4be
00000100: f895 a2be 8b4e 713d e0e2 74be 386f a03e
00000110: 0383 05be 6aa6 1abd 6002 c93e 6a44 2bbe
00000120: 9e51 f93e 5fb8 41ba 0997 1c3e cc73 fd3b
00000130: c1fd 6cbe 57fc 983e cdf2 a73e 2b42 c8be
00000140: 53ed 7bbe bc6d 1c3e 11a3 dd3e 384c 533e
00000150: 66f9 e33e 68c8 873e d595 013f f6bd 823e
00000160: 3dd4 d93d 69ae 4dbe 3373 cd3e 762e bc3e
00000170: 5771 d5be d717 1e3e aad0 a53d 4bc1 86be
00000180: 8526 9f3e 42b5 d13e 54b5 073e c06a a8be
00000190: 1a87 debe 7235 3b3e 4135 963e 35f7 7bbe
000001a0: 2384 8bbe ed84 0a3f 5093 fc3e 5aa6 043f
000001b0: 3de0 64be 0d25 d5be 7b2b 673e 645f f3be
000001c0: 8867 e03e a489 6cbd d06e 813e 1334 cabe
000001d0: 1b8d 853e ad4e 433e 60a8 7c3e ae35 1b3e
000001e0: edb8 a7bc 04d9 fe3e 0c42 b2be d9f8 013f
000001f0: b05f f2bd 1235 c93e d7e1 e13e 8f8c 3cbe

net.0.bias f4 [32]
-0.17716654 0.38397014 0.2198801 -0.47839448 0.072926596 -0.19143109 -0.0074975872 -0.4342903
0.4417173 0.17313157 0.1184342 0.5485553 -0.087521225 -0.030434925 0.2735897 0.33486906
-0.3439183 -0.12960024 0.32717028 -0.3182423 0.08231893 0.053923517 0.3381237 0.06682497
0.48873064 0.36523634 0.11180916 -0.2070986 0.17624931 0.043881904 0.5286698 -0.06416987
00000000: 256b 35be bc97 c43e 4028 613e 1ff0 f4be
00000010: 8a5a 953d 8306 44be 52ae f5bb 4c5b debe
00000020: c528 e23e 6749 313e a18d f23d 1f6e 0c3f
00000030: 543e b3bd aa52 f9bc f313 8c3e f573 ab3e
00000040: 0f16 b0be edb5 04be dd82 a73e a8f0 a2be
00000050: d496 a83d e8de 5c3d 8d1e ad3e 88db 883d
00000060: e73a fa3e 4200 bb3e 33fc e43d a811 54be
00000070: b37a 343e 83bd 333d e756 073f 7e6b 83bd

net.1.weight f4 [32, 32]
-0.01892166 -0.011989896 0.014025958 0.0059168297 0.1425916 0.05065439 -0.09097745 -0.12291637
0.03895882 -0.006025125 0.06048692 0.16238342 0.09019537 -0.13916144 -0.0925971 -0.112143174
-0.1030521 0.040246 -0.040264077 0.116066724 -0.05706189 0.16238469 0.120831154 -0.15033433
-0.00393878 -0.053857107 0.09483762 -0.11444665 -0.026715871 0.017169937 0.10788562 -0.1390937
-0.025349988 -0.08888161 0.0738707 -0.043192614 -0.10202345 0.028593663 -0.083911955 0.06683145
-0.14412281 0.08052018 -0.06327449 0.053744327 0.093596585 0.08324259 -0.1186907 0.109163426
0.18887767 -0.07965977 -0.03722098 -0.10503329 0.14714064 -0.06535798 0.04362679 -0.14480217
-0.00713247 -0.10767705 0.14652202 -0.027980046 -0.01258012 0.015093084 -0.09584204 -0.0010904676
0.107359454 0.010193048 -0.0015068195 -0.033993512 0.05350715 -0.08632111 -0.029940674 -0.036821738
-0.13714686 -0.0040009203 -0.0045100586 0.052063793 0.06087662 -0.14136985 0.12972003 -0.07421568
0.0048381053 -0.08716269 -0.046764452 -0.061763633 -0.083679825 -0.004126638 0.11547792 -0.19742997
-0.008008665 -0.13020425 0.0035078453 -0.109968536 0.14501353 0.07917647 0.107744075 0.16227865
0.1662212 0.10134323 -0.15361655 0.044327356 0.020509334 -0.109885536 -0.06339334 -0.030160397
-0.049251284 -0.15931329 -0.08596619 0.0055420366 -0.028529976 0.049545232 0.010203993 0.060808755
-0.011524154 -0.09267854 -0.17794932 0.15658186 -0.15952833 -0.1732225 -0.0030129186 0.13998306
-0.064675674 0.1263833 0.021852544 -0.04658756 0.08018016 0.12343243 0.08842169 0.028364282
-0.15373237 -0.1457811 0.14266995 0.096082516 0.15518035 -0.07967507 0.03582656 -0.056870565
0.057794742 0.046475124 0.10887488 0.02199813 -0.17161359 0.1555701 -0.12810265 -0.0020374411
-0.08695224 -0.14785579 0.10321669 0.18546851 0.13566877 0.10855944 0.0044096294 0.16536972
0.09997345 -0.09756696 -0.1676103 -0.00090143573 -0.14505033 -0.14437896 0.0037402075 0.033394016
-0.08117652 -0.13115898 -0.024452537 -0.04560679 -0.1526092 0.05453269 -0.051991142 -0.026976563
-0.15146568 0.0187321 -0.013380124 0.08700345 -0.123430215 0.12688632 -0.12627731 -0.10523074
-0.09767364 -0.11591705 0.089820534 -0.069694705 -0.0042082635 0.14265695 0.12178507 0.0008269374
0.038064096 -0.21154691 0.041310523 -0.12521954 0.1911882 -0.006532638 -0.059721194 0.15882808
-0.04711016 -0.13637026 -0.104003735 0.19327691 0.017233806 0.06858093 0.057588402 -0.12041266
-0.041132566 0.06919579 -0.09493845 0.17221844 -0.08220455 0.013536276 0.11371285 -0.036494896
0.08475547 -0.010041987 0.20370965 -0.15423614 0.13027994 0.08195317 0.15499742 0.12203952
-0.06904476 -0.18101273 0.10409421 0.092339255 -0.054653633 0.12935637 -0.009339556 0.15535033
-0.041143905 0.09801062 0.016952168 -0.12032964 0.14998056 -0.07394548 0.035108995 0.035095535
0.1480113 -0.057526857 -0.13220595 0.13155697 -0.08756084 0.06370346 -0.03585673 0.08179219
-0.03566631 0.013462615 0.08266297 0.041666795 0.0057566417 0.10390536 -0.12475904 0.16984104
-0.086497724 0.111590356 -0.054907992 0.018461924 0.09851308 0.09331579 0.1569007 0.1368801
00000000: 9901 9bbc 4571 44bc 22cd 653c f7e1 c13b
00000010: 8803 123e fa7a 4f3d 6352 babd 94bb fbbd
00000020: 4993 1f3d 696e c5bb 22c1 773d d747 263e
00000030: 5ab8 b83d 5680 0ebe 8ca3 bdbd 52ab e5bd
00000040: fb0c d3bd fdd8 243d f2eb 24bd 64b4 ed3d
00000050: bab9 69bd 2c48 263e 5376 f73d 3ef1 19be
00000060: e210 81bb 4599 5cbd 3a3a c23d 0163 eabd
00000070: 3edb dabc f8a7 8c3c 23f3 dc3d 946e 0ebe
00000080: c7aa cfbc 9007 b6bd 8649 973d bdea 30bd
00000090: acf1 d0bd 423d ea3c 08da abbd edde 883d
000000a0: ee94 13be c4e7 a43d 0e96 81bd 0323 5c3d
000000b0: 91af bf3d 177b aa3d 1c14 f3bd 1391 df3d
000000c0: 2669 413e a924 a3bd 0775 18bd b21b d7bd
000000d0: 09ac 163e 68da 85bd 01b2 323d 0547 14be
000000e0: 7fb7 e9bb c985 dcbd de09 163e 6936 e5bc
000000f0: d91c 4ebc fc48 773c d548 c4bd 05ee 8eba
00000100: 46df db3d be00 273c 7980 c5ba c83c 0bbd
00000110: 502a 5b3d 1fc9 b0bd 2546 f5bc 64d2 16bd
00000120: 3a70 0cbe 271a 83bb 1dc9 93bb d840 553d
00000130: c359 793d 42c3 10be 54d5 043e 64fe 97bd
00000140: f888 9e3b 5a82 b2bd 158c 3fbd ddfb 7cbd
00000150: 5460 abbd c038 87bb b07f ec3d 152b 4abe
00000160: c736 03bc 4354 05be e1e3 653b 2f37 e1bd
00000170: 6d7e 143e 4627 a23d eda8 dc3d 602c 263e
00000180: e435 2a3e 0a8d cf3d a84d 1dbe 9a90 353d
00000190: 3103 a83c ab0b e1bd 5ed4 81bd f012 f7bc
000001a0: b7bb 49bd 0623 23be 0b0f b0bd f999 b53b
000001b0: b2b7 e9bc f1ef 4a3d a62e 273c 9a12 793d
000001c0: cecf 3cbc 3fce bdbd 5938 36be ff56 203e
000001d0: 655b 23be 3d61 31be 6374 45bb b857 0f3e
000001e0: ae74 84bd a06a 013e 1b04 b33c 99d2 3ebd
000001f0: 7f35 a43d 24ca fc3d 6e16 b53d 365c e83c
00000200: 056c 1dbe a447 15be 1218 123e e9c6 c43d
00000210: 99e7 1e3e af2c a3bd dfbe 123d 1cf1 68bd
00000220: 2eba 6c3d b35c 3e3d cbf9 de3d 6c35 b43c
00000230: 79bb 2fbe c54d 1f3e 572d 03be 9786 05bb
00000240: 0414 b2bd 8267 17be 4663 d33d 75eb 3d3e
00000250: c1ec 0a3e 6954 de3d a77e 903b ae56 293e
00000260: e1be cc3d 30d1 c7bd 09a2 2bbe 544e 6cba
00000270: 1388 14be 14d8 13be 451e 753b 2ac8 083d
00000280: e03f a6bd 8a4e 06be b050 c8bc 2fce 3abd
00000290: 9645 1cbe ac5d 5f3d aaf4 54bd f4fd dcbc
000002a0: d219 1bbe 1074 993c 4f38 5bbc dd2e b23d
000002b0: fbc8 fcbd 7dee 013e d74e 01be 3783 d7bd
000002c0: 1e09 c8bd eb65 edbd d4f3 b73d 19bc 8ebd
000002d0: 79e5 89bb aa14 123e 736a f93d d4c6 583a
000002e0: 19e9 1b3d c19f 58be 3935 293d 8d39 00be
000002f0: d7c6 433e bd0f d6bb 369e 74bd d4a3 223e
00000300: 95f6 40bd a5a4 0bbe e9ff d4bd 62ea 453e
00000310: e92d 8d3c 2974 8c3d d1e1 6b3d ea9a f6bd
00000320: 9f7a 28bd 86b6 8d3d 176f c2bd 085a 303e
00000330: dc5a a8bd 42c7 5d3c 48e2 e83d ac7b 15bd
00000340: 4794 ad3d 2587 24bc 4399 503e 14f0 1dbe
00000350: 1b68 053e 10d7 a73d a5b7 1e3e dbef f93d
00000360: 5767 8dbd 675b 39be 582f d53d 5d1c bd3d
00000370: 7ddc 5fbd ff75 043e f004 19bc 2814 1f3e
00000380: 8386 28bd cbb9 c83d 46df 8a3c 636f f6bd
00000390: 8194 193e ba70 97bd 73ce 0f3d 56c0 0f3d
000003a0: 4690 173e 48a1 6bbd ff60 07be dfb6 063e
000003b0: 1953 b3bd f676 823d 82de 12bd aa82 a73d
000003c0: d616 12bd 4d92 5c3c 344b a93d cdaa 2a3d
000003d0: 36a2 bc3b 55cc d43d ab81 ffbd cfea 2d3e
000003e0: b825 b1bd 7c89 e43d 34e7 60bd 763d 973c
000003f0: 3ac1 c93d 591c bf3d 94aa 203e 4c2a 0c3e

net.1.bias f4 [32]
-0.1393516 -0.056180958 0.036262423 -0.12295354 0.0023606454 -0.114360385 0.06690258 -0.105411924
0.1095496 -0.12423755 0.27289724 -0.07828788 0.11225641 0.12170968 0.39061707 -0.056315232
-0.030047297 -0.16748053 0.043016013 0.0083256895 -0.1315936 -0.09927653 0.092897564 -0.081701085
-0.12599121 0.08847185 0.035643563 0.04527161 0.010205827 0.023775548 0.058388893 0.15421933
00000000: 30b2 0ebe 011e 66bd e887 143d 11cf fbbd
00000010: 0fb5 1a3b c735 eabd 3804 893d 35e2 d7bd
00000020: 8a5b e03d 4270 febd 30b9 8b3e 6555 a0bd
00000030: b0e6 e53d ed42 f93d f6fe c73e cdaa 66bd
00000040: c025 f6bc 0480 2bbe 8f31 303d 7968 083c
00000050: 79c0 06be 7e51 cbbd 1441 be3d e652 a7bd
00000060: d703 01be bb30 b53d fcfe 113d b96e 393d
00000070: 5736 273c f0c4 c23c 3129 6f3d aceb 1d3e

net.3.weight f4 [5, 32]
0.19340147 -0.04315678 0.16514768 -0.1621215 -0.15701109 0.1433115 0.19513403 -0.15574642
-0.07428748 0.07331645 0.21781193 0.0326557 0.17123392 0.005394831 0.315159 0.007287554
0.09331054 -0.112004235 0.18296213 0.05926441 0.18202227 -0.026640847 0.03028039 0.03425449
-0.09693367 0.15704732 -0.10885713 0.1292282 0.17608456 -0.01826787 -0.14990942 0.20792304
0.070800126 0.050987985 -0.21190023 -0.052940015 -0.09847095 0.118942626 -0.0683519 -0.05622915
-0.1398027 0.14417106 -0.03676716 0.0082077235 0.10509088 0.06878512 -0.44659948 0.12851773
-0.012587449 0.060229238 0.10026874 0.08489302 0.009159382 0.069630004 -0.20355304 -0.040520824
-0.13507582 0.046674736 -0.16758661 0.04812887 -0.0035430517 0.1266012 -0.16101512 -0.12726627
0.013462619 -0.18790111 0.101846464 -0.02271778 -0.1574168 -0.064368784 -0.1571573 -0.18529102
-0.09140659 0.022668589 -0.2769829 -0.11492478 -0.12269089 0.07036365 -0.35461998 0.114468396
-0.110355824 0.10320632 0.042014576 0.10336072 0.09239162 -0.10798593 0.06442412 0.08499016
-0.0889154 -0.041362945 -0.09950099 -0.019330552 -0.12240547 0.07594854 -0.12228874 -0.17195559
-0.0102761015 -0.16048056 0.039396577 -0.12100897 -0.19262299 -0.13408102 -0.16508211 -0.08591582
-0.14133523 -0.1758313 -0.28135517 -0.13941276 -0.20014147 -0.056181706 -0.31337568 -0.18051754
0.024917567 0.023333972 -0.016505137 0.031680837 0.030583119 -0.1324688 0.087807745 -0.15335159
0.04241388 0.12200626 -0.13055164 -0.15407313 -0.12249237 0.027810412 -0.04503901 -0.14187934
-0.2032209 -0.16617863 0.1151113 0.0964887 -0.0036627485 0.12104217 -0.10639637 -0.15431432
0.13223931 -0.034782562 -0.12427824 0.025308028 -0.04904411 -0.07317924 -0.31859943 -0.16264102
-0.03272199 0.061769024 -0.2407323 0.115893014 -0.09186251 0.1494246 -0.025092445 -0.20149513
0.0508164 -0.1794278 0.05245991 -0.17486595 -0.12999187 -0.025077665 -0.020503288 -0.026506476
00000000: 090b 463e 2ac5 30bd 791c 293e 2e03 26be
00000010: 84c7 20be 40c0 123e 37d1 473e fd7b 1fbe
00000020: 0924 98bd ef26 963d 170a 5f3e fcc1 053d
00000030: f257 2f3e 1fc7 b03b 855c a13e 6fcc ee3b
00000040: 9919 bf3d 7a62 e5bd 6d5a 3b3e 3dbf 723d
00000050: 0c64 3a3e e83d dabc 950e f83c 704e 0c3d
00000060: 2985 c6bd 03d1 203e 7df0 debd 6654 043e
00000070: 834f 343e 80a6 95bc db81 19be c7e9 543e
00000080: a8ff 903d c7d8 503d 60fc 58be a1d7 58bd
00000090: 23ab c9bd 3198 f33d 15fc 8bbd 8a50 66bd
000000a0: 7028 0fbe 94a1 133e 2999 16bd b079 063c
000000b0: e339 d73d 37df 8c3d b0a8 e4be 279a 033e
000000c0: 963b 4ebc efb2 763d b259 cd3d 64dc ad3d
000000d0: 3c11 163c 2d9a 8e3d 3570 50be 2af9 25bd
000000e0: 5151 0abe 022e 3f3d d39b 2bbe c722 453d
000000f0: 8b32 68bb bfa3 013e 26e1 24be 1752 02be
00000100: 5192 5c3c 2669 40be e194 d03d a31a babc
00000110: df31 21be c8d3 83bd d8ed 20be eebc 3dbe
00000120: 6133 bbbd 7ab3 b93c b4d0 8dbe af5d ebbd
00000130: 5d45 fbbd d11a 903d c090 b5be 686e ea3d
00000140: 3c02 e2bd d65d d33d 7a17 2c3d c9ae d33d
00000150: d137 bd3d ba27 ddbd cbf0 833d 520f ae3d
00000160: 4719 b6bd 316c 29bd 2dc7 cbbd 1b5b 9ebc
00000170: b8af fabd e88a 9b3d 8572 fabd 2015 30be
00000180: 185d 28bc 0455 24be 4e5e 213d 8dd3 f7bd
00000190: f63e 45be 894c 09be 490b 29be a2f4 afbd
000001a0: 2fba 10be 1f0d 34be c90d 90be 38c2 0ebe
000001b0: e3f1 4cbe ca1e 66bd c772 a0be 97d9 38be
000001c0: ed1f cc3c e326 bf3c c835 87bc c4c3 013d
000001d0: 7389 fa3c e7a5 07be 8cd4 b33d 3308 1dbe
000001e0: 2dba 2d3d 6bde f93d 54af 05be 59c5 1dbe
000001f0: 48dd fabd a9d2 e33c d37a 38bd d148 11be
00000200: 2419 50be bb2a 2abe 79bf eb3d de9b c53d
00000210: b90a 70bb f5e4 f73d 57e6 d9bd 9304 1ebe
00000220: be69 073e 2978 0ebd 9785 febd c852 cf3c
00000230: 7ae2 48bd ffde 95bd 771f a3be 5e8b 26be
00000240: 7e07 06bd 8401 7d3d 8782 76be 5159 ed3d
00000250: 6922 bcbd c302 193e ac8e cdbc bd54 4ebe
00000260: dc24 503d ecbb 37be 34e0 563d 0f10 33be
00000270: 971c 05be ad6f cdbc 83f6 a7bc 1c24 d9bc

net.3.bias f4 [5]
0.14153785 0.12030061 0.025357705 0.004814937 -0.093910016
00000000: 4cef 103e 2b60 f63d f6ba cf3c 9ec6 9d3b
00000010: e553 c0bd
