volume/checkpoints/latent2genera_deefsdf_best.pt (torch, 214658 bytes, 10 tensors)

net.0.weight f4 [128, 16]
0	0xbe257d40	-0.1616106
1	0x3e207512	0.15669659
2	0x3ca4cc11	0.020116838
3	0x3e198555	0.14992268
4	0x3d9b957d	0.07596872
5	0xbe743d43	-0.23851494
6	0x3e9233e2	0.28555208
7	0xbe5484d9	-0.20753802
8	0xbd755a37	-0.05990049
9	0xbd3cca49	-0.04609135
10	0xbe803dfe	-0.25047296
11	0xbe9894e9	-0.2980111
12	0xbcb39988	-0.021923795
13	0x3e956a9e	0.29182905
14	0x3e5fb430	0.2184608
15	0xbde16430	-0.110054374
16	0x3e2e0df2	0.16997507
17	0x3eaaaa5e	0.33333105
18	0xbe277cee	-0.1635625
19	0xbea928da	-0.3303898
20	0xbd40d1ec	-0.047075197
21	0xbdee5c06	-0.11638646
22	0x3d5d84e8	0.054081827
23	0xbd45dbe4	-0.048305407
24	0x3e8b92f7	0.27260563
25	0xbe677c79	-0.22606076
26	0x3dc6e03c	0.09710738
27	0x3e40b02c	0.18817204
28	0xbeb0a31e	-0.3449945
29	0x3df493e5	0.11942271
30	0xbe5833c2	-0.21113494
31	0x3daf7802	0.085678115
32	0xbe6acf32	-0.22930601
33	0xbdd1270a	-0.10212524
34	0x3c94073d	0.018069858
35	0x3e56ed72	0.20989016
36	0x3e0ee1af	0.13953279
37	0x3d2f5315	0.042803843
38	0xbe4a5609	-0.19759382
39	0x3e057227	0.13031827
40	0xbe48e35b	-0.19617979
41	0x3cfa8de4	0.030585237
42	0xbe2dbb09	-0.1696588
43	0x3e9486d8	0.29009128
44	0x3e264382	0.1623669
45	0xbd773cdd	-0.060360778
46	0x3e992fe1	0.2991934
47	0xbe18b18e	-0.14911482
48	0x3d0e565d	0.03475033
49	0xbe8dd9e6	-0.27705306
50	0x3e4bd48c	0.19905299
51	0x3dcc069c	0.09962198
52	0xbe257bb5	-0.16160472
53	0xbe76c8a8	-0.24099982
54	0x3e0bb3d2	0.13642815
55	0xbdeefcf3	-0.1166934
56	0x3caa5f08	0.020797268
57	0xbe758db2	-0.23979834
58	0x3e532a3c	0.2062158
59	0x3b0aaa11	0.0021158496
60	0xbe64e724	-0.22353798
61	0x3ddc17ac	0.107467026
62	0x3c8bd366	0.017068576
63	0xbe5a3b93	-0.21311788
64	0x3df8f649	0.1215635
65	0xbdf8523e	-0.121250615
66	0x3e6ae49b	0.22938769
67	0x3e16e579	0.14735974
68	0xbeb45391	-0.35220006
69	0xbe46b09a	-0.19403306
70	0xbe9dbf27	-0.308099
71	0x3e2ccacd	0.16874237
72	0x3dcf3b99	0.10118789
73	0xbdc921a6	-0.09820871
74	0x3e74542a	0.23860231
75	0x3e7060c0	0.23474407
76	0x3e17663e	0.14785096
77	0x3b57c9c9	0.003292667
78	0xbeb638e3	-0.35590276
79	0xbeadcf52	-0.33947235
80	0x3e91360f	0.28361556
81	0x3bc238dc	0.0059271883
82	0x3e244ef1	0.16045739
83	0x3c991c2f	0.018690197
84	0xbe54efab	-0.20794551
85	0xbe658df7	-0.22417437
86	0xbe9b1710	-0.30291033
87	0xbeb2c6d0	-0.34917307
88	0xbebb3b20	-0.36568546
89	0x3e5cb740	0.2155428
90	0x3b874687	0.0041282806
91	0xbdff93d4	-0.12479368
92	0xbdde9eda	-0.10870142
93	0x3e3d5a09	0.18491377
94	0x3e9d1ea2	0.30687433
95	0xbe7bd304	-0.24592215
96	0xbe8a6a37	-0.2703416
97	0x3e833349	0.25625065
98	0x3eaf045c	0.34183013
99	0x3ce09b3b	0.02741777
100	0x3e11809d	0.14209218
101	0x3e67df53	0.22643785
102	0x3bcb5289	0.0062049073
103	0x3cb90c49	0.022588866
104	0xbd784642	-0.060613878
105	0xbe421fad	-0.18957396
106	0x3e805da5	0.25071445
107	0x3d063337	0.032763686
108	0x3d07c278	0.033144444
109	0xbd34d032	-0.044143863
110	0xbdcf7708	-0.10130125
111	0x3eabae8f	0.33531615
112	0x3e9d59c3	0.30732545
113	0x3e94eec1	0.29088405
114	0x3da08235	0.07837335
115	0xbe61176c	-0.21981591
116	0xbd0b0442	-0.033939607
117	0xbe11ea2d	-0.14249487
118	0xbe390b92	-0.1807082
119	0x3b488928	0.003059933
120	0xbea1c521	-0.3159571
121	0x3dd032fb	0.10165974
122	0x3d7e6d46	0.06211593
123	0x3d8020aa	0.0625623
124	0x3e77ecad	0.24211378
125	0xbd275680	-0.040853977
126	0x3e4e4f09	0.20147337
127	0x3c9824e5	0.01857228
128	0x3e45001b	0.19238321
129	0xbe35972d	-0.1773345
130	0x3e2ea583	0.17055325
131	0x3bbe68c5	0.0058108293
132	0xbe889efc	-0.26683795
133	0x3e1a128d	0.15046139
134	0x3cfa20d0	0.030533224
135	0xbe8313e5	-0.25601116
136	0xbeaf3c92	-0.342259
137	0x3c3a1e5b	0.011359776
138	0x3d1eb8a8	0.03875032
139	0xbe9e6f84	-0.30944455
140	0x3e2f9d51	0.17149855
141	0x3ec9e755	0.39434305
142	0xbe58991f	-0.21152161
143	0x3e4502a4	0.19239289
144	0x3dc90c49	0.09816796
145	0x3eb701a9	0.35743454
146	0xbe84a79c	-0.25909126
147	0x3e275f17	0.16344868
148	0xbde923d0	-0.11383784
149	0xbdc489f6	-0.095966265
150	0xbc02e8b2	-0.007990049
151	0x3dbb20aa	0.091370896
152	0x3d5c1461	0.053730372
153	0xbe989633	-0.29802093
154	0xbe70a80c	-0.23501605
155	0xbd07d6aa	-0.033163704
156	0x3e5f62bf	0.21815012
157	0xbe7e4f14	-0.24834853
158	0xbe579ddd	-0.21056314
159	0x3ebf489e	0.3736009
160	0x3e781de0	0.24230146
161	0xbe1c51c8	-0.15265572
162	0xbd55a41e	-0.052158467
163	0xbe9645ee	-0.29350227
164	0x3ea82f49	0.32848576
165	0x3dee2f24	0.11630085
166	0xbd22de01	-0.0397625
167	0x3e19e7ae	0.15029785
168	0x3e950bd9	0.29110602
169	0xbea73cb2	-0.32663494
170	0x3ec046fd	0.3755416
171	0xbe21deb8	-0.15807617
172	0xbe0cd5d2	-0.13753441
173	0x3e4435ae	0.19161102
174	0x3db4198c	0.08793935
175	0xbe1ea716	-0.15493426
176	0xbebad2dc	-0.36488998
177	0xbdc8bb72	-0.09801377
178	0x3e0de838	0.13858116
179	0xbdca40c5	-0.09875635
180	0x3dc90f71	0.09817398
181	0x3e1624a7	0.1466242
182	0xbc36c3cc	-0.01115508
183	0x3e9be645	0.3044912
184	0x3e45a572	0.19301394
185	0xbceb5323	-0.028726166
186	0xbe85b8f7	-0.2611768
187	0x3e9506ca	0.29106742
188	0xbec63e17	-0.38719246
189	0xbe8f7c18	-0.28024364
190	0xbe368bd0	-0.17826772
191	0x3d6171de	0.055040233
192	0xbdb5ab57	-0.08870571
193	0xbe089db6	-0.13341412
194	0x3e4b95d1	0.19881369
195	0x3b551c36	0.0032518036
196	0xbdd8cef6	-0.1058635
197	0x3e831882	0.25604635
198	0xbe866da6	-0.2625553
199	0x3e91d455	0.2848231
200	0x3e80707a	0.25085813
201	0xbe8a8d58	-0.27060962
202	0x3e899a47	0.26875517
203	0xbe61f347	-0.22065459
204	0x3e1478f2	0.14499262
205	0xbe8b9abb	-0.27266487
206	0xbe6ce3de	-0.231338
207	0x3cf1b886	0.029506933
208	0xbc45fcb2	-0.012084173
209	0xbea5f80c	-0.32415807
210	0x3e5e58e8	0.21713603
211	0x3e540199	0.20703734
212	0xbe045c54	-0.12925845
213	0x3eca7589	0.39542797
214	0x3e1d0228	0.15332854
215	0x3d9fb2fa	0.07797809
216	0xbe31ce26	-0.17363796
217	0x3ebf029c	0.37306678
218	0x3e4da084	0.20080763
219	0xbe36d37c	-0.17854112
220	0xbe845505	-0.25846115
221	0xbd991b40	-0.07475901
222	0xbc242b7e	-0.010020135
223	0xbd80f311	-0.06296361
224	0xbe83b926	-0.25727195
225	0xbe0953cf	-0.13410877
226	0x3cab42c8	0.020905867
227	0x3e8dbc24	0.27682602
228	0xbe6bc230	-0.23023295
229	0x3e0d4836	0.13797078
230	0x3d9fb898	0.0779888
231	0xbdf870d5	-0.12130896
232	0xbe0b2cf6	-0.1359137
233	0x3e624e9c	0.221003
234	0x3c95e728	0.0182987
235	0xbe6c52e4	-0.23078495
236	0x3e8300e4	0.25586617
237	0x3e3fa70c	0.18716067
238	0x3e2f31cf	0.17108844
239	0x3cb1e38d	0.02171495
240	0xbce9a6e4	-0.028521962
241	0xbd85e671	-0.06538094
242	0x3e86e598	0.2634704
243	0x3da5d6b3	0.08097591
244	0xbd44711e	-0.04795944
245	0x3e7c64ad	0.2464778
246	0x3e9dc1c5	0.30811897
247	0xbca5f8f1	-0.020260306
248	0x3ea3b77c	0.31975925
249	0xbe51cdb7	-0.2048863
250	0xbe777baa	-0.24168268
251	0xbe9bd465	-0.30435482
252	0xbd880eda	-0.06643458
253	0xbe674467	-0.22584687
254	0xbdc72a36	-0.09724848
255	0xbe6571a1	-0.22406627

net.0.bias f4 [128]
0	0x3d133c04	0.035945907
1	0xbd96add8	-0.07357377
2	0x3cefa638	0.029254064
3	0x3e692f0f	0.22771858
4	0xbc8bf40a	-0.01708414
5	0x3dafe1cc	0.08587989
6	0xbe1d6176	-0.1536921
7	0x3e0ffbbe	0.14060876
8	0xbd6fbbb5	-0.05852862
9	0xbc8477a4	-0.01617033
10	0x3e1c9219	0.15290107
11	0xba4033c2	-0.0007331931
12	0x3d53e35e	0.051730506
13	0x3ca2b2c5	0.019860635
14	0x3e4f66bf	0.20254038
15	0xbdc17d1b	-0.0944769
16	0x3c8540e2	0.01626629
17	0xbe894fcc	-0.26818693
18	0x3db8da49	0.090260096
19	0xbd41b33a	-0.047290064
20	0xbe3a2b59	-0.18180598
21	0x3daa25d4	0.083079964
22	0x3d4d0e84	0.05006267
23	0x3e6d5a3d	0.23178954
24	0xbe523a1c	-0.2052998
25	0x3e0c252b	0.13686053
26	0xbda5b450	-0.080910325
27	0x3e74fbd4	0.2392419
28	0xbda54f81	-0.08071805
29	0xbda8fe73	-0.08251657
30	0x3e565be2	0.20933488
31	0xbe0aa920	-0.13541079
32	0x3d2136fc	0.039359078
33	0x3cbf4a0d	0.02335074
34	0x3d3da7ea	0.046302713
35	0x3d1e7e16	0.038694464
36	0x3d941f8f	0.07232582
37	0x3e03795c	0.12839264
38	0xbe069885	-0.13144119
39	0xbe008e2a	-0.12554231
40	0x3d9116f3	0.07084455
41	0xbe6df2c2	-0.23237136
42	0xbdefdbe5	-0.117118634
43	0x3d560956	0.052254997
44	0xbd2543a2	-0.040347703
45	0x3d16fa6e	0.036859922
46	0xbe52d526	-0.20589122
47	0xbc9d33df	-0.019189773
48	0x3df6ed55	0.12056986
49	0xbd3a30ed	-0.045456816
50	0xbd388cf3	-0.045056295
51	0xbe16309c	-0.1466698
52	0x3e078fd3	0.13238458
53	0xbd2d9b84	-0.04238464
54	0xbc06c748	-0.008226223
55	0xbc98fa21	-0.018673958
56	0x3e5939f9	0.21213521
57	0xbe0a3bef	-0.13499425
58	0xbd84b69c	-0.064801425
59	0xbd9191c7	-0.07107883
60	0x3e28cab9	0.16483583
61	0x3d2c8629	0.042120133
62	0x3b8fe476	0.0043912483
63	0x3df2dcab	0.11858495
64	0xbe003c49	-0.12522997
65	0x3de317fb	0.11088558
66	0xbe71335f	-0.23554753
67	0xbd523e1b	-0.05132876
68	0xbc9a9d13	-0.018873727
69	0x3e08b3f7	0.13349901
70	0x3e664e03	0.22490697
71	0xbe029370	-0.12751555
72	0x3e35df39	0.17760934
73	0x3dd0d53d	0.10196922
74	0xbe5fa331	-0.21839596
75	0x3cac1fc0	0.021011233
76	0xbe26b54e	-0.162801
77	0x3d70d262	0.058794387
78	0xba4f2116	-0.00079013535
79	0xbe318ca6	-0.1733881
80	0xbcdcb049	-0.026939528
81	0x3c7ce4b9	0.015435391
82	0xbe12573d	-0.14291091
83	0x3e18fff4	0.14941388
84	0xbdd395d5	-0.103313126
85	0x3e1682b3	0.14698295
86	0x3e60f4dd	0.21968408
87	0x3e0983bf	0.13429163
88	0x3d4143ac	0.047183678
89	0xbcb16a1b	-0.02165704
90	0xbd0b2955	-0.033974964
91	0xbe3aca1d	-0.18241163
92	0xbb464da2	-0.0030258675
93	0x3e02654c	0.12733954
94	0xbda3ff48	-0.080076754
95	0x3b932056	0.0044899387
96	0xbd61fafe	-0.055171005
97	0x3ce99f8d	0.028518463
98	0xbde09a1c	-0.10966894
99	0x3e8d7c7e	0.27634043
100	0x3da46dfd	0.08028791
101	0xbe510489	-0.20411886
102	0x3e1efe67	0.15526734
103	0x3e3206e6	0.17385444
104	0x3d85652e	0.06513439
105	0x3d82e859	0.06391973
106	0x3d87515f	0.06607317
107	0xbda24eb9	-0.079251714
108	0xbe0e6ab2	-0.13907889
109	0x3ce27885	0.027645359
110	0x3d58d132	0.05293388
111	0x3d253d52	0.040341683
112	0xbe0392d2	-0.12848976
113	0x3dd1139a	0.10208817
114	0x3e5f8e79	0.21831693
115	0x3ddc00f6	0.10742371
116	0x3e411a0e	0.18857595
117	0xbe36768e	-0.17818663
118	0xbcd5a272	-0.026078437
119	0x3962a4a2	0.0002161437
120	0x3d90a74f	0.070631616
121	0x3e21e20d	0.15808888
122	0x3e018d26	0.126515
123	0x3e01991b	0.12656061
124	0xbd49746a	-0.049183287
125	0xbdbc3b6b	-0.091910206
126	0x3d2f52ca	0.042803563
127	0x3dea9ac4	0.114553005

net.1.weight f4 [128, 128]
0	0xbd45ac3e	-0.048259966
1	0x3c04655d	0.0080808075
2	0xbe22fedb	-0.15917532
3	0x3dd2165d	0.10258172
4	0x3cbb2596	0.02284507
5	0x3e16dab3	0.14731865
6	0x3c8e0c12	0.01733974
7	0xbe0f0a19	-0.13968696
8	0x3e27eace	0.16398165
9	0xbd8ed71e	-0.06974624
10	0x3df4d19a	0.11954041
11	0xbdbc84f1	-0.09205044
12	0x3ddfa71b	0.10920545
13	0x3e217199	0.1576599
14	0xbcb89493	-0.022531783
15	0x3db93d52	0.09044899
16	0x3dbdd846	0.092697665
17	0x3b7a70ee	0.0038214284
18	0x3c81c234	0.015839674
19	0x3e489447	0.19587813
20	0xbd0f3199	-0.03495941
21	0x3e075929	0.13217606
22	0xbe06d321	-0.13166477
23	0xbc0ac333	-0.008469391
24	0xbd8acaec	-0.067769855
25	0xbdcfe3f4	-0.101509005
26	0xbd870b3c	-0.0659394
27	0x3dade532	0.08490981
28	0x3d375ddf	0.044767257
29	0x3d69c305	0.05707075
30	0xbe05778e	-0.13033888
31	0x3b2e7f77	0.0026626268
32	0xbaefad82	-0.0018285962
33	0xbdffbb17	-0.124868564
34	0x3de21d6f	0.1104077
35	0x3cb6517f	0.022255657
36	0xbd84ca82	-0.06483938
37	0x3d161092	0.036636896
38	0xbd6d8dcd	-0.05799656
39	0x3db98a6d	0.09059606
40	0xbdb28b1b	-0.087179385
41	0x3c6836de	0.014173238
42	0x3d63dbde	0.055629604
43	0xbd95b1e7	-0.07309323
44	0x3de5f76b	0.11228832
45	0xbcf5356f	-0.029932706
46	0xbd9fa385	-0.07794861
47	0xbde07a76	-0.109608576
48	0xbd6d5916	-0.057946287
49	0xbe21f10c	-0.15814608
50	0x3e26ee2f	0.16301797
51	0x3cfae878	0.030628428
52	0x3df17814	0.11790481
53	0x3e244fc8	0.16046059
54	0xbce78b81	-0.028264763
55	0xbe25eb55	-0.16203053
56	0xbe2dd1aa	-0.16974512
57	0x3d3d8b09	0.046275172
58	0x3e1762c0	0.14783764
59	0xbd8336dc	-0.06406948
60	0xbdba3a5a	-0.09093161
61	0xbe5d2a76	-0.21598229
62	0xbe178420	-0.14796495
63	0x3df1e14e	0.118105516
64	0x3dfcecc9	0.12349851
65	0x3db830e2	0.08993699
66	0x3e8f9142	0.2804051
67	0x3dc31716	0.09525888
68	0x3e1d42ee	0.15357563
69	0x3d3a72f8	0.0455198
70	0xbd862f24	-0.0655196
71	0x3da7086f	0.081559055
72	0x3cc670e2	0.024223749
73	0x3e3a24e8	0.18178141
74	0xbd776fa4	-0.060409203
75	0x3dccef9e	0.10006641
76	0x3d0851bb	0.03328107
77	0x3dd88510	0.10572255
78	0x3e41fbc0	0.18943691
79	0x3d7a164a	0.061056413
80	0xbdec911c	-0.11551115
81	0x3e1017b8	0.14071548
82	0x3d0e07e3	0.03467549
83	0xbccb6b02	-0.024831299
84	0xbe0c10ad	-0.13678236
85	0x3dc96953	0.09834542
86	0x3cb70412	0.022340808
87	0x3e5f6b9f	0.21818398
88	0x3dce2803	0.100662254
89	0x3c05198e	0.0081237685
90	0x3e6aefd0	0.22943044
91	0xbdec1e3a	-0.11529203
92	0xbdd2b751	-0.10288871
93	0x3d0bb4b0	0.034107864
94	0xbbef53e0	-0.0073037
95	0xbe46725d	-0.19379564
96	0x3c347f7f	0.011016726
97	0xbd372964	-0.044717208
98	0x3be78f36	0.0070666326
99	0xbdec07f4	-0.115249544
100	0x3c698805	0.014253621
101	0xbd47c927	-0.04877582
102	0xbe359b8a	-0.17735115
103	0xbd95ac9f	-0.073083155
104	0x3dcff3f1	0.1015395
105	0x3cbc3f5d	0.022979433
106	0xbd6677ba	-0.056266524
107	0xbdde84b0	-0.10865152
108	0x3d209ab5	0.03921004
109	0xbe04ab9e	-0.12956092
110	0x3dc218fb	0.09477421
111	0x3e68bcf6	0.22728333
112	0xbe42a5af	-0.19008516
113	0xbd740fdc	-0.059585437
114	0x3df6b33c	0.12045905
115	0xbd16c81b	-0.03681193
116	0x3dc7c4d1	0.097543366
117	0x3b8a2193	0.004215428
118	0xbc34dee8	-0.011039473
119	0x3d896143	0.06708004
120	0xbd1c0f8f	-0.038100775
121	0xbd8af7c5	-0.067855395
122	0xbe26c5e3	-0.16286425
123	0x3cd1e155	0.025620142
124	0x3d40e15c	0.04708992
125	0xbd56e840	-0.052467585
126	0x3e0f2bf3	0.13981609
127	0x3e4145fa	0.1887435
128	0x3d4bdc1d	0.049770463
129	0x3d4753b4	0.04866381
130	0xbd60dcf5	-0.05489822
131	0x3d3edc28	0.046596676
132	0x3e19aab6	0.15006527
133	0x3d32ef3a	0.043685175
134	0xbd90251e	-0.070383295
135	0x3cb2ce35	0.021826843
136	0x3cf76514	0.030199565
137	0x3e16d851	0.14730956
138	0x3da49663	0.080364965
139	0xbe01ad84	-0.12663847
140	0xbd9b9174	-0.07596102
141	0xbe3b0c67	-0.1826645
142	0x3d61125c	0.05494915
143	0x3bf741ac	0.0075456705
144	0x3b089871	0.0020842815
145	0xbd80b741	-0.06284953
146	0x3e03d78c	0.12875193
147	0xbdbcc6f2	-0.09217633
148	0xbd98dd1b	-0.074640475
149	0xba1c49ae	-0.0005961907
150	0x3daa234d	0.08307514
151	0x3e150486	0.14552507
152	0x3dc91bfc	0.09819791
153	0x3de66c5e	0.11251138
154	0xbdc4e89a	-0.09614678
155	0xbc133b0f	-0.008986249
156	0x3c56bf3a	0.013107115
157	0xbd2e95d6	-0.042623363
158	0x3d3b4254	0.045717552
159	0x3ca1f879	0.019771801
160	0xbd5b2a3e	-0.053507082
161	0x3dad2d5f	0.084559195
162	0xbd252c25	-0.040325303
163	0x3dcfcd34	0.10146561
164	0x3d711288	0.058855563
165	0x3dac9036	0.084259436
166	0xbd53e131	-0.05172843
167	0x3d5c13c2	0.05372978
168	0xbce1fd65	-0.027586648
169	0x3d634759	0.055487964
170	0xbc0f9047	-0.008762426
171	0x3d1c24ef	0.03812116
172	0xbdd12187	-0.10211473
173	0xbd90e02a	-0.07074006
174	0x3d92a50c	0.071603864
175	0xbd02438b	-0.031802695
176	0x3e5b4a6a	0.21415105
177	0x3d92aa92	0.0716144
178	0xbc9cd9f5	-0.019146899
179	0xbd83f15c	-0.0644252
180	0x3dadf491	0.08493913
181	0x3c863fea	0.016387898
182	0xbd099659	-0.03359065
183	0x3d6d8c40	0.05799508
184	0x3c696c84	0.014247064
185	0x3d9d0c7e	0.07668398
186	0xbd9e9b47	-0.077444606
187	0x3be74529	0.007057805
188	0x3d21dbff	0.039516445
189	0x3d94f07e	0.07272433
190	0x3e09310f	0.1339762
191	0xbbf2a9f9	-0.007405516
192	0xbaaca5a9	-0.0013171929
193	0x3e2b08bd	0.16702552
194	0xbe06f083	-0.13177685
195	0xbdf8ff5c	-0.12158081
196	0xbd22a73d	-0.039710272
197	0xbd0a20e5	-0.033722777
198	0xbd9ee32b	-0.077581726
199	0xbd7a2f92	-0.061080523
200	0xbd13c590	-0.036077082
201	0xbc7e7fbf	-0.015533387
202	0x3d3d2a85	0.046183128
203	0xbdc0f3e7	-0.09421521
204	0xbe22ae7a	-0.1588687
205	0xbcd93df1	-0.026518794
206	0x3c22d786	0.00993908
207	0xbd80fa05	-0.062976874
208	0xbd8e668b	-0.06953152
209	0xbbcc2dac	-0.0062310304
210	0xbd2229f9	-0.03959081
211	0x3d74ebc9	0.059795175
212	0xbe2c1f10	-0.16808724
213	0x3d9100ab	0.070802055
214	0x3cc5f91b	0.024166634
215	0xbd479580	-0.04872656
216	0x3d3d3008	0.046188384
217	0xbe0994e9	-0.13435711
218	0x3d277b2d	0.040888954
219	0xbd72e2c7	-0.059298303
220	0x3d0eb06b	0.034836214
221	0xbc82f344	-0.015985139
222	0x3e7a8018	0.24462926
223	0xbc75b418	-0.014996551
224	0xbdcf462c	-0.10120806
225	0x3d10bdf8	0.03533742
226	0xbde7914e	-0.113070115
227	0x3db6e40a	0.08930214
228	0x3c547ec9	0.012969681
229	0x3caa981a	0.02082448
230	0x3d9f5023	0.07778957
231	0x3d01f618	0.031728834
232	0x3d90fef6	0.0707988
233	0x3b229022	0.0024805148
234	0xbd414a11	-0.047189776
235	0xbdf645a5	-0.120250024
236	0xbdea74bb	-0.11448046
237	0x3d8c4ef8	0.068509996
238	0x3d0eb1c7	0.03483751
239	0xbd9a9290	-0.07547486
240	0x3cd92ecb	0.02651157
241	0xbd05848e	-0.032597117
242	0x3dcf29b7	0.10115378
243	0xbc349a76	-0.0110231545
244	0xbdd6614e	-0.10467778
245	0x3d92c96d	0.07167325
246	0xbe1a4b4f	-0.1506779
247	0x3b1d0177	0.0023957172
248	0xbd782c0d	-0.060588885
249	0x3d133346	0.03593757
250	0xbd923889	-0.071396895
251	0x3d0d6a56	0.034525238
252	0x3bf10ff4	0.007356638
253	0x3dbdf024	0.09274319
254	0xba10c8cd	-0.0005523086
255	0xbd945be2	-0.07244088

net.1.bias f4 [128]
0	0x3d391b5e	0.045192115
1	0x3dafc9d1	0.08583415
2	0x3de69211	0.11258329
3	0xbd268fa5	-0.040664334
4	0x3c359014	0.011081714
5	0xbe084571	-0.1330774
6	0xbd5f14f5	-0.054463346
7	0x3d520ec0	0.051283598
8	0x3de613c7	0.11234241
9	0x3ce67bf5	0.02813528
10	0xbdc306de	-0.09522794
11	0xbe03c50f	-0.1286814
12	0x3ca20eb6	0.019782405
13	0x3de22142	0.110415
14	0x3b94b267	0.004537869
15	0xbd074f4b	-0.033034604
16	0xbdbc837e	-0.09204768
17	0xbdb11213	-0.086460255
18	0x3e220a7f	0.15824316
19	0x3d68807d	0.05676316
20	0xbe3b1b6a	-0.18272176
21	0xbdbd9a41	-0.09257937
22	0x3dd310ad	0.10305915
23	0x3da347e5	0.07972697
24	0xbdc0a3b4	-0.09406224
25	0xbd21504c	-0.039383218
26	0xbd7809e2	-0.0605563
27	0x3cb064a2	0.02153236
28	0xbd3666cd	-0.044531632
29	0x3c141ebd	0.009040532
30	0xbc0172df	-0.007900923
31	0xbdc2d57e	-0.09513377
32	0xbd15000d	-0.036377
33	0xbb9047c8	-0.0044030882
34	0xbdc57be8	-0.09642774
35	0x3e210616	0.15724978
36	0xbe189f42	-0.14904502
37	0x3e024e09	0.1272508
38	0xbdb60d02	-0.088892
39	0x3da7471a	0.081678584
40	0x3e0d3fbc	0.13793844
41	0x3cd6df50	0.02622953
42	0xbdbb3d62	-0.09142567
43	0xbd7c7752	-0.06163723
44	0x3ceb87a3	0.0287512
45	0xbdbc8fca	-0.09207113
46	0xbddaab72	-0.10677232
47	0xbd08aeef	-0.033369955
48	0xbdf947db	-0.121719085
49	0xbdff6d3f	-0.12472009
50	0xbc949c7d	-0.018141026
51	0x3b7bfc15	0.0038449813
52	0x3dccfb84	0.1000891
53	0x3c9d0b26	0.019170355
54	0xbd8fa0f0	-0.07013118
55	0xbd8f30d4	-0.06991735
56	0xbcd14d57	-0.025549574
57	0xbdb30e86	-0.087430045
58	0xbc1ece3c	-0.009692725
59	0xbcaaf451	-0.020868452
60	0xbd7bc4e3	-0.061467063
61	0x3d9650a8	0.07339603
62	0xba924015	-0.0011158014
63	0xbdb04372	-0.08606614
64	0x3df0dbdd	0.117606856
65	0x3e48c092	0.1960471
66	0x3d5fa5b4	0.054601386
67	0x3ba8eeb7	0.00515541
68	0xbcede94d	-0.02904191
69	0x3d13adf7	0.036054578
70	0xbd89f4d1	-0.06736148
71	0x3cadb847	0.021206034
72	0xbd25e455	-0.040500958
73	0xbd2ae1f3	-0.04171939
74	0xbdd198aa	-0.102341965
75	0xbe0b6797	-0.13613735
76	0x3e32d19b	0.1746277
77	0xbc1c5e63	-0.009543988
78	0xbe121be1	-0.14268447
79	0xbdb12201	-0.08649064
80	0xbd06d19c	-0.032914743
81	0xbd3e2f80	-0.04643202
82	0xbc2d5e0f	-0.010581507
83	0xbd8bf868	-0.06834489
84	0xbd1ce892	-0.038307734
85	0x3d14ce4b	0.03632955
86	0xbdc5746f	-0.096413486
87	0xbe0dde11	-0.13854243
88	0xbdf579a4	-0.11986092
89	0xbe1f8ba9	-0.1558062
90	0xbdd6d7ac	-0.10490355
91	0xbd626e95	-0.05528124
92	0xbce7403a	-0.028228868
93	0xbda1b78c	-0.07896337
94	0xbdbb7a05	-0.09154133
95	0xbd7c487e	-0.06159257
96	0xbd88a524	-0.06672123
97	0xbd3ff7b3	-0.046867084
98	0x3c9815d2	0.018565092
99	0x3dbb3ee1	0.091428526
100	0xbddd258b	-0.107981764
101	0x3dcc4d14	0.09975639
102	0xbd71d139	-0.05903742
103	0xbde4c47f	-0.11170291
104	0xbc0ce799	-0.008600139
105	0x3d93aa05	0.07210163
106	0xbc87fa93	-0.016598975
107	0xbdd40501	-0.10352517
108	0xbd510584	-0.05103065
109	0xbd33cc41	-0.043895964
110	0x3e0e475a	0.13894406
111	0x3d775dd7	0.060392227
112	0x3de4102a	0.111358956
113	0xbdf13671	-0.11777962
114	0x3dc7a6aa	0.097485855
115	0x3d0f1c87	0.034939315
116	0x3d2f353a	0.04277537
117	0x3da95e0e	0.08269893
118	0xbd3838d4	-0.04497607
119	0xbdae43db	-0.08509036
120	0x3de038d5	0.1094834
121	0xbd8b635e	-0.06806062
122	0x3d821d17	0.06353205
123	0xbd47802a	-0.04870621
124	0x3cb5b870	0.022182673
125	0xbdecd18a	-0.11563404
126	0x3e210166	0.1572319
127	0x3da6d9ca	0.08147009

net.3.weight f4 [128, 128]
0	0xbe0186b9	-0.12649049
1	0x3cf1f2a2	0.029534642
2	0xbd12edad	-0.035871197
3	0x3eb690d0	0.35657358
4	0x3d443092	0.047897883
5	0x3e1d3237	0.15351187
6	0x3eabbd10	0.3354268
7	0x3e19b152	0.15009049
8	0xbd32802b	-0.04357926
9	0xbd99f862	-0.075180784
10	0x3d0508f3	0.032479238
11	0xbd8fadbf	-0.07015561
12	0x3e530d12	0.20610455
13	0xbb64498f	-0.0034833883
14	0x3d000ae8	0.0312604
15	0xbe524c81	-0.20536996
16	0xbe5f0096	-0.21777567
17	0x3ddabeec	0.10680947
18	0x3cc47642	0.023982171
19	0x3cabb25a	0.020959068
20	0x3e2c7e2a	0.16845003
21	0xbdcd34ea	-0.10019858
22	0xbc154f0f	-0.009113087
23	0x3d9ab151	0.07553352
24	0x3e9f7f57	0.3115184
25	0xbddc4935	-0.10756151
26	0x3dd1b6ea	0.10239966
27	0xbda4ce9c	-0.0804722
28	0xbd456d12	-0.04819972
29	0x3e260641	0.16213323
30	0x3e92a54e	0.28641742
31	0x3d174506	0.03693106
32	0x3e4a2020	0.19738817
33	0xbcda8301	-0.026673796
34	0x3f2ef5af	0.68343633
35	0x3d478a51	0.048715893
36	0xbcb129a6	-0.021626305
37	0xbd3485fb	-0.044073086
38	0x3d0cd1d2	0.034379788
39	0xbdbed59f	-0.09318089
40	0xbb305c63	-0.0026910536
41	0x3dde9560	0.10868335
42	0xbe1234cb	-0.14277951
43	0x3d72520e	0.059160285
44	0xbd2744f3	-0.04083724
45	0xbe5a8ae1	-0.2134204
46	0x3d2762b9	0.040865634
47	0x3df44d78	0.119288385
48	0x3eabf3ed	0.33584538
49	0x3e685b06	0.22690973
50	0xbcc336fe	-0.023829933
51	0x3dd01561	0.10160328
52	0xbdcf84d1	-0.101327546
53	0x3d49fed8	0.049315304
54	0xbb8496c5	-0.0040462934
55	0x3e3ecaec	0.18632096
56	0x3d468de7	0.048475172
57	0x3e602f1f	0.21892975
58	0xbd80c924	-0.062883645
59	0xbdbf0727	-0.09327536
60	0x3d6266d2	0.05527384
61	0xbd6b1f66	-0.05740299
62	0x3da22577	0.07917302
63	0xbd292879	-0.041298363
64	0x3a826e9c	0.0009951177
65	0xbcf1d47c	-0.029520266
66	0x3dc73e04	0.097286254
67	0x3f04477e	0.5167159
68	0x3e03f7d9	0.12887515
69	0x3e0b5749	0.13607515
70	0x3e8a6bf9	0.27035502
71	0x3df0880e	0.117447
72	0x3e4f3704	0.2023583
73	0x3c18df0f	0.009330525
74	0x3ea6c6e6	0.32573622
75	0x3dbb23dc	0.09137699
76	0xbc2ca180	-0.0105365515
77	0x3e099430	0.13435435
78	0xbc514f28	-0.01277522
79	0x3d946fe3	0.07247903
80	0x3cd9289f	0.026508627
81	0x3e903d33	0.2817169
82	0x3e83f3bd	0.25771895
83	0xbda0f85a	-0.07859869
84	0x3e1b63c9	0.15174784
85	0x3e30f977	0.17282663
86	0x3ca8ad04	0.020590313
87	0x3e4a33eb	0.19746368
88	0xbe1d832e	-0.15382072
89	0x3eccb712	0.39983422
90	0xbd7ba40e	-0.06143575
91	0x3d33edc4	0.043927923
92	0x3eb13265	0.3460876
93	0xbb4d4b11	-0.003132526
94	0x3e151740	0.1455965
95	0x3c1fe5f8	0.009759419
96	0xbc487054	-0.012233812
97	0xbe401c36	-0.18760762
98	0x3e7de321	0.24793674
99	0x3cac4f3b	0.021033874
100	0xbe36fac5	-0.17869098
101	0xbd922ed2	-0.071378365
102	0xbe67ae83	-0.22625165
103	0xbe1214f3	-0.14265804
104	0x3d13b8d6	0.036064945
105	0xbd422e28	-0.0474073
106	0x3ed73c44	0.42038167
107	0x3e75fbf0	0.24021888
108	0x3e3f369e	0.18673179
109	0x3e91b585	0.284588
110	0x3d46d8c7	0.04854658
111	0x3c1f3160	0.009716362
112	0xbd803e28	-0.06261855
113	0x3e7ac1c0	0.24487972
114	0xbd42647d	-0.047459114
115	0x3ec00ecc	0.3751129
116	0x3c3f2368	0.011666156
117	0xbd250d5a	-0.040295936
118	0x3d9c2fe5	0.07626323
119	0x3d5e769c	0.054312333
120	0xbcf782f2	-0.030213807
121	0x3d590af8	0.052988976
122	0xbc9b1792	-0.018932138
123	0x3ea22a9a	0.31673127
124	0x3e8a10c5	0.2696592
125	0x3ec3e3d4	0.38259757
126	0x3d5d30ee	0.05400174
127	0x3c93cefc	0.018043034
128	0xbdfb6e95	-0.12276951
129	0xbdaf594b	-0.08561953
130	0x3c9c54c3	0.019083386
131	0x3e8d3fe1	0.27587798
132	0xbd5c26e0	-0.05374801
133	0x3ed3c2c7	0.4135954
134	0x3e624092	0.22094944
135	0x3d982eb0	0.0743078
136	0xbce943a4	-0.028474636
137	0xbe075f11	-0.13219859
138	0xbd15dd7e	-0.036588185
139	0xbe73e9ee	-0.23819706
140	0x3e12c432	0.14332655
141	0x3d82f1db	0.063937865
142	0xbd09ad8f	-0.033612784
143	0xbe50a166	-0.20374069
144	0x3cbe4b43	0.023229247
145	0x3e50a204	0.20374304
146	0xbc8aa790	-0.016925603
147	0x3d9ff3a3	0.07810142
148	0x3e27952d	0.163655
149	0x3d4a3daf	0.049375232
150	0x3d399626	0.04530921
151	0xbdd963b6	-0.106147215
152	0x3ea2f27b	0.31825623
153	0xbe21de40	-0.15807438
154	0x3eace44d	0.3376793
155	0x3da25f85	0.07928375
156	0xbe302d08	-0.17204678
157	0x3e4e5eac	0.20153302
158	0x3d5676bb	0.052359324
159	0x3d9bf688	0.076153815
160	0xbd8aca2e	-0.06776844
161	0x3c6d0bfa	0.0144681875
162	0x3e148e32	0.14507368
163	0x3d6880de	0.056763522
164	0x3d5637c3	0.052299272
165	0xbcd6f2cb	-0.02623882
166	0x3b68f172	0.0035544303
167	0xbda3d80f	-0.08000194
168	0xbde1992a	-0.11015542
169	0x3e26b359	0.16279353
170	0x3db87fca	0.09008749
171	0x3cc70d77	0.024298413
172	0xbcc5a357	-0.024125738
173	0x3e112a6a	0.14176336
174	0x3e886458	0.26639056
175	0x3e3a571b	0.1819729
176	0x3eceb436	0.40371865
177	0x3e6c2513	0.23061018
178	0xbe59735b	-0.21235411
179	0x3cf75819	0.030193375
180	0x3cf7d795	0.030254165
181	0x3e349263	0.17633967
182	0x3d8499d2	0.064746514
183	0x3dc9acdd	0.09847424
184	0xbd5ee727	-0.054419663
185	0x3e864b6f	0.26229426
186	0xbd1b3b06	-0.037898086
187	0xbd8549ad	-0.06508193
188	0x3d14b9df	0.036310073
189	0x3dabea69	0.083943196
190	0x3dd5aec6	0.10433726
191	0xbd5cdd10	-0.05392176
192	0xbc88647b	-0.016649475
193	0xbd9b0b72	-0.075705424
194	0x3ddd9268	0.108189404
195	0x3df21ce6	0.11821918
196	0x3e4fef2c	0.2030608
197	0xbd0d24d2	-0.034458943
198	0x3e2bc488	0.1677419
199	0x3ef87e39	0.485338
200	0x3e26011e	0.16211364
201	0xbd043a13	-0.032281946
202	0x3d8f45ed	0.06995759
203	0x3e9b511f	0.30335328
204	0xbc59050a	-0.01324583
205	0x3cab15a7	0.020884348
206	0x3e536937	0.20645605
207	0xbe802096	-0.2502486
208	0xbde47bfc	-0.11156461
209	0x3ede9973	0.43476447
210	0x3e5ec050	0.21753049
211	0x3e44c77c	0.19216722
212	0x3e744f53	0.23858385
213	0xbd32b0e6	-0.043625735
214	0x3daccfe6	0.08438091
215	0x3c6425d9	0.013925039
216	0x3dab3f23	0.08361652
217	0x3ce43209	0.02785589
218	0x3df6ac58	0.12044591
219	0x3c28cfeb	0.010303478
220	0x3e2b4f9e	0.1672959
221	0x3c5800b8	0.013183765
222	0x3e23d5e7	0.15999566
223	0xbdbbe689	-0.091748305
224	0xbd59e666	-0.05319824
225	0xbd96c100	-0.073610306
226	0x3e65ff63	0.22460704
227	0xbce87c49	-0.028379576
228	0xbe4f5555	-0.20247395
229	0xbdf25bfb	-0.1183395
230	0xbcd5eaf9	-0.02611302
231	0xbba19921	-0.0049315845
232	0x3d58db56	0.05294355
233	0x3bf974d7	0.0076128053
234	0x3f0d2f4d	0.551503
235	0x3c6b7c43	0.014372888
236	0x3d9fd4a4	0.0780423
237	0x3c4e2c43	0.012583795
238	0xbc681816	-0.014165899
239	0x3da172a6	0.078831956
240	0xbc4bba8f	-0.012434616
241	0x3e6b6d26	0.22990856
242	0xbaae78fd	-0.0013311204
243	0x3e8e5e94	0.27806532
244	0xbdc750e8	-0.097322285
245	0xbe323c25	-0.17405756
246	0x3e149be7	0.14512597
247	0xbe83d6b4	-0.25749743
248	0xbd985a32	-0.074390784
249	0xbd568c9e	-0.052380197
250	0xbd2da7ec	-0.04239647
251	0x3e8c7ebe	0.27440447
252	0x3da5a225	0.08087567
253	0x3e6381a3	0.22217421
254	0x3c0e613a	0.008690173
255	0x3e0f3c4e	0.13987848

net.3.bias f4 [128]
0	0x3b4c957c	0.003121703
1	0x3d2e0484	0.042484775
2	0xbdbb0763	-0.09132268
3	0xbdfdb3f5	-0.1238784
4	0x3e635598	0.2220062
5	0xbdb14371	-0.086554416
6	0xbe039ee0	-0.12853575
7	0xbd82b940	-0.0638299
8	0xbd5b4e81	-0.053541664
9	0x3d7ad158	0.061234802
10	0x3bf49998	0.007464599
11	0xbe1da92a	-0.15396562
12	0xbdf3995e	-0.11894487
13	0x3b9d0b08	0.004792575
14	0xbd10e948	-0.035378724
15	0xbdd57f17	-0.10424631
16	0x3cc70afe	0.024297234
17	0xbe26f693	-0.16304998
18	0x3e5b6186	0.21423921
19	0xbd36fcfc	-0.04467486
20	0x3e4ad22f	0.19806741
21	0xbd20690f	-0.03916269
22	0x3d66ab47	0.056315687
23	0xbdd0baaa	-0.10191853
24	0x3d27efd9	0.04100022
25	0xbcbba44d	-0.022905493
26	0xbc2000a1	-0.009765775
27	0x3d39f34a	0.045398034
28	0xbde4c330	-0.111700416
29	0x3dac0b2c	0.08400568
30	0x3d9caaee	0.0764979
31	0xbe15f07c	-0.14642519
32	0x3ce881f8	0.028382286
33	0x3e46889f	0.19388054
34	0xbcc6d3b8	-0.024270877
35	0xbb61bb9a	-0.0034444095
36	0xbe3da4ff	-0.18519972
37	0xbe0da396	-0.13831934
38	0x3cda6792	0.026660714
39	0x3d89d743	0.06730511
40	0xbe264740	-0.16238117
41	0xbcf12c5e	-0.029440101
42	0x3d7473e7	0.059680846
43	0xbe2fe799	-0.17178191
44	0xbd83ed6a	-0.064417675
45	0x3d736442	0.059421785
46	0x3d9c3496	0.076272175
47	0xbe1e17a4	-0.15438706
48	0xbe5427c5	-0.20718296
49	0xbdb83020	-0.08993554
50	0x3dbefb58	0.09325284
51	0xbce19054	-0.027534641
52	0x3d888ed4	0.06667867
53	0x3c03e35b	0.008049811
54	0xbe251da6	-0.16124591
55	0xbe11787e	-0.1420612
56	0xbca44c77	-0.020055993
57	0x3e083c2d	0.13304205
58	0xbd4c8bf4	-0.049938157
59	0x3df5dde0	0.1200521
60	0x3e16aed8	0.14715135
61	0x3d0268ae	0.03183811
62	0x3bf83efd	0.007575868
63	0xbd3da472	-0.046299405
64	0xbe1d7edd	-0.15380426
65	0x3e4e2d54	0.20134479
66	0xbdbbeacc	-0.09175643
67	0x3e07a042	0.13244727
68	0xbc517b18	-0.0127856955
69	0x3df69465	0.12040023
70	0xbd89ccc8	-0.06728512
71	0x3d11bf8c	0.035583064
72	0xbe021a39	-0.12705316
73	0xbc09879f	-0.008394151
74	0x3e4b1311	0.19831492
75	0xbd917b0c	-0.071035475
76	0xbdf4f424	-0.11960629
77	0x3d67ccc8	0.05659178
78	0xbd8e56c2	-0.069501415
79	0x3e07a8b8	0.13247955
80	0x3e390e5a	0.18071881
81	0x3d1ebf20	0.03875649
82	0x3c9c9d9d	0.019118125
83	0x3e212645	0.15737255
84	0xbdbbe617	-0.091747455
85	0xbe20bd0e	-0.15697119
86	0xbd8387f7	-0.064224176
87	0x3e3d19a6	0.18466815
88	0xbd5c8b18	-0.053843588
89	0xbd9ead8b	-0.077479444
90	0x3e66f57e	0.22554585
91	0x3ca00577	0.019533856
92	0xbdeedd5f	-0.11663317
93	0x3de62d65	0.11239127
94	0xbd94df08	-0.07269102
95	0x3e79dad5	0.24399884
96	0xbd8ab6ed	-0.067731716
97	0xbe18c5f5	-0.14919265
98	0x3cde808a	0.027160902
99	0x3e2aca76	0.16678795
100	0x3d8f86bf	0.07008123
101	0xbda07005	-0.07833866
102	0xbd897432	-0.067116156
103	0xbdeb724e	-0.11496411
104	0x3d38027f	0.044924255
105	0x3dde32bb	0.1084952
106	0x3cb9f9d8	0.022702143
107	0x3d99e71c	0.07514784
108	0x3df1ea83	0.11812308
109	0x3de71a5d	0.11284325
110	0xbde745f4	-0.112926394
111	0xbe12a44d	-0.14320488
112	0x3e02d805	0.12777717
113	0xbe42b56a	-0.19014516
114	0x3e2393f3	0.15974407
115	0x3bb3742d	0.0054764957
116	0x3df78474	0.1208581
117	0x3e33799b	0.17526858
118	0xbe0e3c67	-0.13890229
119	0xbe363f01	-0.17797472
120	0x3e0c2cbb	0.13688938
121	0x3ddaf754	0.10691705
122	0xbcc82958	-0.024433777
123	0x3e0a42fb	0.13502114
124	0xbd77f791	-0.060538832
125	0x3e6ce27d	0.23133273
126	0xbe59b599	-0.2126068
127	0xbe0731d4	-0.13202602

net.5.weight f4 [128, 128]
0	0xbdea9cf2	-0.11455716
1	0xbddfdce2	-0.10930802
2	0xbc0a5b8f	-0.008444681
3	0xbc9b6865	-0.018970678
4	0xbdaa23d5	-0.08307616
5	0x3d4fd79c	0.05074273
6	0x3bbd6400	0.005779743
7	0xbdbde52e	-0.09272228
8	0xbaa51b1a	-0.0012596578
9	0xbd3e02b5	-0.0463893
10	0xbd900be5	-0.07033519
11	0x3ca858db	0.020550182
12	0xbd7c1ef0	-0.06155294
13	0x3c861d20	0.01637131
14	0x3d99340f	0.074806325
15	0xbd9c7ada	-0.076406196
16	0x3d14893e	0.036263697
17	0xbd810f93	-0.06301799
18	0xbd811102	-0.06302072
19	0x3d5f8f1c	0.05457984
20	0xbc31f514	-0.010861654
21	0x3d561745	0.052268285
22	0x3b85b733	0.004080677
23	0x3dadcf0d	0.084867574
24	0x3d8fe11f	0.0702536
25	0x3da1c3fc	0.07898709
26	0xbd373ed0	-0.044737637
27	0x3d585b03	0.05282117
28	0xbd6fdb21	-0.058558587
29	0x3c1b37b0	0.009473726
30	0xbd6b0aac	-0.057383224
31	0x3d3b52f2	0.0457334
32	0xbb721feb	-0.0036945294
33	0xbc6a442a	-0.014298478
34	0xbd5460e7	-0.051850226
35	0xbd33d67c	-0.04390572
36	0x3d6c99a8	0.057763726
37	0xbd5b8fe8	-0.053604037
38	0xbc113e5f	-0.008864968
39	0x3d256976	0.04038378
40	0xbdd35d56	-0.10320537
41	0x3d130a37	0.035898414
42	0xbcc52387	-0.024064792
43	0xbdabb216	-0.083835766
44	0xbd1e212b	-0.03860585
45	0x3d474810	0.04865271
46	0x3c214bc9	0.009844729
47	0x3d6f857d	0.058476914
48	0xbdaf15ed	-0.08549104
49	0x3c0d7731	0.0086343745
50	0xbd9714e9	-0.07377035
51	0xbd03aa5e	-0.032144897
52	0xbd340888	-0.04395345
53	0xbd984021	-0.074341066
54	0x3cabc07d	0.020965809
55	0x3d5f7d47	0.054562833
56	0x3cc32914	0.023823299
57	0x3d1e0060	0.038574576
58	0xbd7ed729	-0.06221691
59	0xbcd2a23a	-0.025712121
60	0xbdb180b4	-0.08667126
61	0x3d273488	0.040821582
62	0x3d09665d	0.033544887
63	0x3d5104b1	0.051029865
64	0x3d6aa269	0.057283793
65	0x3be8e45a	0.0071072998
66	0xbd4dd3f6	-0.05025097
67	0x3d55f7d5	0.052238304
68	0xbde319e3	-0.11088922
69	0x3d21b118	0.03947553
70	0xbcb89244	-0.022530682
71	0xbc57cebd	-0.013171849
72	0xbdb8da40	-0.09026003
73	0xbcec5501	-0.028849127
74	0xbd68ab71	-0.056804124
75	0xbc0b424a	-0.008499691
76	0xbdd2aacb	-0.102864824
77	0xbdb3a6db	-0.087720595
78	0xbda846d6	-0.08216636
79	0xbd65e54b	-0.056126874
80	0x3d192b12	0.03739459
81	0x3cb5df4a	0.0222012
82	0xbd84d844	-0.06486562
83	0xbc80be89	-0.015715854
84	0xbcbe50e5	-0.023231933
85	0x3c3a5dc8	0.011374898
86	0xbd4af3cf	-0.04954892
87	0x3d2c2afb	0.042033177
88	0xbd29acb8	-0.041424483
89	0xbdb8d110	-0.090242505
90	0xbbdd6238	-0.0067560934
91	0xbd55ba38	-0.052179545
92	0xbd82b72e	-0.06382595
93	0xbd52c575	-0.05145784
94	0xbc9d86f7	-0.019229395
95	0xbcf9c416	-0.030489009
96	0xbd204b08	-0.039134055
97	0x3d6f58bf	0.058434244
98	0xbdd0a765	-0.10188178
99	0x3c928c59	0.017889189
100	0xbda3f310	-0.08005345
101	0x3b04f21c	0.002028591
102	0xbc68be96	-0.0142055955
103	0xbd5aaf20	-0.05338967
104	0xbd9a0b52	-0.075216904
105	0xbcb10575	-0.021609047
106	0xbdc2ed52	-0.095179215
107	0x3d102196	0.03518828
108	0x3ccbf48d	0.024896884
109	0x3b142ac4	0.0022608498
110	0x3c7fc0ed	0.015609962
111	0xbcf39437	-0.02973376
112	0xbd57d636	-0.05269452
113	0xbd390a0f	-0.04517561
114	0xbd8e21b1	-0.0694002
115	0xbdae30af	-0.085053794
116	0xbbe00ac3	-0.0068372204
117	0x3c761720	0.015020162
118	0xbdb25ba3	-0.087088846
119	0x3c6ee070	0.014579877
120	0x3d8228e2	0.06355454
121	0xbbb12a3a	-0.005406645
122	0xbd8f0f69	-0.06985361
123	0xbd336803	-0.043800365
124	0x3af11064	0.0018391726
125	0xbd92d8d6	-0.071702644
126	0x3c28d114	0.010303754
127	0xb9d11713	-0.00039880778
128	0xbda56ce7	-0.08077412
129	0xbdb39d3c	-0.087702245
130	0xbda286e5	-0.07935885
131	0x3d3ec87d	0.04657792
132	0xbdb3f19f	-0.0878632
133	0xbc9a5b2b	-0.0188423
134	0x3bbe36c6	0.0058048693
135	0x3d91c83f	0.07118272
136	0xbd8b401d	-0.06799338
137	0xbd8e050d	-0.06934557
138	0xbdb879ce	-0.090076074
139	0xbcfb61c3	-0.030686265
140	0x3d76e58d	0.06027751
141	0x3d206777	0.03916117
142	0xbd9a20fd	-0.07525823
143	0xbb705afc	-0.0036675325
144	0x3d75a66e	0.059973173
145	0x3cf1d208	0.029519096
146	0xbd9e1388	-0.07718569
147	0xbd1dba98	-0.038508028
148	0x3c956925	0.018238613
149	0xbd689016	-0.056778036
150	0x3aa39d16	0.0012482728
151	0xbd8cf2b2	-0.06882228
152	0xbd473e2b	-0.048643272
153	0x3d3745fa	0.04474447
154	0x3d80d0ab	0.062898
155	0xbd00017b	-0.031251412
156	0x3d1345ec	0.035955355
157	0x3d7d4d8f	0.061841544
158	0xbd9bcb89	-0.076071806
159	0xbdab8a38	-0.083759725
160	0xbd10cb85	-0.03535034
161	0xbdb74364	-0.089484006
162	0x3d321a38	0.043482035
163	0x3d479824	0.048729077
164	0xbc77282e	-0.015085263
165	0xbdbcc372	-0.09216966
166	0x3d142501	0.036168102
167	0x3bc76773	0.00608533
168	0xbc2fecdb	-0.010737623
169	0xbcf93e79	-0.030425297
170	0xbd1416a4	-0.036154404
171	0xbd21d1b5	-0.039506633
172	0xbb741986	-0.0037246658
173	0x3d6e2fb5	0.058150966
174	0xbdab2c47	-0.083580546
175	0x3d45f582	0.048329838
176	0x3d1ce7c1	0.038306955
177	0x3d1bf517	0.038075533
178	0x3c4f2da4	0.012645159
179	0x3d268584	0.040654674
180	0x3cd066e8	0.025439695
181	0xbd0f0237	-0.03491422
182	0xbd27a66e	-0.040930204
183	0xbda3ea04	-0.08003619
184	0x3a115746	0.0005544316
185	0x3d7a7291	0.061144415
186	0xbd96e91e	-0.07368682
187	0xbd916b24	-0.071005136
188	0xbc8ed5ff	-0.017436026
189	0xbd61bb72	-0.055110402
190	0xbd67fce3	-0.056637656
191	0x3d9b432d	0.07581172
192	0xbd44a328	-0.04800716
193	0x3d049896	0.03237208
194	0xbd9c96d7	-0.07645958
195	0xbc8f8497	-0.017519278
196	0xbd133213	-0.035936426
197	0x3d921936	0.07133715
198	0xbd411ce9	-0.04714671
199	0xbdbdaf24	-0.09261921
200	0x3ceb7ae6	0.028745126
201	0x3d1273c7	0.035754945
202	0xbdcb79b5	-0.09935323
203	0x3c6bc7a9	0.014390864
204	0x3cdeedf3	0.027213072
205	0x3d4ab994	0.049493387
206	0x3cf7d26c	0.030251704
207	0x39880a1c	0.00025947473
208	0x3cc7b536	0.0243784
209	0x3d52704c	0.051376626
210	0x3d39c408	0.045352966
211	0x3d6c8cd2	0.057751484
212	0xbd34dcbc	-0.04415582
213	0x3d3df492	0.04637582
214	0x3daaaa25	0.08333234
215	0xbd63fc3a	-0.055660464
216	0xbd9b90d9	-0.07595987
217	0xbdd45ead	-0.103696205
218	0xbd592e39	-0.053022597
219	0xbd8c116e	-0.06839262
220	0x3c66062c	0.014039557
221	0x3d821709	0.0635205
222	0x3d08e570	0.033421934
223	0xbd1be91b	-0.038064104
224	0xbd310206	-0.04321482
225	0x3b92c78b	0.004479354
226	0xbdbbeba7	-0.091758065
227	0xbd351f38	-0.044219226
228	0x3c650fb9	0.013980799
229	0xbd8a38fb	-0.067491494
230	0x3cfff60a	0.03124525
231	0xbdb50655	-0.08839098
232	0xbda867a1	-0.08222891
233	0xbd8c62a7	-0.06854754
234	0xbd81c3b2	-0.06336154
235	0x3d25883d	0.04041313
236	0xbd60f711	-0.05492312
237	0x3b80818a	0.0039216923
238	0xbdc3f3b8	-0.0956797
239	0x3d26979a	0.040671922
240	0xbb78e9a6	-0.0037981062
241	0x3c804149	0.01565613
242	0x3d6d6cc3	0.05796505
243	0xbb8417ea	-0.004031171
244	0xbcd2b003	-0.025718695
245	0xbdaeb47b	-0.08530518
246	0xbd877264	-0.06613615
247	0xba909288	-0.0011029998
248	0x3da2a8b5	0.079423346
249	0x3d10b900	0.03533268
250	0xbd967552	-0.07346596
251	0xbd9c029c	-0.07617685
252	0xbdb1883d	-0.086685635
253	0xbb855d1b	-0.004069937
254	0xbd5b789d	-0.053581823
255	0x3d81f515	0.06345574

net.5.bias f4 [128]
0	0xbdba075b	-0.09083434
1	0x3d7cbabf	0.061701532
2	0x3e36ab01	0.1783867
3	0x3d8612c8	0.06546551
4	0xbd702b16	-0.05863484
5	0xbdd11963	-0.1020992
6	0x3d30d00a	0.04316715
7	0xbbc1564d	-0.0059001804
8	0xbdb5f9f6	-0.08885567
9	0x3e055659	0.1302122
10	0x3dbbe739	0.091749616
11	0x3b106f31	0.0022038931
12	0x3e22b112	0.1588786
13	0xbe12f0a7	-0.14349614
14	0x3d456ca9	0.04819933
15	0xbd7adc5d	-0.06124531
16	0x3da9d6be	0.08292912
17	0xbdb72376	-0.089423105
18	0x3ccda566	0.025103282
19	0xbcd6f752	-0.026240978
20	0x3da4c8a4	0.08046082
21	0xbcd6a9fb	-0.0262041
22	0xbcd4b8c7	-0.025967015
23	0xbcecee2d	-0.028922165
24	0xbdaebd80	-0.08532238
25	0x3d4ee801	0.050514225
26	0xbd1bf3df	-0.03807437
27	0xbd9d190d	-0.07670794
28	0xbe2107de	-0.15725657
29	0x3dd54053	0.104126595
30	0xbdb7dcd4	-0.089776665
31	0xba423de6	-0.0007409736
32	0x3de76de1	0.113002546
33	0x3d0730cd	0.033005524
34	0x3d402186	0.04690697
35	0xbd0deee7	-0.034651663
36	0xbd550c5e	-0.052013747
37	0x3e2bc691	0.16774966
38	0xbe3ff64c	-0.18746299
39	0xbd99f4bd	-0.07517383
40	0xbb78d874	-0.0037970813
41	0x3b661a7c	0.0035111
42	0x3d9acaae	0.07558189
43	0x3e37e7f8	0.17959583
44	0xbc0825a8	-0.008309759
45	0x3ec645d3	0.38725147
46	0x3ccd7585	0.025080452
47	0x3c806e90	0.01567772
48	0xbdd49b39	-0.10381169
49	0x3b54e7a1	0.0032486694
50	0xbd9abf16	-0.07555978
51	0xbc96363a	-0.018336404
52	0xbda28889	-0.07936198
53	0x3e1b8904	0.15188986
54	0xbddb1235	-0.10696832
55	0x3d940e8c	0.07229337
56	0xbd5d64aa	-0.05405108
57	0xbdca7e06	-0.09887318
58	0x3ddddf99	0.108336635
59	0xbc8c5704	-0.017131336
60	0xbdf90e63	-0.12160947
61	0x3e247d05	0.16063316
62	0x3df614c1	0.12015677
63	0xbe0babbf	-0.13639735
64	0xbde1806a	-0.11010821
65	0x3db2f9f9	0.08739085
66	0x3d87e3d9	0.06635255
67	0x3e5631e8	0.20917475
68	0x3e1eb16d	0.1549737
69	0xbc0135f5	-0.0078863995
70	0xbdd4ec0e	-0.10396586
71	0xbd18b438	-0.037281245
72	0x3e0b1f54	0.1358617
73	0x3d79e76f	0.061011728
74	0xbd1a6585	-0.037694473
75	0x3d3f669b	0.04672871
76	0x3d5fb022	0.054611333
77	0x3e21a17b	0.15784256
78	0x3e23345a	0.1593794
79	0xbd284f17	-0.04109105
80	0xbcece921	-0.028919758
81	0x3e9f803b	0.3115252
82	0xbd9d0131	-0.07666243
83	0xbd9879ca	-0.074451044
84	0xbcf70dc0	-0.030157924
85	0x3dc1c178	0.09460729
86	0x3e0d49f0	0.13797736
87	0xbe2ea31f	-0.17054413
88	0x3db3198e	0.087451085
89	0x3ca9118d	0.020638252
90	0xbdbf7a7c	-0.09349534
91	0xbd1c07d3	-0.0380934
92	0x3e1d12eb	0.15339248
93	0xbd82359e	-0.06357883
94	0xbc628ae0	-0.013827056
95	0xbd2c3c21	-0.04204953
96	0xbda19eda	-0.07891627
97	0xbdf0cf58	-0.11758298
98	0xbd53a6e4	-0.05167283
99	0xbd5e7c81	-0.054317955
100	0xbd347275	-0.044054467
101	0x3db24ebe	0.08706425
102	0x3e160d2c	0.14653462
103	0xbdb3a0f5	-0.087709345
104	0xbdbbb009	-0.091644354
105	0xbe1477d3	-0.14498834
106	0x3e8fae70	0.28062773
107	0x3d23b046	0.03996303
108	0x3e41b2e5	0.18915899
109	0x3d555930	0.05208701
110	0x3c0403e0	0.0080575645
111	0x3d799752	0.060935326
112	0x3c5875c0	0.013211668
113	0xbd702ee1	-0.058638457
114	0x3d8f7ba7	0.07006007
115	0x3df47bdb	0.11937686
116	0xbcaccc99	-0.021093654
117	0x3d9840b7	0.074342184
118	0x3c04268f	0.008065834
119	0xbcfe88c9	-0.031071084
120	0x3d6687c9	0.05628184
121	0x3d6a1196	0.057145678
122	0xbd8ccc8f	-0.06874954
123	0xbdff68f0	-0.12471187
124	0xbd0a68f1	-0.033791486
125	0xbd4580b5	-0.048218448
126	0x3ccaeb18	0.024770305
127	0xbbe557a5	-0.0069989734

net.7.weight f4 [7, 128]
0	0xbbea4e0e	-0.007150418
1	0xbdc0aad6	-0.09407584
2	0xbd514296	-0.051088892
3	0x3d099460	0.033588767
4	0xbe0a34d7	-0.1349672
5	0x3aae953c	0.0013319622
6	0x3d526ce1	0.051373366
7	0xbe0d02fc	-0.1377067
8	0xbc0dd652	-0.008657055
9	0xbe6122c5	-0.2198592
10	0xbe83f1be	-0.25770372
11	0xbed62660	-0.41826153
12	0xbeada4f5	-0.33914915
13	0xbe223270	-0.15839553
14	0xbe69baf3	-0.22825222
15	0xbdcd482c	-0.10023531
16	0xbeae674e	-0.3406319
17	0xbb982adc	-0.004643781
18	0xbd8fdb11	-0.070242055
19	0xbd271b1e	-0.040797345
20	0xbe615a5d	-0.22007127
21	0xbdda51f0	-0.106601596
22	0xbeab911d	-0.3350915
23	0xbd33a03d	-0.043853987
24	0x3dafeff2	0.08590688
25	0xbe5ed372	-0.21760347
26	0xbe8957ac	-0.268247
27	0xbc3451f7	-0.01100587
28	0xbd49ac1b	-0.0492364
29	0xbde2a456	-0.11066501
30	0xbd584b41	-0.052806143
31	0xbc890986	-0.016728174
32	0x3e25842d	0.16163702
33	0x3c0a32fc	0.008435007
34	0x3d957397	0.07297438
35	0x3e9645ae	0.29350036
36	0xbd0999d9	-0.033593986
37	0x3ed17839	0.40912035
38	0xbeb023fc	-0.34402454
39	0xbe4f74b8	-0.20259368
40	0x3d6cf3de	0.057849757
41	0xbe695e2f	-0.22789834
42	0x3e2f3a6b	0.17112128
43	0xbf5e3363	-0.8679716
44	0xbec80a97	-0.3907058
45	0x3ed58e54	0.4171015
46	0xbd78f8c6	-0.060784124
47	0x3c89f874	0.016842104
48	0x3bf87271	0.007582002
49	0xbef53286	-0.4789011
50	0xbe1d082d	-0.1533515
51	0x3d07f267	0.033190157
52	0x3d1c3aa2	0.038141854
53	0x3b64de18	0.0034922417
54	0xbda06df7	-0.07833474
55	0xbe7ac834	-0.24490434
56	0xbdb54dd9	-0.08852739
57	0x3d61e472	0.055149503
58	0xbe80b856	-0.25140637
59	0xbdb18569	-0.08668024
60	0x3ea8a492	0.32938057
61	0xbe3150a0	-0.17315912
62	0xbe90a168	-0.28248143
63	0xbe2c7435	-0.16841204
64	0xbed99fce	-0.42504734
65	0xbeaa0b8c	-0.33211935
66	0xbe9bc3f0	-0.30422926
67	0xbdc9d1fb	-0.09854504
68	0xbe90155c	-0.28141296
69	0xbd9d7811	-0.076889165
70	0xbe062278	-0.13099086
71	0xbe3c0990	-0.18363023
72	0xbe2d5f43	-0.1693087
73	0xbe32b072	-0.17450121
74	0xbd7aa621	-0.06119359
75	0xbd677a98	-0.0565134
76	0xbcdef568	-0.027216628
77	0xbe20c4a6	-0.15700015
78	0xbffbf87d	-1.9685208
79	0xbd3bd973	-0.045861673
80	0x3d8616e1	0.065473326
81	0x3e7695a2	0.24080518
82	0xbd805ba2	-0.062674776
83	0xbe68c2b4	-0.22730523
84	0xbda49fd4	-0.08038297
85	0xbe7d6ebd	-0.24749275
86	0xbe493fab	-0.19653194
87	0xbeec20d0	-0.46118784
88	0xbe67bcd8	-0.22630632
89	0xbe6bdfbc	-0.23034567
90	0xbdb0bf9a	-0.08630295
91	0xbd60c916	-0.05487927
92	0xbdc82b57	-0.097738914
93	0x3b905b92	0.0044054473
94	0xbdb6a264	-0.08917692
95	0x3d8b4196	0.06799619
96	0xbdc44243	-0.09582951
97	0xbf3d0a26	-0.7384361
98	0xbe3501a0	-0.17676401
99	0xbd9f4fda	-0.07778902
100	0x3e627705	0.22115715
101	0xbdfba592	-0.122874394
102	0xbdaa98a7	-0.083298974
103	0xbdc305f1	-0.095226176
104	0xbce5f47e	-0.028070685
105	0xbf87a374	-1.0596757
106	0x3e94258e	0.28934902
107	0xbe8bcbbd	-0.27303877
108	0xbe219ea6	-0.15783176
109	0xbd900e83	-0.07034018
110	0xbdc11533	-0.094278716
111	0x3cdfd5dd	0.027323658
112	0xbe806025	-0.25073352
113	0x3d2b4461	0.041813258
114	0xbf447438	-0.76739836
115	0xbe6a24d1	-0.22865607
116	0xbc432e5d	-0.011912909
117	0x3f113c75	0.56732875
118	0xbd711dac	-0.058866188
119	0xbd921859	-0.0713355
120	0xbeb7e86e	-0.35919517
121	0x3e724543	0.23659234
122	0x3c046832	0.008081483
123	0xbe90fd9b	-0.28318486
124	0x3d83d4e8	0.06437093
125	0xbe6ad96b	-0.22934501
126	0xbe5086de	-0.20363948
127	0x3d2ce0ef	0.0422067
128	0x3d9c1943	0.07622006
129	0xbd39be97	-0.045347776
130	0x3d8f1d32	0.069879904
131	0x3d7f8275	0.062380273
132	0xbe897c54	-0.26852667
133	0xbcd297b4	-0.025707103
134	0xbc256d89	-0.010096916
135	0xbd88da72	-0.0668229
136	0x3c2ee910	0.010675684
137	0x3d66f534	0.056386188
138	0x3e4e6b7c	0.2015819
139	0x3dced729	0.10099632
140	0xbdd28b8b	-0.10280522
141	0xbe8c6f2b	-0.27428564
142	0xbe0654fe	-0.1311836
143	0x3c80dce3	0.015730327
144	0x3e6f2c65	0.23356779
145	0xbdad4e38	-0.08462185
146	0xbd388f0f	-0.045058306
147	0xbe247328	-0.16059554
148	0x3e02763e	0.12740418
149	0xbc9bcea2	-0.019019429
150	0x3e96539a	0.29360658
151	0xbda48b80	-0.0803442
152	0xbc37f563	-0.011227938
153	0xbe83fb2f	-0.25777575
154	0xbe987884	-0.29779446
155	0x3d5d22f1	0.0539884
156	0xbe51ceb0	-0.20489001
157	0x3e19eab2	0.15030935
158	0x3d08e58d	0.03342204
159	0x3d13a160	0.03604257
160	0xbf68c32f	-0.90922827
161	0xbc1f4b54	-0.0097225495
162	0xbdc5bafa	-0.096548036
163	0xbe960a8c	-0.29304922
164	0xbded4372	-0.1158513
165	0xbec36eff	-0.3817062
166	0xbee1bd4a	-0.4408973
167	0xbe6389e5	-0.22220571
168	0x3d15fa30	0.03661555
169	0xbdf25c07	-0.11833959
170	0xbf542b28	-0.8287835
171	0xbdc2903d	-0.095001675
172	0x3e508fcf	0.20367359
173	0x3e203ed5	0.15648969
174	0x3d12c34f	0.035830792
175	0x3d42a10a	0.04751686
176	0x3d551b33	0.052027892
177	0x3ca1552c	0.019693933
178	0xbdd029f4	-0.10164252
179	0xbddf570f	-0.10905277
180	0xbc2137aa	-0.0098399315
181	0xbda286ea	-0.07935889
182	0xbc73409d	-0.014846948
183	0x3e74ab72	0.23893526
184	0x3d8e0c85	0.06935982
185	0xbd149bd3	-0.036281418
186	0xbe2cf3f0	-0.1688993
187	0xbd3482c0	-0.044070005
188	0xbf33cb74	-0.7023232
189	0x3cde8efd	0.027167792
190	0x3db6055e	0.088877425
191	0x3e3acae3	0.18241458
192	0x3d71cfca	0.059036054
193	0x3dfa2e24	0.12215832
194	0xbe8287fe	-0.2549438
195	0x3e25b6b2	0.16182974
196	0xbe090526	-0.1338087
197	0xbe690361	-0.22755195
198	0xbbc45250	-0.0059912577
199	0xbe612fe5	-0.21990927
200	0x3d68bbd2	0.056819744
201	0x3c30668c	0.010766637
202	0xbbcaeaf6	-0.0061925603
203	0x3d8db6a6	0.06919603
204	0xbd1be35a	-0.038058616
205	0xbe12916c	-0.14313287
206	0xbd9fd1b9	-0.07803673
207	0xbd7d060e	-0.061773352
208	0xbf43ef1b	-0.7653672
209	0x3ea6fbc2	0.3261395
210	0xbe433249	-0.19062151
211	0xbe0631ac	-0.13104886
212	0xbe86f043	-0.2635518
213	0x3e72c6ff	0.23708723
214	0xbe8fcb13	-0.2808462
215	0xbeac0903	-0.33600625
216	0xbe5abc11	-0.21360804
217	0xbe2161f6	-0.15760025
218	0x3d34b5da	0.04411874
219	0x3cf44c9d	0.029821688
220	0xbd10802b	-0.03527848
221	0x3d8ab5fb	0.06772991
222	0xbc99017e	-0.01867747
223	0x3c5611f9	0.013065808
224	0x3cf247e2	0.029575292
225	0xbf04ec86	-0.51923406
226	0xbdd85d65	-0.105646886
227	0xbd41678c	-0.04721789
228	0xbf6276f7	-0.88462776
229	0x3e03ed5a	0.12883511
230	0xbdbe969a	-0.09306069
231	0xbe15b1b5	-0.14618571
232	0xbd5f63be	-0.05453848
233	0xbf5120b5	-0.8169053
234	0xbdd960c1	-0.106141575
235	0x3e855555	0.26041666
236	0x3d5d632c	0.054049656
237	0xbca74bcb	-0.020421883
238	0xbcce794c	-0.025204323
239	0x3d40e4ab	0.047093075
240	0x3db86b4f	0.090048425
241	0xbda2886b	-0.07936176
242	0xbe019612	-0.12654904
243	0xbddd7300	-0.1081295
244	0x3bb87d9e	0.005630209
245	0x3f83917c	1.0278773
246	0xbc9765eb	-0.018481215
247	0xbe3c190f	-0.18368934
248	0xbe2ca1f6	-0.16858658
249	0xbf07ad6a	-0.52998984
250	0xbb2d2aa5	-0.0026423123
251	0xbe9f6537	-0.31131908
252	0x3ce67830	0.028133482
253	0xbe947550	-0.28995752
254	0xbed8b9d0	-0.42329264
255	0xbda4a9e2	-0.08040215

net.7.bias f4 [7]
0	0x3dccb5fa	0.09995647
1	0x3e15708f	0.14593719
2	0xbdd30d02	-0.103052154
3	0x3c3c4eca	0.011493394
4	0xbce4691a	-0.027882148
5	0xbc4d3b6e	-0.012526376
6	0x3e2dc206	0.16968545
