volume/checkpoints/latent2volume_best.pt (torch, 204501 bytes, 9 tensors)

net.0.weight f4 [128, 2]
000000 cb 68 3c 3f 19 b3 c0 3d 4c 88 80 be 85 40 bb be
       0.735974 0.0940916 -0.25103986 -0.36572662
000010 15 b7 e6 be 18 ea d6 3e 42 34 36 bf fc f0 f1 3e
       -0.45061556 0.41975474 -0.7117349 0.4725417
000020 34 5b d2 3e c2 09 e7 3e 35 d2 19 bf bc 02 2f bf
       0.41085207 0.45124632 -0.60086375 -0.6836355
000030 f2 c7 53 3e 05 7a 86 3e e8 34 92 3e 86 c1 e2 3e
       0.20681742 0.2626497 0.2855599 0.44288272
000040 26 aa e9 3e 31 9e 05 3f f3 ba b4 be 44 f9 ed 3e
       0.45637625 0.52194506 -0.3529888 0.46479237
000050 a7 c6 00 bf 88 0f 05 bf 8c f8 d1 3d 49 b4 4b 3f
       -0.5030312 -0.51976824 0.10252485 0.7957197
000060 f3 cb 2b be b8 c5 19 be c7 8a 47 be 5a 0f 94 3e
       -0.16777019 -0.1501683 -0.19486533 0.28917962
000070 b8 f2 d3 3e 1a d3 d9 bd 4b 99 6d 3e 93 55 b7 3d
       0.41396117 -0.106359676 0.23203008 0.08951869
000080 3a ea 13 3f 7c 3f 28 be 5d 2c 05 bf 82 1b 2b 3f
       0.57779276 -0.16430467 -0.5202082 0.6683885
000090 fb 30 2c bf 8b d8 04 3f f1 17 f4 bd 0d b5 c3 3e
       -0.6726224 0.5189292 -0.11918629 0.38224068
0000a0 13 72 db 3e 79 c6 2a bf 1c fe 4c 3f 22 31 50 3e
       0.4286047 -0.66709095 0.8007524 0.20331243
0000b0 2c 30 14 3f 16 58 3d 3c c7 fa 1f 3f 13 ee b9 3e
       0.57886004 0.011556646 0.6249203 0.3631445
0000c0 e1 50 e3 3e 60 5a e8 3e cf 89 b8 bd 65 93 de bd
       0.44397643 0.4538145 -0.0901066 -0.10867957
0000d0 cc fd 8d be 17 36 f7 be 36 08 d0 3e 9c c7 0a 3f
       -0.27732694 -0.48283455 0.40631264 0.5421083
0000e0 81 37 28 bf 60 83 c0 3d 45 0d 35 3f 23 35 c2 3e
       -0.6570969 0.09400058 0.7072337 0.37931165
0000f0 2a 10 86 be 3b ac 4b 3e 9c c3 1a be ab 60 a6 be
       -0.26184207 0.1988992 -0.15113682 -0.32495627
000100 35 d1 9a be d1 86 c8 be 4e 35 e8 3b 56 9c f6 3e
       -0.30237737 -0.39165357 0.0070864325 0.4816615
000110 c7 69 53 3e 73 e1 de be a5 f7 e9 be 41 a6 51 be
       0.2064582 -0.4353138 -0.4569675 -0.20473577
000120 ab 8b c8 3e c2 84 c9 be e7 d1 ca 3c b9 50 0e bf
       0.39169058 -0.393591 0.024758292 -0.55591923
000130 c9 9c 93 3e 6d 65 f6 be 64 26 e1 3e 98 cb 2d be
       0.28830555 -0.48124257 0.43974602 -0.16972196
000140 d6 f2 84 be 68 5e a4 3e d6 96 19 3f 86 71 37 be
       -0.2596652 0.32103276 0.5999578 -0.179144
000150 0e 73 ef be 7e d5 1b be 0f b8 ea 3d 56 a8 2a 3f
       -0.46767467 -0.1521816 0.11460888 0.6666311
000160 9a 6e 13 3f e8 cb 24 3f 9a 72 f9 bd 96 81 15 be
       0.5759064 0.64373636 -0.12180062 -0.14600214
000170 25 b4 0b 3f b4 f5 10 bf e0 40 89 bc 98 39 15 bf
       0.54571754 -0.56624913 -0.016754568 -0.58291006
000180 a6 2a 11 3f 66 11 e1 be ec b6 08 be ab cf 0f 3d
       0.567057 -0.43958586 -0.13351029 0.035110157
000190 35 41 8a be f0 c2 b3 3d 32 75 64 be ff 4c 0d bf
       -0.27002874 0.08777416 -0.22310331 -0.5519561
0001a0 6b 2b 21 bf 38 68 00 3e 52 cb 2a 3e 93 01 ae 3d
       -0.62956876 0.12539756 0.16679123 0.08496394
0001b0 14 46 c0 bd 8d 02 20 be 80 a6 dc bd f5 9f 2a bf
       -0.09388366 -0.15625973 -0.10773945 -0.66650325
0001c0 f4 d3 1d 3f da aa 61 be 0a 17 55 3d fd e9 c2 bd
       0.6165154 -0.22037831 0.052023925 -0.09517286
0001d0 d9 eb 19 3e ae 4d ae be 95 51 a6 be fb 8d ec be
       0.15031375 -0.3404364 -0.32484117 -0.46202073
0001e0 55 76 41 3f cf 3b db be 71 6c 10 bf 0e 1e e9 be
       0.75571185 -0.42819068 -0.5641547 -0.45530742
0001f0 18 c8 15 3f 39 a5 ac be 6e f1 37 3f c9 12 bc 3e
       0.58508444 -0.33719805 0.7185277 0.36733082
000200 12 a6 d6 be de 27 f7 3e 67 c7 fe 3e 1f a8 ca be
       -0.41923577 0.48272604 0.49761507 -0.3958139
000210 62 96 97 3e fa 60 ed be 0e b8 94 bd a0 79 5c bd
       0.2960692 -0.4636305 -0.07261668 -0.05382693
000220 c7 c6 3c 3f 6d 68 f6 bd 58 e6 1a 3f 22 3e 0d be
       0.7374081 -0.120316364 0.60507727 -0.13793233
000230 cd 92 ab 3e e4 59 e5 3e ea 19 3e be cb af 08 bf
       0.33510438 0.44795144 -0.18564573 -0.5339324
000240 f2 81 33 3f 25 81 00 3e b8 c0 41 3e cc a6 83 3e
       0.70120156 0.12549265 0.18921173 0.25713193
000250 46 9a bc 3e e1 01 30 bf 38 2c e2 3e 1a 44 9c 3c
       0.3683645 -0.68752867 0.4417436 0.019075442
000260 8f 14 09 be f7 30 f8 be 3a 64 09 3f bf e4 63 3e
       -0.13386749 -0.48474857 0.5366856 0.22255228
000270 2c 53 71 bd 93 1d 7c 3e c4 46 a6 bc 90 ec 28 bf
       -0.05891721 0.24620657 -0.020297416 -0.65985966
000280 fe 88 2c 3e a3 07 78 3e d5 e5 d6 3e ac fe 16 3f
       0.16849133 0.24221663 0.41972223 0.5898235
000290 6b 5e af 3e 13 b2 0f bf e7 94 d2 bc 71 79 22 3f
       0.34251723 -0.56131095 -0.025705768 0.63466555
0002a0 70 08 38 bf b9 3e b2 bd ca 7b 0a 3f 05 0f 7a be
       -0.71887875 -0.0870337 0.5409514 -0.24419792
0002b0 93 b1 ce be 57 3d 2f 3e b7 c4 08 bf dd df 08 bf
       -0.40369853 0.17113243 -0.53425163 -0.5346659
0002c0 8f b1 b1 be 4e e0 dc 3e 5e 1a 14 3f 9e 4f 3e 3d
       -0.3470578 0.4313988 0.57852733 0.046462648
0002d0 58 ea 0b 3e e5 e6 38 bf 8b 4c 9c 3e 9e 2d 15 bf
       0.13663614 -0.7222732 0.30527148 -0.5827273
0002e0 02 17 80 bb 9c ef 22 3d 39 7b c2 3e dd 6d 13 bf
       -0.0039089927 0.03977929 0.37984636 -0.57589513
0002f0 ce a0 20 3f 1f ac 01 be 4f b9 cb be 66 ed d1 3e
       0.6274537 -0.12663315 -0.39789817 0.41001433
000300 a0 dc f2 3e 95 dc 00 3f 4c 6f e9 3e 72 72 21 be
       0.4743395 0.5033658 0.45592725 -0.15766314
000310 ec d3 8e 3d 84 e3 2d be 61 5e ae 3c 4e c5 29 bf
       0.06974015 -0.16981322 0.021285238 -0.6631669
000320 4b ad 19 3f c0 4d f4 bd 1b 24 ee be a8 f3 e7 be
       0.6003005 -0.11928892 -0.4651192 -0.45303082
000330 29 60 0d bb 5d ee fa bd 16 40 21 bf f1 4a 34 3f
       -0.0021572208 -0.122524954 -0.6298841 0.7042685
000340 f5 76 27 3f ec c3 0e be 7b aa 1f bf 6c 9c de be
       0.6541589 -0.13941926 -0.6236951 -0.43478715
000350 41 41 3a bf 3a 21 0a bd 0e 35 e5 3e d8 65 e5 3d
       -0.7275582 -0.033723094 0.4476704 0.11201066
000360 30 87 f6 bd 88 60 71 3e ee f4 71 bd 73 cd b5 be
       -0.12037504 0.2357198 -0.059071474 -0.35508308
000370 ec c4 cf 3e 54 92 e8 be ba 0d 1a bf cb 24 79 3d
       0.40579927 -0.4542414 -0.60177195 0.060826104
000380 aa 12 db 3e 09 88 15 bf c4 18 3f 3e fa 6c e6 bd
       0.42787677 -0.584107 0.18661791 -0.112512544
000390 fd bd a9 3e 41 bc bf 3e 63 bb e3 bd 42 97 6c 3d
       0.33152762 0.37448314 -0.111197256 0.05776144
0003a0 35 bd 82 be df 3e 22 bf 75 b3 18 bf 23 35 87 bd
       -0.25534979 -0.63377184 -0.5964883 -0.06601932
0003b0 ec 9a 0b bf 96 d8 07 3e b0 4e 26 3f c4 a1 96 3e
       -0.5453327 0.13266215 0.6496382 0.29420292
0003c0 b0 07 00 3f 3a d1 bb 3d 44 7b 28 bf 6b 6e 14 3f
       0.5001173 0.09170766 -0.6581309 0.57980984
0003d0 37 d3 ae 3e 1b 63 10 3f 60 15 e7 be c9 0a 3b be
       0.3414552 0.5640122 -0.45133495 -0.18265833
0003e0 79 da ff be 20 44 05 3f 35 3c da 3c a6 20 20 be
       -0.4997137 0.52057076 0.026640037 -0.15637454
0003f0 8b 8d 0d bf 36 64 81 3e ea 3c 3b bf 21 de 08 bf
       -0.552941 0.25271767 -0.7313982 -0.5346394

net.0.bias f4 [128]
000000 47 08 81 3c 59 20 78 be b1 ba d6 3d 4c 0f 47 3e
       0.015751017 -0.2423109 0.10484827 0.19439429
000010 95 e7 c7 be 24 a0 0e 3f fe f7 68 be cc 2a 1f bd
       -0.3904387 0.55713105 -0.22750852 -0.038859174
000020 1a 21 b5 be ec 51 56 be ea aa a1 be 1c e5 ed be
       -0.35376817 -0.20929688 -0.3157571 -0.4646386
000030 dd b3 0b bf 57 14 d8 be b6 e5 b6 3d 48 12 71 3d
       -0.54571325 -0.42203018 0.08930533 0.058855325
000040 45 ff f2 be 1c 17 43 be f3 62 0f 3f 3a 1d 14 3e
       -0.4746038 -0.19051784 0.5601036 0.14464274
000050 5b af 0e 3d 66 28 89 be 28 e4 6c be 90 86 35 be
       0.0348352 -0.26788634 -0.2313391 -0.17727113
000060 81 63 85 be 25 51 8a 3e fd be 81 bb e8 bb 72 be
       -0.26052478 0.27015033 -0.003959535 -0.23704493
000070 73 5a 5e 3e db b5 16 bf ff ca 8a 3e ac 9c 5a 3e
       0.21714191 -0.5887124 0.27108 0.21348828
000080 3e c8 db 3e c8 ab 87 be d8 3d 1a 3e c4 a0 5e be
       0.4292621 -0.26498246 0.15062654 -0.21741015
000090 80 b4 ce 3e ea 1a 5b be 95 50 31 3e 9e 77 8a 3d
       0.40372086 -0.21396986 0.17315896 0.067610964
0000a0 ec bf 6e 3e 33 aa 86 be bc ad 9e 3c 87 0f f6 be
       0.233154 -0.26301727 0.019369952 -0.4805872
0000b0 be 33 ba be 6b 67 ea 3d aa c8 8a bd e1 68 12 be
       -0.363676 0.11445507 -0.06776555 -0.1429782
0000c0 23 87 b7 bd 48 eb 01 3e 22 fc 8f be 74 8b 43 be
       -0.08961322 0.12687409 -0.2812205 -0.19096166
0000d0 71 3d 80 3d 6d 6b d4 3d e2 bf d6 be 13 53 8f 3e
       0.06261719 0.10372052 -0.4194327 0.27993068
0000e0 50 a9 f2 3c c4 37 75 bc cb df ac 3e 0e 09 a8 3e
       0.02962175 -0.014966909 0.3376449 0.32819408
0000f0 0c ff 20 bf 12 74 79 3e 4c 67 21 bf 20 da 4d be
       -0.6288917 0.24360684 -0.63048244 -0.2010274
000100 9b b4 82 3d cf c9 af be 73 11 c1 be 37 14 73 3e
       0.06382104 -0.34333655 -0.37708625 0.2373818
000110 78 89 17 bf f1 72 57 3e af 3b 92 bd 32 9d 05 3f
       -0.59194136 0.2103994 -0.0714029 0.52192986
000120 c2 c6 dc be b1 28 b5 be 91 16 0e 3f 78 fe ab be
       -0.4312039 -0.35382608 0.55503184 -0.33592582
000130 d9 55 c9 3e b7 07 d4 be 6b 4e 8d 3c 79 c1 14 3f
       0.3932331 -0.41412136 0.017249307 0.58107716
000140 14 eb 1e be 0b f9 ca be 72 29 e9 3d ab 0e 71 be
       -0.15519363 -0.3964313 0.11384858 -0.23540752
000150 0b 2a cb 3e 8f 89 63 bd 4d 98 79 be a0 06 57 be
       0.39680514 -0.055551108 -0.24374504 -0.20998621
000160 5c 82 8f be 18 58 5e be 28 5c f6 3e 50 bb 41 3e
       -0.28029144 -0.21713293 0.48117185 0.1891911
000170 6b 43 10 3f d4 ea c3 3e d7 d1 0a bf e3 6d ec be
       0.5635287 0.38265097 -0.5422644 -0.46177587
000180 ae 57 53 be 94 1d b7 be 5e 4d 55 bd 3e c5 9e 3e
       -0.20638916 -0.35764754 -0.052075736 0.3100986
000190 4f 53 13 bf b6 c5 87 be 2d 5f d8 bc 6e 0e 02 bf
       -0.57548994 -0.2651803 -0.02641257 -0.5080327
0001a0 a3 72 85 be 30 44 63 bc c9 51 22 3f 34 02 c9 bd
       -0.26064023 -0.013871238 0.63406044 -0.09814873
0001b0 ec 4a fe 3e e3 1c d5 bd a5 6f 98 be a8 f4 57 3d
       0.49666536 -0.104059 -0.29772678 0.052723557
0001c0 8f be 89 3d fa 71 ca 3e 38 b8 4b 3e 64 da ca bc
       0.06725799 0.39540082 0.19894493 -0.02476234
0001d0 e8 80 92 3e 75 a6 52 bc 97 d0 fe bd a9 eb f1 3e
       0.28613973 -0.012857069 -0.12442129 0.47250107
0001e0 14 19 c0 3e b1 6d 9f 3e 38 27 c7 be da c6 88 3e
       0.37519133 0.31138375 -0.3889711 0.26714212
0001f0 42 db 6f 3e d3 6e 22 be 4d 45 02 3f af 16 c4 3e
       0.23423484 -0.15862589 0.50886995 0.38298556

net.1.weight f4 [128, 128]
000000 6a 15 68 bd 5e a5 e0 3c d9 36 91 3c 3f 9f 02 bd
       -0.056661047 0.027422603 0.017726349 -0.03189015
000010 de 5f c5 3d 6f fa be bd 65 eb cf 3c 91 79 4f bd
       0.09637426 -0.0932511 0.0253808 -0.050653044
000020 00 4b 61 3d 89 dc 35 bd af d3 c7 bc 7c 48 ad 3d
       0.055003166 -0.04439977 -0.02439293 0.08461091
000030 d8 8f 8e bd 91 5d 98 3d f5 3e 46 3d 79 d3 9a bd
       -0.0696103 0.074397214 0.048399884 -0.075598665
000040 82 9b 81 3c 60 f0 c4 3b 27 24 89 3d 21 b3 59 bd
       0.015821222 0.0060101002 0.06696349 -0.053149346
000050 55 ee 8e 3d 64 81 22 bd f9 f7 7d 3d 45 a5 57 bd
       0.06979052 -0.039674178 0.062004063 -0.052647848
000060 35 ea 92 bd 14 78 15 bd 72 fa a5 3d 15 f4 81 3d
       -0.07173578 -0.03649147 0.08104409 0.06345383
000070 6e 86 5f bc 17 a2 95 3b a2 dd 30 3d 17 cc 50 3d
       -0.01364289 0.0045664418 0.043180116 0.050975885
000080 cd 3b 7b 3d 59 0c 58 bd c1 23 db 3c 58 6c 15 3d
       0.061336327 -0.05274615 0.026750447 0.036480278
000090 76 ec cd 3c 27 a2 a5 3d 0e 20 81 bd 7a b8 48 3c
       0.025137167 0.08087569 -0.06304942 0.012251014
0000a0 13 3a 91 bd 8f 78 8f 3d 3a 35 13 3d 6d e3 7a bc
       -0.07091155 0.070054166 0.035939433 -0.015313012
0000b0 27 ab 7e bb 59 fb 6d 3c ed 99 39 bd 16 7b 82 3d
       -0.003885934 0.014525258 -0.04531281 0.06371133
0000c0 a1 30 e6 3c c6 1a 17 3d cc 8a 90 bc 90 75 4c bd
       0.02809936 0.036890768 -0.017644309 -0.049916804
0000d0 28 76 2c bd 03 3b 98 bd 02 ea 88 3d 85 9d 9c bd
       -0.04210487 -0.074331306 0.066852584 -0.07647232
0000e0 e8 9a 2b 3d 15 fd c0 3d dc 4a d9 3c 71 9e da bc
       0.041895777 0.094232716 0.026524954 -0.026686879
0000f0 6c 1f 01 bc ff 3c 6d 3d f6 96 c4 3d ee a4 17 bd
       -0.007881027 0.0579195 0.09599106 -0.037022524
000100 67 32 49 3c 6b 1c a5 3d 12 26 64 3d 1c c8 56 bd
       0.012280083 0.08062061 0.05570037 -0.052436933
000110 33 2f e2 3c 3b f7 58 3d 3c 0d 26 3d 76 4e 23 3d
       0.027610397 0.052970152 0.040539965 0.039869748
000120 ea c9 a0 3d 28 a9 3c 3d 98 16 38 3c 2e 3e 9b 3c
       0.07851012 0.046059757 0.0112358555 0.018950548
000130 87 b1 64 3d 60 d0 3b bd 83 c2 41 bd 26 9b e2 3c
       0.055833366 -0.04585302 -0.04730464 0.027661871
000140 88 a1 81 bd e5 be 80 3d f0 7b 46 3d 27 a9 b9 3c
       -0.06329638 0.0628641 0.04845804 0.022663666
000150 ba c9 54 bb b1 bb a0 bd ed 41 31 bc bd 08 c5 3a
       -0.0032468871 -0.07848299 -0.010818941 0.0015032511
000160 3e da 94 3d 89 80 a0 bc c6 14 8c 3d 64 cf 3d bd
       0.07268189 -0.01959254 0.068399 -0.04634036
000170 50 07 66 bd 51 8a 4b bb 2d 71 a4 3c 8f b6 15 bd
       -0.056159317 -0.0031057785 0.020073498 -0.036551055
000180 94 99 2a 3a 66 3b 75 bd 9e 6e 33 bd 85 70 97 3d
       0.000650787 -0.0598711 -0.043806665 0.07394508
000190 99 e9 af 3d fb 9d 68 bc a6 fb 78 bd d4 c5 12 3d
       0.08589477 -0.014197822 -0.060786866 0.035833195
0001a0 fc 84 b7 bd 7a 73 34 3d 98 ca 57 3d dc d4 32 3d
       -0.08960912 0.04405544 0.052683443 0.04366003
0001b0 6b 7a 50 3d 62 2c 98 3d ff a1 b2 bc 19 7d b4 3d
       0.050897997 0.0743034 -0.021805761 0.08812923
0001c0 5a 93 86 bd ba 39 e8 bb 3d ba 34 bd 40 fe de bc
       -0.06571074 -0.0070869597 -0.044122923 -0.027220845
0001d0 4f 41 fe 3c d5 f0 34 3d 3e b9 10 3b 83 b0 92 bd
       0.031037001 0.044174988 0.002208307 -0.07162573
0001e0 2b 49 23 3d 17 6a 75 bd b0 98 7e bd bb b1 59 3d
       0.0398647 -0.05991563 -0.062157333 0.053148013
0001f0 ce 63 65 bd 7a da 7a bc cc 04 c4 bd 8b 2b 83 3d
       -0.056003384 -0.015310878 -0.095712274 0.064047895
000200 e0 00 e5 3c 90 98 7a 3b 60 14 87 bc f7 96 aa 3d
       0.027954519 0.0038237907 -0.016489208 0.083295755
000210 3b 60 1d 3d fe fe 41 bd 2a 60 a5 bc 7f 83 1a bc
       0.03842185 -0.04736232 -0.020187456 -0.009430765
000220 b7 68 62 bd 3d b1 24 bd d3 dd aa 3c 49 ae 0f bd
       -0.055275645 -0.04020809 0.020857727 -0.03507832
000230 a0 a6 0a 3b 2b 71 0a 3d c4 3e 69 3c e8 9e 5c 3d
       0.0021156445 0.03379933 0.014236156 0.053862482
000240 ce b6 56 3d 3b f8 40 bd f6 ba cb bd ba 51 dd 3c
       0.05242043 -0.04711173 -0.09947769 0.02701651
000250 37 78 4e 3d 28 7f 3d 3d 2e 9f cb bc 87 97 c3 bd
       0.050407615 0.046263844 -0.024856176 -0.09550386
000260 71 d4 66 bd 66 14 97 3d 94 3a 5c 3d 57 1d a6 bd
       -0.056354944 0.073769376 0.053766802 -0.08111065
000270 5f 8a 82 bd af f5 9e 3d 7a b1 92 bd 95 a7 ac bd
       -0.063740484 0.07761704 -0.07162757 -0.08430401
000280 aa cf 27 bd 79 4c 8c 3d 1a 31 11 3d d9 80 d0 bc
       -0.04096953 0.068505235 0.035447218 -0.025452064
000290 18 fd c1 bc 4b 96 01 bd 92 26 33 3d aa 1c 9c bd
       -0.023680255 -0.03163747 0.043737955 -0.07622655
0002a0 01 07 46 bd be 93 a4 3d 51 ef 98 bd db 60 0f bd
       -0.048346523 0.08035992 -0.07467521 -0.035004478
0002b0 79 56 a9 bc 0f 60 9b 3d c2 a9 60 3d 73 72 0e bd
       -0.020671116 0.07586681 0.054849394 -0.034777116
0002c0 f8 01 7f bd 13 d6 fc 3c 0c 5e 8d bd 83 a3 47 3d
       -0.062257737 0.030863797 -0.06902704 0.04873992
0002d0 a9 35 3b bd 4a 21 c7 bc d1 05 28 3d 72 a3 fc 3c
       -0.04570547 -0.024307866 0.041021172 0.030839656
0002e0 bd d0 ee 3c 1a 6a 09 bd 0c 30 2e bd 00 d5 be 3b
       0.029152269 -0.033548452 -0.04252629 0.0058237314
0002f0 3d 80 1a bc 21 9b 8b 3d 6f 01 4f bd 56 b3 01 bd
       -0.009429988 0.06816698 -0.050538477 -0.03166517
000300 11 05 47 bd bc 8e b9 3d 67 c6 12 bd 1d c2 12 3d
       -0.048588816 0.090604275 -0.035833742 0.035829652
000310 02 81 eb 3c 68 35 76 bd 77 7c 29 bd d0 79 70 3d
       0.02874804 -0.060109526 -0.041378465 0.05870992
000320 d4 f4 12 3d 09 c3 92 3d 19 9a 4f bd f3 36 99 3d
       0.035878018 0.07166106 -0.05068407 0.07481184
000330 16 69 09 bb 5b 3c c1 3b 4b 13 69 bd 9a 9c 09 3a
       -0.0020967177 0.0058970875 -0.056903165 0.00052494707
000340 2b 29 82 3d 0c 96 fa bc 04 ab 94 3d be cd 89 bd
       0.063555084 -0.030589126 0.07259181 -0.06728695
000350 74 32 8e 3b bf 61 e5 bc d4 c5 5c bc 16 b3 06 bd
       0.0043395106 -0.02800071 -0.0134749 -0.032885633
000360 5b 36 b6 3d a2 4d b8 bd 0b 9d 1b bd 24 68 9f 3d
       0.08897086 -0.08999182 -0.037991565 0.07783535
000370 31 ce 6f 3d 1b 50 8a 3c b9 2b 03 bd e4 3e f0 bc
       0.05854625 0.0168839 -0.03202412 -0.029326864
000380 57 5f 4c bd 36 be 83 bd c0 66 40 bc 3f 4e 8d 3d
       -0.04989561 -0.06432764 -0.0117432475 0.0689969
000390 ef b0 04 3d 9b 80 2d bd 16 84 8e 3d aa 88 16 3d
       0.0323953 -0.042358976 0.06958787 0.036751427
0003a0 ea dd 08 bd da d1 95 3d b4 35 6a bc c9 ad 24 3d
       -0.03341476 0.07315417 -0.01429503 0.040204797
0003b0 b6 6a 94 3b fa c2 12 bd 7d 1a 74 bc 57 14 09 ba
       0.0045293225 -0.035830475 -0.014898893 -0.0005229166
0003c0 b0 6c af 3c 0e ee 0c bc e9 39 c6 bd 57 6d 98 3d
       0.02141413 -0.008601679 -0.09679014 0.0744273
0003d0 79 3e 96 3c 47 7c c2 bb 99 83 4d 3d 98 04 12 3d
       0.018340336 -0.005935225 0.05017433 0.035648912
0003e0 2e 03 a2 3c 7e 9a 93 3d d3 e0 32 bd 58 40 22 bd
       0.019776907 0.072072014 -0.04367144 -0.039612144
0003f0 77 ff a6 bd 91 fe 9c bd 2e b0 97 3d 0d 7f 6d bd
       -0.08154195 -0.07665742 0.074066505 -0.057982493

net.1.bias f4 [128]
000000 80 ed 2d 3d fc 9c 8f bd 14 f6 9c bb 29 58 66 3d
       0.042462826 -0.07012364 -0.004790077 0.05623642
000010 c0 2a d3 bb ae f5 1c 3d 83 42 29 bd 1d 1d 1d bd
       -0.006444305 0.038320236 -0.041323196 -0.038357843
000020 cd 61 8c 3d f4 0e 2b 3d cc c3 4d 3d 4b 7c 96 bb
       0.068545915 0.041762307 0.050235555 -0.0045924536
000030 fd 39 49 bd ab 49 81 3d 18 20 85 bd b4 31 5d 3d
       -0.049127568 0.06312879 -0.06500262 0.05400248
000040 97 79 9d 3d 6a 19 b3 bd 6a 0b eb 3c d8 a8 b8 3c
       0.07689207 -0.08745082 0.028691966 0.022541448
000050 76 58 8a 3d a6 cb 26 3d 73 74 94 bc 9b 0d 2a 3d
       0.06755154 0.040721558 -0.018121934 0.04151688
000060 b2 11 a0 3b 8f a3 ea 3c 52 c1 78 3c 6f 7b 6e 3c
       0.004884922 0.028642444 0.01518281 0.014555796
000070 cc fa 60 bc 1a 94 13 bd d4 da d6 bd ea 7e fb bc
       -0.01373167 -0.036029913 -0.10490957 -0.030700166
000080 7e c7 1d 3d 02 cc 33 3c c6 29 41 bd 22 26 47 bd
       0.03852033 0.010973932 -0.04715898 -0.04862035
000090 cc 22 51 3d b2 86 91 bc 92 55 89 bd 03 f2 aa bd
       0.051058576 -0.017764423 -0.06705774 -0.08346941
0000a0 d7 53 1d bd 3f 4c 04 bb 8b ba a4 bd 7b 70 6a bd
       -0.038410034 -0.0020187048 -0.08043393 -0.057236176
0000b0 86 3d 73 bd 33 9c 95 bd 54 3e a5 bd 2b 1b cd bd
       -0.059384845 -0.07305183 -0.08068529 -0.100149475
0000c0 2b 34 91 3d 86 eb 8d bd 78 0b 70 3c cc 08 1b 3d
       0.070900284 -0.06929688 0.014651172 0.037850186
0000d0 5b 00 40 3d a6 c7 fb 3c eb ae 36 bd 94 42 b1 3c
       0.04687534 0.030734848 -0.04460041 0.021638192
0000e0 8d c2 5c 3d 6d 54 8c bc c0 2f 9e 3d 42 75 20 3d
       0.053896476 -0.017130101 0.07723951 0.039174326
0000f0 6a 96 7f 3d c8 9c 9a bd 1b 9b 64 3d 14 b8 c5 bd
       0.062399305 -0.07549435 0.055811983 -0.09654251
000100 f0 ad ce 3c b6 6f 71 3d f0 b5 63 bc 1d bb 21 3b
       0.025229424 0.058944426 -0.013898358 0.0024678179
000110 93 7a e9 3b b2 74 4b 3d e4 65 99 bd af ed d6 bd
       0.0071252077 0.049671836 -0.07490137 -0.10494553
000120 6d 5a b5 bd c6 9d 35 3d 9d fc b3 bd 37 ba 9a bd
       -0.08855138 0.044339918 -0.087884165 -0.07555049
000130 3f 39 02 bc 77 b1 42 3d 00 4b 92 bb ca 16 ad 3c
       -0.007948219 0.047532525 -0.004464507 0.02112903
000140 ba 78 e4 3c da 3d 36 3c 87 2e 8a 3d 46 3d 8b bc
       0.027889598 0.011123145 0.06747156 -0.01699699
000150 9f 55 78 3d 85 94 ba 3c ee 01 28 3d d6 3d 63 3c
       0.06062853 0.022775898 0.041017465 0.013869723
000160 65 d5 74 3d 61 1e 6f bd 9c 2b f9 3c 35 5d a5 3c
       0.05977382 -0.05837858 0.030416302 0.020186046
000170 aa 7b 01 3d 14 c0 f0 bc 0e 41 43 3d 62 6e 87 bd
       0.031612076 -0.029388465 0.047669463 -0.06612851
000180 79 f9 f4 bc 07 a3 54 3d 98 c4 a3 bd 68 41 9d bd
       -0.029904114 0.051913287 -0.07996482 -0.07678491
000190 25 77 e4 ba 30 3e 02 3b 7d 12 bc bd e0 27 35 bc
       -0.0017430527 0.0019873492 -0.09183214 -0.01105687
0001a0 75 62 93 3d 69 c6 4e 3d 4b 5f 26 bd 83 91 9f bd
       0.071965136 0.050482187 -0.040618222 -0.07791426
0001b0 69 c3 c9 bc 40 51 72 bb 3a 84 4f 3d 89 80 55 bd
       -0.024629312 -0.0036974698 0.05066321 -0.052124534
0001c0 48 f9 86 3c 80 b2 a0 bb fb 75 4c bc f1 f2 c2 bd
       0.016476288 -0.0049040914 -0.012479301 -0.09518994
0001d0 9d 0a 43 3d 66 c9 2e 3d 87 02 9e bc 72 c6 7f 3d
       0.047617543 0.042672537 -0.019288315 0.06244511
0001e0 31 5d 56 3c 5f fb 5c bc 45 80 d9 bb 3f 0f 72 3d
       0.013083742 -0.013487666 -0.0066376054 0.05909657
0001f0 f8 8e ba bd c6 92 69 3d 72 2a 34 bd d5 53 98 3d
       -0.091093004 0.05702474 -0.04398579 0.07437865

net.4.weight f4 [128, 128]
000000 28 9f 10 bd 39 8a bb bb 7b 0a ae bd b5 0a 15 bd
       -0.035308033 -0.0057232645 -0.08498093 -0.036387164
000010 7e 17 26 bc ae 62 23 bc fc c6 02 bb a4 bb 93 bd
       -0.010137437 -0.009972258 -0.001995503 -0.07213524
000020 7d 84 a4 3d e6 dc 06 3d c6 8d 88 bd e4 ed 63 bc
       0.08033083 0.03292551 -0.06667666 -0.013911698
000030 99 fb 99 3d 5d 4f 4e bd ba 39 b5 3d fa de 6d 3d
       0.075186916 -0.050368655 0.08848901 0.058073975
000040 c0 59 fc 3a a4 5a cd 3c 73 1c cc bd 72 2f fb bb
       0.0019252822 0.025067635 -0.09966364 -0.007665568
000050 c5 6b 2f bd e3 e8 ab 3d 19 6b 4f 3d e5 fd 97 3d
       -0.042827386 0.08394029 0.050639246 0.074214734
000060 a9 af 61 3d e7 50 d3 bd 88 3b 97 bd 8f 4d 8c 3d
       0.055099163 -0.10318165 -0.073844016 0.06850731
000070 c4 e8 39 3d 7c a6 49 bd 60 3a d1 39 3b 87 3e bd
       0.045388 -0.049231037 0.0003990708 -0.046515685
000080 fe da 38 3d 13 8c 1c 3c f7 c1 34 3d cf 13 49 bd
       0.045130722 0.009554881 0.04413029 -0.049091157
000090 6c 44 65 bd f3 2f 7f bd 4b e8 d8 bd 38 a5 59 bd
       -0.055973455 -0.062301587 -0.10591181 -0.05313608
0000a0 00 f4 6d 3c 79 d3 b3 3c a2 3b 95 3c a0 33 2a 3d
       0.014523506 0.021951424 0.018216912 0.04155314
0000b0 20 bf 53 bd 66 eb 5d 3d d3 31 bd bc 61 17 36 3d
       -0.051695943 0.05417957 -0.023095047 0.04445589
0000c0 56 07 3c bd f9 4f 7f bd 88 bc 90 bc 61 5c 69 3c
       -0.045905434 -0.062332127 -0.017668024 0.014243216
0000d0 1d 17 9e bd ce 10 9d bc 04 9e 83 3d 70 23 06 3d
       -0.07719252 -0.019173052 0.064266235 0.03274864
0000e0 40 87 9b bb 56 d7 37 bd 82 e0 46 3d b5 03 a9 3d
       -0.0047463477 -0.044883095 0.04855395 0.0825266
0000f0 46 0c 59 3d 31 28 33 bd 00 d9 c1 3d a5 b7 b1 3d
       0.05299022 -0.0437395 0.094652176 0.086776055
000100 8e f7 cc bc e7 23 12 bd c8 99 fe 3c 8e b1 c5 3c
       -0.025020387 -0.03567877 0.031079188 0.024132516
000110 ca f7 34 bd e0 88 5e bd 20 f3 8a bc 4e 7a aa bd
       -0.044181623 -0.054329753 -0.016961634 -0.08324109
000120 ef e7 13 bd 16 d4 81 3c 48 df 06 3c dd 1f f5 3d
       -0.03610986 0.0158482 0.008231945 0.11968968
000130 77 1a 8f 3d 8a 86 90 bd e5 ee 89 3d be 69 82 3d
       0.0698747 -0.07056911 0.06735019 0.06367825
000140 66 f3 eb bc 46 06 1b bd 21 b3 88 3d 80 19 6f 3d
       -0.028802585 -0.03784778 0.06674791 0.058373928
000150 16 b2 fa 3d e7 65 80 3d 72 d1 7a 3d 63 5f 0d bd
       0.122409984 0.06269436 0.0612349 -0.034514796
000160 85 86 38 3d 99 4f 3e 3d 01 a0 09 be 3a 4f b4 3c
       0.045050163 0.04646263 -0.13439943 0.022010434
000170 d0 71 4a bd a3 ba 5b bc 7a 98 76 3d 6c 99 c7 bd
       -0.049424946 -0.013411197 0.060204007 -0.0974606
000180 6c a5 92 3d a5 eb 59 bd 64 0f 90 3d 8a 4a 22 bd
       0.07160458 -0.053203244 0.070341855 -0.039621867
000190 9d 98 21 3d 9b af 22 bd c2 b2 40 bd 38 ae 23 bd
       0.039452184 -0.03971825 -0.047045477 -0.03996107
0001a0 2e ac ca ba 8c ff 41 bd 13 ee 78 bd 10 a3 55 3b
       -0.001546269 -0.04736285 -0.06077392 0.0032598414
0001b0 59 0f 89 3c d5 42 99 3d 6b 27 68 3d b8 a1 04 bb
       0.016730951 0.0748345 0.056678217 -0.0020237993
0001c0 06 58 34 3d e0 45 01 bc 02 b4 c5 3b 53 7f 34 bd
       0.04402926 -0.007890195 0.0060334215 -0.04406674
0001d0 3c db f8 3c 27 a7 a6 3c b6 c6 65 3d 10 16 37 bd
       0.030377977 0.020343376 0.05609771 -0.044698775
0001e0 af b0 10 3d 9c 25 96 3d fe ff 9b 3b 75 0f 1d 3d
       0.03532475 0.07331392 0.0047607413 0.03834482
0001f0 6f 68 c9 3c 25 eb bd 3d 4b e5 24 bd fe 78 26 3d
       0.02458593 0.09273366 -0.040257733 0.04064273
000200 0d 70 8c 3c 10 90 a3 bd 01 c9 94 bd c2 11 80 bd
       0.017143274 -0.07986462 -0.07264901 -0.06253387
000210 b8 4c ec bd de d7 13 3d 62 27 9d bb 38 83 b4 bd
       -0.115380704 0.03609454 -0.0047959546 -0.088140905
000220 9f c1 9f 3d 01 a4 bb 3d 45 81 8c bd b2 4c 8a bd
       0.07800602 0.09162141 -0.06860594 -0.0675291
000230 c9 a4 e5 3a 64 8d 92 3c 84 a6 de 3d 4c ba 03 3d
       0.0017520423 0.017889686 0.10871604 0.03216009
000240 3d fe a5 3d c0 a7 22 bc e0 a9 b7 bc c0 da c1 bc
       0.08105133 -0.00992769 -0.02241987 -0.023663878
000250 ad 8c 93 bd 6e 65 58 3d f5 96 06 3d 2b b9 23 bd
       -0.07204566 0.052831106 0.032858808 -0.03997151
000260 9c 63 63 bd 09 c6 c2 bd 03 26 16 3d be d3 5c bd
       -0.055514917 -0.095104285 0.036657345 -0.05391287
000270 08 2f 19 bc aa eb 73 3d ac d8 a8 3c 40 72 46 3b
       -0.009349592 0.05955092 0.02061113 0.00302805
000280 38 cc 9d bd 52 0f 5c bd a6 3d 1e 3d b9 a4 33 bd
       -0.07704967 -0.053725548 0.03863301 -0.043858264
000290 40 80 af bd 81 b5 35 bd da 1b 6e be 6d e4 73 3c
       -0.085693836 -0.04436255 -0.23252812 0.014886004
0002a0 1d 60 26 bd db 4a b7 3a dd c8 17 bd c9 9c b1 bc
       -0.040619005 0.0013984101 -0.037056793 -0.021681206
0002b0 0e b0 05 bd f1 3a 0b bd b5 5f 80 3d 1c dc d2 bd
       -0.032638602 -0.033991758 0.06268255 -0.10295889
0002c0 1d b7 ab 3d 35 a0 8c ba f3 99 1c bc ac 93 e5 3d
       0.083845355 -0.0010728898 -0.009558189 0.11209807
0002d0 ed 75 77 3d 3e 14 90 bd 7b 7e cb bd 66 e5 26 3d
       0.060415197 -0.07035111 -0.099362336 0.040746115
0002e0 ea 0c 4e bd 09 25 9b 3d 68 d8 46 3c a0 4b a0 bd
       -0.050305285 0.07575423 0.012136556 -0.07826924
0002f0 00 5a f9 3a fa 47 a2 bd cf f1 90 bd 80 61 51 3b
       0.0019024014 -0.07923885 -0.07077371 0.0031948984
000300 63 45 d6 3d be 5d 28 3d ba 32 27 3d f4 0f 86 3d
       0.10462453 0.041105025 0.04081986 0.065460116
000310 ae b1 96 bd 1f eb b4 3d be 09 38 bd 0f 54 74 3c
       -0.073581085 0.08833908 -0.044931166 0.014912619
000320 ce 6d 0d 3b 74 99 3c 3d 20 cf 4c bb 3d 7a 76 3d
       0.0021580341 0.04604478 -0.0031251386 0.06017517
000330 42 4b 55 3d 7d 20 b3 3d b5 cf 0a bd 50 f7 2f bd
       0.052073725 0.08746431 -0.03388949 -0.042960465
000340 a6 b4 09 bc c0 50 23 3c 10 ad c7 ba 40 7d 8d 3a
       -0.008404886 0.009967983 -0.0015234072 0.0010794774
000350 65 bc 14 be a6 c0 1e bd 20 ea 0a 3d 09 57 80 3c
       -0.14524992 -0.038757943 0.033914685 0.015666502
000360 99 ad 60 3d 02 dc dd 3c f4 8b 85 bc e8 58 a2 bc
       0.054853056 0.027082447 -0.016302086 -0.019817784
000370 e2 b0 fc 3c e6 32 65 3d b6 2e a7 bd 77 ee 08 3d
       0.030846063 0.055956744 -0.08163206 0.033430543
000380 33 ca 92 3d 8d 1a 26 3d 83 c4 42 bc 1b 98 0e 3d
       0.07167473 0.040552665 -0.011887672 0.034813028
000390 0a e7 5d 3d 41 3f 94 bd 6c 6f 93 3d 94 6d c9 bc
       0.054175414 -0.07238627 0.071989864 -0.024588384
0003a0 b6 09 cd bb de 41 3f 3d df f0 61 3c 95 97 03 3d
       -0.006257261 0.046693675 0.013790338 0.03212698
0003b0 02 97 31 bd d4 05 8b bd 2d 97 a1 bd 6d ae 9a bd
       -0.043356903 -0.06788221 -0.078901626 -0.075528
0003c0 00 bb da bb 3b c3 b3 3d b3 9e 7a 3d 95 4a 82 bc
       -0.006675124 0.08777472 0.061186504 -0.015904704
0003d0 e0 87 44 bc 62 13 ae bd b1 af 59 3c 77 cf b1 3d
       -0.011995286 -0.08499791 0.013286517 0.08682149
0003e0 63 cd a6 bc 2f b6 44 3d 18 2f c1 3d d4 6a e6 bc
       -0.020361608 0.048025306 0.094328105 -0.028127111
0003f0 52 6b 4e 3b 00 87 e1 3d e0 47 d4 bc 93 39 a3 bd
       0.0031497073 0.11012077 -0.025913179 -0.07969966

net.4.bias f4 [128]
000000 2c 52 19 bd 9d a2 cc bc 5d 60 b8 3c 51 42 8b bd
       -0.03743188 -0.024979884 0.022506887 -0.06799758
000010 ac 68 a0 bd f6 03 dc bc 18 66 ec 3d a9 df 73 bc
       -0.078324646 -0.026857357 0.1154291 -0.014884868
000020 8e 61 86 bd bd 59 48 bd d2 d8 20 bc 45 df 93 bc
       -0.06561576 -0.048913706 -0.009817319 -0.0180508
000030 c7 18 b3 bd b0 27 d1 bd cc 9d 77 bc c3 93 fc b9
       -0.0874496 -0.10212648 -0.015113305 -0.00048175277
000040 9c 5e 06 bd 34 c6 da bb c7 9f 0a 3d 36 f1 c2 bc
       -0.03280507 -0.0066764597 0.03384378 -0.023796659
000050 0e a7 3a bd 98 61 ee 3c 75 00 5d bd 93 0d 2b be
       -0.045569472 0.02909927 -0.053955514 -0.16704397
000060 ca da a2 bd eb 8f 08 bd 1a ac 02 3e d0 28 66 bd
       -0.07951887 -0.033340376 0.12760964 -0.056191266
000070 aa fd df bc f5 cc 68 bc 3f 0a b9 bc 03 60 e4 bc
       -0.027342636 -0.014209022 -0.022587894 -0.027877813
000080 39 0c 28 bd 9e 35 61 bd a9 fc 0b be 04 5c bd bd
       -0.04102728 -0.054982774 -0.13670601 -0.09246066
000090 08 dc 3a bd dc 19 19 3d 10 f8 8a bc 94 bb 5b bd
       -0.045619994 0.037378177 -0.016963989 -0.053645685
0000a0 eb d5 a1 bd cc 85 c8 3d 5f a7 7d bd 10 67 8d bd
       -0.0790213 0.09791145 -0.061927196 -0.06904423
0000b0 8f fb c8 bd 78 ac fb bd bb 3e 95 bd a6 af ca bc
       -0.09813606 -0.12288755 -0.072873555 -0.024741959
0000c0 97 e6 d8 bc 56 90 f6 bd 99 9a ea bd 2f ee c1 bd
       -0.026477141 -0.12039249 -0.114552684 -0.09469258
0000d0 a2 5a 13 bd 98 c9 62 bd 73 cd 9c bd 8d ee fb bc
       -0.035975106 -0.055368036 -0.07656374 -0.030753398
0000e0 ed ac db 3c 43 cf f6 bd 24 14 3a bd de 18 f8 bc
       0.026815856 -0.12051251 -0.045429364 -0.030285295
0000f0 39 5f f4 bc 5b 4a 1c bd 36 25 e5 bc 2c f4 92 bd
       -0.029830562 -0.03815685 -0.027971845 -0.07175478
000100 d8 74 8c bd a7 16 07 3d 50 0d 7e bc 0e b3 c9 bd
       -0.06858224 0.032980587 -0.015506104 -0.09848605
000110 b0 e6 da bd 91 11 95 bd 9e d7 e0 bc f2 65 82 bd
       -0.106885314 -0.07278741 -0.027446564 -0.06367101
000120 d0 cf c5 bc 05 8f b7 bd c6 12 27 bd fd 15 a0 bd
       -0.024146944 -0.08962826 -0.040789388 -0.07816694
000130 5e a9 19 bd 0b 2c ea 3d 11 ba 06 be d6 94 a5 bd
       -0.037515037 0.11434182 -0.13156916 -0.08085029
000140 a5 a0 4a bd 39 1e 98 bd ed 0d ec bc 4a 85 f3 bd
       -0.04946961 -0.074276395 -0.028815234 -0.11890657
000150 db 69 84 bb db 5a 4d bd 2c 23 ad bc 38 85 16 bc
       -0.0040409393 -0.050135475 -0.021134935 -0.009187035
000160 29 97 3b bd 09 6c 3b bd 12 35 08 be 26 68 43 bd
       -0.045798454 -0.045757327 -0.13301495 -0.047706746
000170 50 27 3a bd 0a b6 ee bc b6 84 cb bd 3f a9 d0 bc
       -0.045447648 -0.029139537 -0.09937422 -0.025471328
000180 9f 90 b2 bd 72 52 86 3d bb c5 09 bd 4d e5 9f bd
       -0.087189905 0.06558694 -0.033635836 -0.078074075
000190 3e a5 cc bd 2f 03 35 bd e5 b3 c3 bd 65 db 3a bd
       -0.09992455 -0.04419249 -0.095557965 -0.045619387
0001a0 dd 77 4c bd 7c 4a 48 3d 1c 63 0e bd d6 17 ce bd
       -0.049918998 0.04889916 -0.034762487 -0.1006314
0001b0 ea 5f 7a bc fc 37 e9 bd 4b d7 47 bd 01 73 09 bd
       -0.015281657 -0.11387631 -0.048789304 -0.033556942
0001c0 c9 aa c7 bc f2 8f 2f bd 69 30 d5 bc b4 2b c7 bd
       -0.024373429 -0.042861886 -0.02602406 -0.097251326
0001d0 46 85 0a be 95 e9 55 bd 5e 19 fe bc 4a a1 08 bd
       -0.13527402 -0.052224714 -0.031017955 -0.033356942
0001e0 b9 2e 4c bd 02 9c 57 bc 54 d3 bf bd 74 25 b9 bc
       -0.049849246 -0.013159754 -0.093664795 -0.022600867
0001f0 1a c5 4e bc 72 da bb bb bd c9 f8 3c ba 2e 0e bd
       -0.012620235 -0.005732828 0.030369634 -0.03471253

net.7.weight f4 [128, 128]
000000 43 74 c6 bc 10 ec 03 3e 74 7e 8d bd d0 54 7f 3d
       -0.02422536 0.1288302 -0.06908885 0.062336743
000010 f5 99 90 bd 24 d3 8e 3d 5b 41 c8 bd bf 8b c3 bd
       -0.07060615 0.06973866 -0.097780906 -0.09548139
000020 11 44 46 3d bf db af bb dc 88 43 bd 82 72 bf bd
       0.048404757 -0.005366772 -0.04773794 -0.093480125
000030 b1 a1 22 bd 7f 21 fb bc 3a 45 84 3d a8 40 9b bd
       -0.039704982 -0.03065562 0.064585164 -0.075806916
000040 3b a6 21 bd ec b6 55 3c fc 0e ae 3d bf 5f 9c 3d
       -0.03946517 0.0130441 0.08498952 0.076354496
000050 44 3a b5 bb 1c 3d b5 bd 98 b6 82 bb 8c 5a aa bd
       -0.0055306274 -0.08849546 -0.003989052 -0.08318052
000060 a4 88 b3 bc 50 d8 12 bd 28 5d e8 bd c7 76 95 3d
       -0.021915741 -0.035850823 -0.11345893 0.072980456
000070 5f 58 ab 3d 8e ad a4 3d fa a1 93 bd 2b 28 6e 3d
       0.08366465 0.080409154 -0.07208629 0.058143776
000080 b9 77 a3 bc 2f 5e 95 3d 4f f5 7f 3b a4 9f f4 3b
       -0.01995455 0.07293355 0.0039056127 0.0074653197
000090 99 4c 31 bc 59 95 b7 3d 28 38 83 3d a2 53 26 bd
       -0.010821485 0.08964033 0.06407195 -0.040607102
0000a0 25 70 6b 3d 85 3f 94 3b 95 23 4d bd d5 f0 af bb
       0.057479996 0.0045241737 -0.05008276 -0.0053692856
0000b0 a6 b0 b7 bc 94 17 58 bd ef bc ea 3c 16 04 a0 bc
       -0.0224231 -0.05275686 0.028654544 -0.019533198
0000c0 a6 37 5a bd 38 a6 3a 3a 5c ee 93 bc 68 95 b6 ba
       -0.053275727 0.00071201054 -0.018057995 -0.0013930025
0000d0 7d 9e 70 3d 57 4d 5e bc af ae e3 bc 45 5d 49 3d
       0.058744896 -0.013568244 -0.027793257 0.049161214
0000e0 26 ad 11 be 4b 9d 51 bd ae b9 5d 3c ba d7 d4 3d
       -0.14226207 -0.051175397 0.013533039 0.10392709
0000f0 04 c6 3b bd a9 7c a1 bd 8e a7 13 3e a0 85 9c 3c
       -0.04584314 -0.07885105 0.14419386 0.019106686
000100 74 02 67 3d 88 9b d9 bd 8a 0a 0b bd b9 5b 95 bc
       0.056398824 -0.10625368 -0.033945598 -0.018232213
000110 ea a7 0a 3d ff a9 c7 3d 32 2c dc 3b 50 b6 10 bd
       0.03385154 0.09749221 0.0067191357 -0.035330117
000120 dc 4b 9d 3a 37 9b 91 3d 3d e3 f9 3d 9a 8e bf bd
       0.0012000757 0.07109683 0.122015454 -0.09353371
000130 1d 82 0b bd ff 3e 9c bd 6c 40 5d 3d 9f 18 57 bd
       -0.034059633 -0.07629203 0.054016516 -0.052513715
000140 c1 0e b5 3d 0e 7e 80 bc 53 16 67 3c e4 5b 82 bd
       0.08840705 -0.015685108 0.014104444 -0.06365183
000150 26 24 12 3e 74 6b e5 bc 9e e6 87 bd 82 e4 47 bd
       0.14271602 -0.02800534 -0.066357836 -0.048801906
000160 25 f1 86 3d d7 c7 b4 3c 1e 13 07 bc 48 7e 96 3d
       0.065889634 0.022067947 -0.008244304 0.07348305
000170 3d 6a a2 bb 71 ff 82 3d d7 4f 80 3d 67 8b b8 3d
       -0.0049565122 0.06396378 0.06265228 0.09010964
000180 9e 53 01 bd 1d b0 7c 3c 35 2f 8c bd 19 5f c6 ba
       -0.031573884 0.015422848 -0.068449415 -0.0015134542
000190 5a 50 ac 3d 51 67 91 bb eb 75 a0 3c ce 24 98 3d
       0.08413763 -0.004437365 0.019587478 0.07428895
0001a0 a1 8b 4a bd d9 1b c1 bd 1f 5f ae 3d 44 90 f9 3d
       -0.049449567 -0.0942914 0.08514237 0.121857196
0001b0 ad a2 64 bc f2 ed a7 3c 0d ee 24 3d 10 d9 3d bc
       -0.013954801 0.020499203 0.040266085 -0.011587396
0001c0 ff 86 a8 3d 83 93 1e 3d eb 61 ce 3d dd a3 84 3d
       0.082288735 0.038714897 0.1007727 0.06476567
0001d0 ed ae 6c bc f6 a6 7e bd a0 b0 97 bd 6d 24 58 bd
       -0.014446002 -0.062170945 -0.074067354 -0.052769113
0001e0 99 a3 c2 3c 30 99 78 3c 92 9d 7e bc b5 f8 71 bd
       0.02375965 0.0151732415 -0.015540497 -0.059075076
0001f0 98 6f ab bc 97 e7 e4 3d 30 da b4 bd 3a 67 7b 3c
       -0.020927235 0.11176985 -0.088306785 0.015344435
000200 b1 42 e3 bc 21 7e f0 3c 5b ac 80 bd 0a d5 91 3d
       -0.027741762 0.029357018 -0.06282874 0.07120712
000210 83 33 a0 bd 5e 24 a6 bd d1 98 19 bc 63 60 07 3c
       -0.07822325 -0.08112405 -0.009374813 0.0082627265
000220 87 6a 06 be 44 53 fe bb 83 f9 02 bd d5 9e 25 3d
       -0.13126574 -0.007761391 -0.031976234 0.040434677
000230 7a a7 85 3d 30 79 a8 3c 35 59 8b bd 80 92 9f 3d
       0.06526084 0.0205656 -0.06804124 0.077916145
000240 c7 6a 1d be 21 52 ad bc a3 3b 26 bd 04 5e 58 bd
       -0.15372764 -0.021157326 -0.040584218 -0.052824035
000250 48 aa 98 bd 9d 8d a7 bc b1 15 a7 bd 4a 50 28 bd
       -0.074543536 -0.020453269 -0.08158434 -0.041092195
000260 c8 23 3e bd 75 25 54 3d 8e 47 dc 3b 85 82 39 bd
       -0.046420842 0.051793534 0.006722397 -0.04529049
000270 7d 6f 49 bd 6f 2e 94 3b e2 86 cc bd 19 29 82 3d
       -0.04917859 0.004522137 -0.09986664 0.06355495
000280 5a 1d 04 bc 66 b1 8b 3d fc 9b 07 bd 79 92 00 bd
       -0.008063639 0.068209454 -0.033107743 -0.031389687
000290 f4 ff a5 bc 93 d9 39 3a 12 95 a9 3d fe ca 66 bc
       -0.02026365 0.0007089611 0.08280386 -0.014086483
0002a0 df 08 fb 3d 91 66 3c 3d 80 1c 9a 3b 19 1d c0 3d
       0.122575514 0.045996252 0.0047031045 0.0938055
0002b0 33 3e 25 bd 9b 91 9e bc ae 5a 4b 3d 73 79 07 3d
       -0.04034252 -0.01935654 0.049647026 0.033074807
0002c0 d8 34 4c bd 50 b8 7c bd 9e 02 ce 3d f8 17 eb bd
       -0.049855083 -0.06169921 0.10059093 -0.11479181
0002d0 c9 36 c1 bb e2 42 01 3e 43 a3 b5 3c e1 ae 40 bc
       -0.0058964235 0.1262317 0.022172576 -0.011760444
0002e0 c8 c9 8c ba f9 72 b2 3d b2 18 83 3d 42 3b 71 bd
       -0.0010741288 0.087133355 0.06401195 -0.058894403
0002f0 65 6b 1b bd df ef b6 bd 14 8d 9c bc c2 b1 05 bc
       -0.037944216 -0.089324705 -0.01911024 -0.008160057
000300 f8 e6 1f 3d 31 67 b4 3d 11 51 c2 bd 45 01 93 bd
       0.03903863 0.08808745 -0.094881184 -0.071779765
000310 51 ad 14 3d 9e 55 e1 bb 92 60 0d be d4 62 10 3b
       0.0362981 -0.0068766614 -0.1380637 0.0022031562
000320 12 45 d9 3b 27 cc 21 3c c1 39 a1 3b 2d 32 69 3d
       0.0066305483 0.009875334 0.004920215 0.056932617
000330 c6 bc 24 3c ab 0d 2a bd 9a 2a f1 bd 28 cf e4 bc
       0.010054773 -0.04151694 -0.11775704 -0.027930811
000340 f8 b6 5a 3d 9f 5b c5 bd 7d d5 ff 3d 28 d8 f2 3c
       0.05339715 -0.09636616 0.124918915 0.029644087
000350 06 80 d8 3b 51 da b9 3c ce f3 c2 3c 93 fd 00 3e
       0.0066070585 0.02268711 0.023797896 0.12596731
000360 6f 09 8b 3d cc 87 68 3c 51 13 0a bc 88 86 dd 3d
       0.06788909 0.014192533 -0.008427457 0.108166754
000370 dc a5 40 bd 35 33 87 bd c6 4f cb bc 8e 13 4d bd
       -0.047033176 -0.06601564 -0.024818312 -0.050067477
000380 2a 00 6a bd 2e 6c 9d bd 68 2d 60 3d ce 56 d9 bd
       -0.057129063 -0.07686649 0.054730803 -0.1061226
000390 8c 70 25 be a3 0f 18 bd e0 4e 88 bd 3d 20 30 3c
       -0.16156214 -0.037124287 -0.06655669 0.010749874
0003a0 c7 b7 85 3c f5 2e fc ba f8 6c 07 be dc 90 23 3d
       0.016322983 -0.0019240069 -0.13225162 0.03993307
0003b0 bf df 0d bd 5e 02 78 bd 74 c8 bb 3c ff 65 8e bd
       -0.03463721 -0.060549133 0.022922732 -0.06953048
0003c0 c2 58 32 3c 18 cc 6d 3d 5f 3c f7 bd 04 0a 0f be
       0.010885419 0.058055967 -0.12072062 -0.13968664
0003d0 49 0c cb 3b 41 2c 4a bd 32 a0 d3 bd 63 18 2a bd
       0.006196533 -0.04935861 -0.10333289 -0.041527163
0003e0 c3 2f a0 3d 71 96 a0 3d 26 46 7f 3d 93 a5 28 bd
       0.0782161 0.078411944 0.06232276 -0.04117353
0003f0 5a c2 fc 3c ea 3c 94 bc f5 aa 9d 3d ef 88 69 bc
       0.030854393 -0.018095452 0.07698623 -0.014253839

net.7.bias f4 [128]
000000 a5 cf 88 3c c0 70 49 bd 7a 1d 29 bd d5 93 9a bb
       0.016700575 -0.049179792 -0.041287877 -0.00471733
000010 22 8d d6 bd b8 9b 23 bd d6 6f b8 bd 59 73 d6 bd
       -0.10476138 -0.039943427 -0.09005706 -0.104712196
000020 f3 7f be 3c 45 6b 0b 3d b7 6b 74 3c 7a 5c 2b 3c
       0.02325437 0.034037847 0.014918259 0.01045906
000030 aa cb 4e bd 85 f7 ba bd eb 5c 2b 3d a6 23 45 3d
       -0.050487198 -0.09129242 0.04183666 0.0481297
000040 55 84 01 3c 02 6c 7e bd 31 1f da 3c 45 b0 98 bc
       0.007905086 -0.062114723 0.026626201 -0.01863874
000050 d8 1e 6c 3b f0 ef e0 3b 0f 4f 1a bd 43 3f c9 3c
       0.0036029126 0.0068645403 -0.037673052 0.024566298
000060 42 19 02 3d 1d 49 b1 bd 37 12 7d 3b a8 d9 b8 3b
       0.03176237 -0.086565234 0.0038615593 0.005641181
000070 20 89 06 bd 1f 02 fa bd 31 4d 20 bb 92 da ea 3c
       -0.032845616 -0.12207436 -0.0024460072 0.028668676
000080 eb 37 85 bc 58 89 88 bd 33 30 3d 3c d3 d2 94 3b
       -0.016262015 -0.06666821 0.011547136 0.004541734
000090 a6 eb 9e 3b a5 59 47 bd 2c 36 8e 3c b0 70 83 3c
       0.004849869 -0.048669476 0.017359816 0.016044945
0000a0 c1 8b 79 3c 12 c8 79 bb b9 93 a9 bd 46 a6 e4 bd
       0.015231074 -0.0038113636 -0.08280129 -0.11164527
0000b0 28 46 cb 3b 3e df 29 bd f6 a5 c9 3b 3e 46 01 bd
       0.0062034316 -0.041472666 0.0061538173 -0.03156113
0000c0 4a 32 0a bd 3f 3d 0a 3d 61 1a 69 bd 48 8c b5 bc
       -0.033739366 0.033749815 -0.056909923 -0.022161618
0000d0 76 34 97 bc 3d 5e 08 be 1a cb d3 bd 15 3e e6 3c
       -0.018457633 -0.13317199 -0.10341473 0.028105775
0000e0 48 7b 4f bd ab 16 50 3d 67 79 a5 3c 05 06 8d bc
       -0.05065468 0.050802868 0.02019949 -0.017214784
0000f0 2b e7 09 3d 3e 53 95 bd b3 96 11 3c 5b b8 2d 3c
       0.033667725 -0.07291268 0.008886027 0.010603036
000100 67 be 24 bb 24 98 81 3d 8a ff da bd db 9d 47 bc
       -0.0025137903 0.06327847 -0.106932715 -0.012183632
000110 04 dd ce bc cb f1 7a 3d 63 b3 7f 3c b7 0c 93 3d
       -0.025251873 0.061265748 0.015606734 0.071801595
000120 76 35 ac 3c 34 9c b6 3c 81 53 8a 3c cd 27 6a bc
       0.021021586 0.02229128 0.01688552 -0.014291716
000130 80 e3 a2 ba 00 56 84 bd 55 d7 98 3c 49 44 00 be
       -0.001242742 -0.06461716 0.018657366 -0.12526049
000140 26 ce 62 3d e5 61 33 bd 7c 42 d6 3c 85 9a 07 be
       0.05537238 -0.04379453 0.02615475 -0.13242538
000150 79 6c 39 bd ef 8b af 3c 07 2a 95 bc d3 9e aa 3b
       -0.045269463 0.02142903 -0.018208517 0.0052069216
000160 e7 d6 62 bd 2f bb 24 3d 31 b0 9d bd 6c 1c 63 3c
       -0.055380728 0.040217575 -0.076996215 0.013861757
000170 c4 f5 3b bd 1c cc 83 3d a0 d2 32 bc 9d c8 29 bd
       -0.045888677 0.06435415 -0.010914475 -0.041451085
000180 2a 7e a0 3c 02 df b6 bd ff e9 62 3c dd 58 37 bd
       0.01959141 -0.08929254 0.013849734 -0.04476248
000190 84 cb 85 bb ef 1c 77 bd 1f 70 0c bb a6 63 e5 3b
       -0.004083099 -0.060330328 -0.0021429134 0.0070004044
0001a0 4e 4a 86 3d 4f fb b0 3b b2 84 dd 3b b6 d6 fc 3c
       0.06557141 0.005401052 0.0067602033 0.0308641
0001b0 65 5e c9 bc cb ed db bc f7 26 21 3b 33 5e 85 bd
       -0.024581144 -0.026846787 0.0024589875 -0.06512108
0001c0 00 94 6a 37 6f bb 03 3c ea e4 f3 3c 8b 22 cd 3c
       1.3981946e-05 0.008040293 0.02977224 0.025040885
0001d0 43 93 6e 3c 57 85 b9 bc da e2 1f bc 50 5f 14 3d
       0.014561477 -0.02264659 -0.0097586755 0.03622371
0001e0 90 ba d0 bd 86 79 ef bd ce 26 69 bd 62 ca 3d bd
       -0.10191834 -0.11693101 -0.056921773 -0.046335585
0001f0 5d 3e 54 3d 82 1b 01 3d 3d 9e 1b 3c 3f 1a 23 bc
       0.051817287 0.031520374 0.009498176 -0.009954988

net.10.weight f4 [1, 128]
000000 b8 d5 5d 3c d1 9d 14 3c f4 b1 10 bc 34 b8 d3 3b
       0.013539724 0.0090708295 -0.00883149 0.0064611677
000010 c9 9d 6d bd 08 9f 32 bd e5 5b 3b 3c 7c 67 7e bc
       -0.058011804 -0.043608695 0.011435484 -0.015527602
000020 67 de 9d 3b 1b dc b9 3c 9b 3d 33 3c 1d 3d c9 3b
       0.004817772 0.022687962 0.010939981 0.0061413185
000030 ab 64 84 bc 45 c3 a4 3c c8 31 a2 bc 9a 8e 6f bc
       -0.016161283 0.020112643 -0.019799128 -0.014621401
000040 91 da 0d bd 7e 3b c0 3c c4 48 23 3c 56 69 35 3c
       -0.03463227 0.023465868 0.009966079 0.011072477
000050 68 55 8a 3c 09 64 e5 3b 6b 7e cc 3b 46 18 f2 3b
       0.016886428 0.0070004505 0.006240656 0.0073881475
000060 a3 6b d7 bc df bd 1f bb d5 1d 4b 3c 89 4b 50 3c
       -0.026296442 -0.0024374647 0.012397249 0.0127133215
000070 ac 76 aa 3b 35 bb 34 3c 00 2a c3 bc 09 30 c8 bc
       0.005202135 0.011030962 -0.023823738 -0.024436967
000080 ef 16 74 bd 3c 52 55 3d 6b 49 04 3c 8d 3e 51 3c
       -0.059592184 0.052080378 0.008074145 0.012771261
000090 49 11 0a 3c 15 da a8 3b d0 b4 fe 3b b1 fd 19 3c
       0.008426973 0.0051529505 0.0077730194 0.009398864
0000a0 99 22 5e 3c f6 60 e9 3b db 87 f3 bb 93 88 3d bc
       0.013558053 0.0071221543 -0.0074319667 -0.011568206
0000b0 03 01 55 3c 2c 10 05 bd 0e ca 8d 3c ee 46 00 3d
       0.0130007295 -0.032486126 0.017308261 0.031317644
0000c0 ca cf 35 bd b3 0a 60 3c 88 ff 22 3c 31 0a fd bc
       -0.044387616 0.013674426 0.009948619 -0.030888649
0000d0 da 1c 49 3c 57 6f 98 bc 2e a2 48 3d db 15 44 3c
       0.012274945 -0.018607778 0.04898279 0.011968101
0000e0 76 4d 1a bc a6 de a5 bc b8 0f 12 bd 3d 27 d0 3a
       -0.009417882 -0.020247769 -0.03565952 0.0015880835
0000f0 08 3d 03 bd be 9a 96 bd ca 07 5c 3c 88 d3 52 bd
       -0.032040626 -0.073537335 0.013429591 -0.051471263
000100 55 15 10 3c f5 a1 c5 bc ec ef 18 bd a3 06 25 bd
       0.008794148 -0.024125079 -0.037338182 -0.040289532
000110 03 6a e3 bc ab a7 cc bc ba 6d 6e 3c 25 70 cb bc
       -0.027760511 -0.024982294 0.014552528 -0.024833748
000120 7e 5f 72 3c a0 a6 47 3c d3 0f 90 3c 83 8e f1 ba
       0.014793275 0.012185723 0.01758567 -0.0018429313
000130 0f 11 cf 3b ab f9 1f 3c 58 a2 73 3c 4b 9d 32 bd
       0.006319172 0.009764115 0.014870249 -0.043607038
000140 77 1a 11 bd 5a 45 b9 bc 3a a1 74 3c 20 97 b6 bc
       -0.03542563 -0.022616077 0.0149310175 -0.022288859
000150 95 63 24 bd 89 9a 6d 3c 19 96 80 3c a7 21 28 3c
       -0.04013403 0.014502176 0.015696572 0.01026193
000160 fa 3e 1a 3c 05 42 d0 bc f8 1c 01 bd a4 e8 18 3c
       0.009414429 -0.025422106 -0.031521767 0.00933281
000170 7c 09 f4 3b 8d f8 f9 bc 5c e4 f1 3b 28 35 88 bc
       0.0074474197 -0.030514026 0.007381959 -0.01662691
000180 43 f1 0f 3c 42 04 c2 bc 98 86 23 3c 75 73 80 3d
       0.008785549 -0.02368367 0.00998082 0.06272022
000190 94 55 88 bc 0b 45 6d 3b 68 7c 1a 3c 9e 92 82 3c
       -0.01664237 0.0036204483 0.009429075 0.015939053
0001a0 6b 6a fe bc cc 20 81 3c 0b 60 e5 3b b4 92 51 3c
       -0.031056603 0.01576271 0.0069999746 0.012791324
0001b0 98 53 93 bc c9 59 7d bd fb 40 4c 3c c2 04 98 bd
       -0.017984197 -0.061853204 0.012466664 -0.074227825
0001c0 ef f8 a4 3c ce b3 6e 3c c5 43 6d 3c ac 1f ad 3c
       0.020138232 0.014569236 0.01448149 0.021133266
0001d0 c1 c0 ad 3c 76 72 b4 3a e4 96 e3 bb 43 4c 69 3c
       0.021210076 0.0013767022 -0.006945478 0.014239374
0001e0 95 58 38 3d 91 cc e5 bb 10 73 f6 bb 3c 57 5f bc
       0.045006353 -0.0070129116 -0.0075210407 -0.013631638
0001f0 cf 3f b0 bc 31 ac 4c 3c 4a ab 12 3c 94 51 63 3b
       -0.021514801 0.0124922255 0.008951971 0.0034686076
